model_state_latest_200_epoch_4_compression_rate.pth (torch, 271931 bytes, 13 tensors)

module.fc1.weight f4 [1089, 43]
0	0x3e131340	0.14362812
1	0xbd874073	-0.066040896
2	0xbe2f9196	-0.1714538
3	0xbe8335b2	-0.25626904
4	0x3de91957	0.11381786
5	0x3d52050a	0.051274337
6	0x3c4bfb7a	0.012450093
7	0xbd65430e	-0.05597215
8	0xbeb9e539	-0.36307696
9	0xbe59782b	-0.21237247
10	0x3e8f0c5f	0.27939126
11	0xbdefbf83	-0.1170645
12	0x3df5f43c	0.12009475
13	0xbdf62645	-0.12019018
14	0x3e021a4d	0.12705345
15	0x3cdff832	0.027340028
16	0x3ba01586	0.0048853783
17	0xbe2ca388	-0.16859257
18	0x3cd40cf9	0.025885092
19	0x3e4bf793	0.19918661
20	0x3e071509	0.13191618
21	0x3ee012d9	0.4376438
22	0xbe046d60	-0.12932348
23	0xbd459505	-0.04823782
24	0xbf0f98ba	-0.5609242
25	0xbda6163f	-0.08109712
26	0xbd9d4c0e	-0.07680522
27	0xbab3c242	-0.001371451
28	0xbca7660e	-0.020434406
29	0x3d0d92c8	0.03456381
30	0xbdea7fae	-0.11450134
31	0x3e4360d5	0.19079907
32	0x3eae72bf	0.3407192
33	0x3de257e2	0.110519186
34	0x3ceec3df	0.029146133
35	0x3e61421f	0.2199788
36	0xbdc1d785	-0.09464935
37	0x3c53b80f	0.012922301
38	0x3e29efb8	0.16595352
39	0x3df864d7	0.12128609
40	0x3ead3c94	0.3383528
41	0x3e02611f	0.12732361
42	0xbe4c1720	-0.19930696
43	0xbe1f91a9	-0.15582909
44	0xbe1f8b74	-0.15580541
45	0x3d2587a6	0.040412568
46	0xbe5b0e0a	-0.21392074
47	0xbded541a	-0.11588307
48	0xbf076e7b	-0.52902955
49	0xbdb04a36	-0.086079046
50	0x3ded8685	0.11597923
51	0x3e8d9257	0.2765071
52	0xbd488e5f	-0.0489639
53	0x3e88ebaa	0.26742297
54	0xbe90804e	-0.2822289
55	0x3e2aff32	0.16698912
56	0xbe26a895	-0.16275246
57	0x3e8cbd1b	0.27488026
58	0xbd7e8bca	-0.062145032
59	0xbd59d0d2	-0.053177662
60	0x3b74a6d5	0.0037330885
61	0xbccdd49d	-0.025125796
62	0x3e92613d	0.28589812
63	0x3e1c8a23	0.1528707
64	0x3e537446	0.20649824
65	0xbd801893	-0.06254687
66	0xbd1b8a9e	-0.037973993
67	0xbec9b548	-0.3939612
68	0x3da60b3b	0.08107611
69	0x3d9feeca	0.07809217
70	0xbd8894e7	-0.06669026
71	0xbdf27880	-0.1183939
72	0x3d5e23c4	0.054233328
73	0x3ea38082	0.3193398
74	0x3c61da07	0.013784892
75	0x3e90f3fd	0.28311148
76	0x3d1e1e6f	0.038603242
77	0x3d7c37d8	0.061576694
78	0x3eb9cc5c	0.36288726
79	0xbe6a734a	-0.22895542
80	0xba7f7a09	-0.00097456627
81	0x3d5ab65a	0.05339656
82	0x3d35b39b	0.04436074
83	0x3eb1ebb2	0.34750134
84	0x3e6d382b	0.23165958
85	0xbe1cd14a	-0.15314212
86	0xbd0b2374	-0.033969358
87	0xbe712862	-0.23550561
88	0xbd935679	-0.07194228
89	0xbe3fe481	-0.18739511
90	0xbb6d134a	-0.0036174827
91	0xbeb7541c	-0.35806358
92	0xbca7ad88	-0.020468488
93	0x3d9ac94b	0.07557925
94	0x3dc06316	0.09393899
95	0xbe860925	-0.26178852
96	0x3e86c4d9	0.26322058
97	0xbbfc3073	-0.0076962053
98	0x3e7a5fda	0.24450627
99	0xbd60e256	-0.05490335
100	0x3d610122	0.05493272
101	0xbe5aafc0	-0.21356106
102	0x3d2c0a65	0.0420021
103	0xbe741ab7	-0.23838316
104	0xbd98e08a	-0.074647024
105	0x3e844945	0.2583715
106	0x3e01157e	0.12605855
107	0x3dd2f553	0.10300698
108	0xbe2f036d	-0.1709115
109	0xbdc937ea	-0.09825118
110	0xbeea565f	-0.4576902
111	0xbda67982	-0.081286445
112	0x3e2e49a2	0.17020276
113	0x3ddd7b89	0.10814578
114	0xbdf917a8	-0.12162715
115	0x3d43a7bd	0.04776739
116	0x3e871408	0.2638247
117	0x3dd7f9ff	0.1054573
118	0x3e5424e3	0.20717196
119	0xbe33934a	-0.17536655
120	0x3d5edfd5	0.05441268
121	0x3ebf1ca4	0.3732654
122	0xbbddb136	-0.00676551
123	0xbd745236	-0.059648715
124	0x3da5bfee	0.08093248
125	0x3e49ffee	0.19726536
126	0x3e43c0ef	0.19116567
127	0xbddd72a8	-0.108128846
128	0xbe5058c9	-0.20346369
129	0xbea45e09	-0.32102993
130	0xbde7a963	-0.11311605
131	0xbea1ff02	-0.31639868
132	0xbcc60feb	-0.024177512
133	0xbd330397	-0.043704595
134	0x3cd97f46	0.026549947
135	0xbd5754e6	-0.0525712
136	0x3e19ce30	0.1502006
137	0xbb59144d	-0.0033123672
138	0x3c928770	0.017886847
139	0x3e89846f	0.2685885
140	0x3d5dcdf1	0.05415148
141	0x3e095844	0.13412577
142	0xbce3bbb0	-0.027799457
143	0x3d7ee1cb	0.06222705
144	0x3dad19ba	0.084521726
145	0x3c96b8bb	0.018398633
146	0x3c3f4d7b	0.011676188
147	0xbd42bde6	-0.047544383
148	0x3e5664fe	0.20936963
149	0xbdec376c	-0.115340084
150	0x3e2b9a73	0.16758136
151	0xbe27fbec	-0.16404694
152	0x3cbb3c42	0.022855882
153	0xbe4343e1	-0.19068862
154	0xbeac0820	-0.3359995
155	0x3ceffd97	0.029295726
156	0x3cdd4c7a	0.027014006
157	0x3c85f0df	0.016350208
158	0x3d92b7ae	0.0716394
159	0xbc8f71a2	-0.017510239
160	0x3c7894e7	0.01517222
161	0x3e821ec6	0.25414103
162	0x3d8c8315	0.068609394
163	0x3cb0e54f	0.021593718
164	0x3e8d9803	0.27655038
165	0x3c76a605	0.015054231
166	0xbe65a349	-0.2242557
167	0xbe3168b2	-0.17325094
168	0x3da5126d	0.08060155
169	0x3e0bd2d8	0.1365465
170	0xbe0751ee	-0.13214847
171	0xbe67d3d0	-0.22639394
172	0xbf5b91a0	-0.8576908
173	0x3db2d61e	0.08732246
174	0xbe6e4fc2	-0.23272613
175	0xbecb7e56	-0.39744824
176	0xbe3df70b	-0.1855127
177	0xbe119ffd	-0.14221187
178	0xbf1a501b	-0.6027848
179	0x3dd4a26e	0.103825435
180	0x3dfd0023	0.12353542
181	0xbecd9574	-0.40153086
182	0x3e468c35	0.19389422
183	0xbe69feaf	-0.2285106
184	0xbe81ac37	-0.25326702
185	0xbe8513cf	-0.25991675
186	0x3ebf05ee	0.37309211
187	0x3dcccc36	0.09999888
188	0xbe8816d0	-0.26579905
189	0x3d3e6e15	0.0464917
190	0xbd355245	-0.04426791
191	0x3eff694f	0.49885032
192	0xbe315c91	-0.17320468
193	0x3e23d66e	0.15999767
194	0x3ead0baf	0.33797976
195	0x3e04e22c	0.12976903
196	0xbf1d0cf5	-0.61347896
197	0xbdc7eeb6	-0.097623274
198	0x3e21d91f	0.15805481
199	0x3e750af2	0.23929957
200	0x3ee57f30	0.448236
201	0x3f03c794	0.5147641
202	0xbdcb098e	-0.09913932
203	0xbdbe859a	-0.09302826
204	0x3e85c61d	0.2612771
205	0x3e981a04	0.29707348
206	0xbe569994	-0.20957023
207	0x3f2226a7	0.6334023
208	0xbed16cef	-0.40903422
209	0xbea2944e	-0.31753772
210	0xbf1c26c8	-0.60996675
211	0x3e1f1692	0.15535954
212	0x3e79a8ca	0.24380794
213	0xbeec2115	-0.4611899
214	0xbf142f7d	-0.5788496
215	0xbe1c2d9f	-0.15251778
216	0xbe32de25	-0.17467554
217	0x3c96c3bb	0.018403878
218	0xbe05be2b	-0.13060825
219	0xbdc54990	-0.096331716
220	0x3ca5b12c	0.020226084
221	0xbe0ed8ac	-0.13949841
222	0xbeab70d7	-0.33484527
223	0x3dcd789f	0.10032772
224	0xbef129c2	-0.4710217
225	0x3eb3820c	0.35060155
226	0x3d083f3e	0.033263437
227	0x3e15af9c	0.14617771
228	0xbd9500a0	-0.0727551
229	0x3e90d771	0.2828937
230	0x3da8c0ba	0.08239885
231	0x3dd48c64	0.1037834
232	0xbe46c216	-0.19409975
233	0x3d38fbd9	0.045162056
234	0xbc8a7b85	-0.016904602
235	0xbddf795e	-0.10911821
236	0x3e561e67	0.20910035
237	0x3caf22c7	0.021378888
238	0x3e782579	0.24233045
239	0xbeade319	-0.33962324
240	0xbf0b3d6f	-0.54390615
241	0x3d0cd11a	0.034379102
242	0xbca90aa2	-0.020634953
243	0x3e4f84f2	0.20265558
244	0x3cf25305	0.029580602
245	0xbe9076af	-0.28215548
246	0x3e27e24f	0.16394924
247	0x3ea3b74d	0.31975785
248	0x3d08b40f	0.033374842
249	0xbd046717	-0.032324877
250	0x3edf2227	0.43580744
251	0xbd5499bf	-0.051904436
252	0xbe79ddd6	-0.2440103
253	0x3e3dc7a7	0.18533193
254	0x3e5ba913	0.21451215
255	0x3cb02e58	0.021506473

module.fc1.bias f4 [1089]
0	0x3d9bb343	0.07602551
1	0xbd2faef5	-0.04289146
2	0xbc916422	-0.017747942
3	0xbe421e89	-0.1895696
4	0x3e192d79	0.14958753
5	0xbde7127a	-0.11282821
6	0xbd7e180e	-0.06203466
7	0xbd7c6a60	-0.061624885
8	0xbd79a019	-0.060943697
9	0xbe08caab	-0.13358562
10	0xbdc183fb	-0.094490014
11	0xbd4f0fef	-0.050552305
12	0xbe1c9efd	-0.15295024
13	0xbd9e2115	-0.07721154
14	0xbd5f7ad6	-0.054560505
15	0xbe2661e1	-0.16248275
16	0xbc61815d	-0.013763753
17	0xbe609086	-0.21930131
18	0xbe0a91cd	-0.13532181
19	0xbaca6fc7	-0.0015444689
20	0xbd93a29a	-0.07208748
21	0xbe9172dd	-0.28407946
22	0xbd32e4bc	-0.04367517
23	0xbd64f81b	-0.055900674
24	0xbde94756	-0.113905594
25	0xbdb68296	-0.08911626
26	0xbd443c5e	-0.047909133
27	0xbd74687b	-0.059669953
28	0xbd8f0592	-0.06983484
29	0xbd932727	-0.07185202
30	0xbc682ccc	-0.014170837
31	0xbd967b7c	-0.073477715
32	0xbd9f19de	-0.07768606
33	0xbd2016f3	-0.039084386
34	0xbdccfcd3	-0.1000916
35	0xbd0fe11d	-0.035126794
36	0xbdb4bded	-0.08825288
37	0xbe00b015	-0.1256717
38	0xbd505ae7	-0.05086794
39	0xbe1d1e45	-0.15343578
40	0xbe30e2b2	-0.17273977
41	0xbd49c99a	-0.049264528
42	0xbe12d469	-0.1433884
43	0xbd90d960	-0.07072711
44	0xbde2f186	-0.11081223
45	0xbe20dc0a	-0.15708938
46	0xbcc0a6d1	-0.023517044
47	0xbc6cb7b3	-0.014448094
48	0xba87bcef	-0.0010355989
49	0x3be03ec5	0.00684342
50	0xbea061e9	-0.313247
51	0xbe06cdd0	-0.13164449
52	0xbda5403c	-0.08068892
53	0xbc1774d9	-0.009244167
54	0xbd02ed0f	-0.031964358
55	0xbd523748	-0.05132225
56	0xbddd0cc3	-0.1079345
57	0xbda295fd	-0.07938764
58	0x3d5a3258	0.053270668
59	0xbda4dfd3	-0.080505036
60	0xbdb8c71e	-0.090223536
61	0xbe0bbf4f	-0.13647197
62	0xbd265474	-0.040607885
63	0xbd7efd9e	-0.062253587
64	0xbe20c17c	-0.15698808
65	0x3d39248b	0.045200866
66	0xbdd23795	-0.10264508
67	0xbd68a3f5	-0.056796987
68	0x3d360906	0.0444422
69	0xbe436755	-0.19082387
70	0xbe07bd48	-0.13255799
71	0x3b75b490	0.0037491657
72	0xbd881143	-0.066439174
73	0xbd68e485	-0.05685856
74	0xbe487a79	-0.1957797
75	0xbe0df421	-0.13862659
76	0xbe02d060	-0.12774801
77	0xbda80fdc	-0.0820615
78	0xbe255951	-0.16147353
79	0xbce31b2c	-0.027722917
80	0xbdde98ff	-0.108690254
81	0xbe1f73ff	-0.15571593
82	0xbd99ad94	-0.075038105
83	0xbe0ef603	-0.13961034
84	0xbe223b7b	-0.15843002
85	0xbdefa0ef	-0.117006175
86	0xbe210dcf	-0.15727924
87	0xbe8b29df	-0.27180383
88	0xbe89ad6c	-0.26890123
89	0xbdc544be	-0.09632252
90	0xbd9208a8	-0.07130557
91	0xbda797ff	-0.08183288
92	0xbe4290d9	-0.19000567
93	0xbd7f46c4	-0.062323347
94	0xbd834d8e	-0.06411277
95	0xbd49d0b7	-0.04927131
96	0xbe0e8376	-0.13917336
97	0xbcaf1823	-0.021373814
98	0xbd021420	-0.031757474
99	0xbe21251a	-0.1573681
100	0xbdc56f07	-0.096403174
101	0xbd9c1506	-0.076211974
102	0xbe226f27	-0.15862714
103	0xbde646e3	-0.11243989
104	0xbda3b021	-0.07992578
105	0xbe310c78	-0.17289913
106	0xbe034c65	-0.12822111
107	0x3da22a90	0.079182744
108	0xbce11911	-0.027477773
109	0xbe1dc737	-0.15408026
110	0xbd0d230c	-0.03445725
111	0xbdbbc30b	-0.09168061
112	0x3cb5711d	0.022148663
113	0xbdb6567e	-0.08903216
114	0xbe811293	-0.25209484
115	0xbdf9e46a	-0.1220177
116	0x3d8c0852	0.068375245
117	0xbddf962d	-0.10917316
118	0x3ccc3245	0.024926314
119	0xbe4218f2	-0.18954828
120	0xbde6be19	-0.11266727
121	0xbd2dc071	-0.042419855
122	0xbd8ada5b	-0.06779929
123	0x3cc33a32	0.02383146
124	0xbde50712	-0.11182989
125	0xbda40edb	-0.08010646
126	0xbc095332	-0.008381652
127	0xbe255b98	-0.16148221
128	0xbd6ce414	-0.0578347
129	0xbe4c0174	-0.1992243
130	0x3de8fd8f	0.113764875
131	0xbe301d72	-0.17198732
132	0xbe02ef94	-0.12786704
133	0xbd817cc2	-0.06322624
134	0xbdf8d30a	-0.121496275
135	0xbd8ff2f0	-0.070287585
136	0xbeef5149	-0.46741703
137	0xbd95241e	-0.072822794
138	0xbeb2380d	-0.34808388
139	0xbdf93e43	-0.121700786
140	0xbe1c074c	-0.15237159
141	0xbdbe8be3	-0.09304025
142	0xbe8eee80	-0.27916336
143	0xbb81d238	-0.0039618276
144	0xbd9042e3	-0.07044008
145	0xbd0f8d72	-0.035047002
146	0xbde7914a	-0.113070086
147	0x3c97f058	0.018547222
148	0xbe18d652	-0.14925507
149	0xbe0917eb	-0.1338803
150	0x3ae006e7	0.0017091901
151	0xbde1a643	-0.1101804
152	0xbe2bac03	-0.16764836
153	0xbd8cc42a	-0.06873353
154	0xbdb32098	-0.08746451
155	0x3c9b1ce8	0.018934682
156	0xbe7cc534	-0.24684602
157	0x3e00b475	0.12568839
158	0xbe0fc99f	-0.14041756
159	0xbdd5dc76	-0.1044244
160	0xbe075e89	-0.13219656
161	0xbdc217ee	-0.094772205
162	0xbda6596e	-0.08122526
163	0xbe36ebea	-0.17863432
164	0xbccde4ee	-0.025133576
165	0xbd7fbf81	-0.06243849
166	0xbdf2c0ed	-0.11853204
167	0xbdce2f66	-0.10067634
168	0xbe74d46e	-0.2390916
169	0xbb722df0	-0.003695365
170	0xbda0bf4f	-0.07848989
171	0xbe36e1bb	-0.17859547
172	0x3d2b4fcd	0.04182415
173	0xbe2216f9	-0.15829076
174	0xbd207092	-0.039169855
175	0xbdf700c0	-0.1206069
176	0x3ca05abe	0.01957452
177	0xbe710910	-0.23538613
178	0xbe231158	-0.15924585
179	0xbdbd84c6	-0.0925384
180	0xbde9367a	-0.11387344
181	0xbe1976ad	-0.14986677
182	0xbdd6e198	-0.10492247
183	0xbe431c6c	-0.19053811
184	0xbd7fd12f	-0.062455352
185	0xbe283914	-0.16428024
186	0xbd2f7822	-0.042839177
187	0xbda5857b	-0.080821
188	0xbe2d848e	-0.16945097
189	0xbe242c80	-0.160326
190	0xbe3f8eea	-0.18706861
191	0x3bff506d	0.00779157
192	0xbd2160f0	-0.039399087
193	0x3cecd51e	0.028910216
194	0xbd2a6604	-0.041601196
195	0xbe19bb26	-0.15012798
196	0xbdc7e5db	-0.09760638
197	0xbe2ebda5	-0.17064531
198	0x3ca5ae51	0.020224722
199	0xbd0ca8c3	-0.03434063
200	0xbd435558	-0.047688812
201	0xbd6166a2	-0.05502952
202	0xbe165cbe	-0.14683816
203	0x3d9b7e6c	0.075924724
204	0xbe3ca7ee	-0.18423435
205	0xbe144f19	-0.14483298
206	0xbe1e5842	-0.15463355
207	0xbeaaa8e4	-0.33331978
208	0xbe329ed6	-0.17443404
209	0x3c1f1e77	0.009711853
210	0xbe18ecd3	-0.14934091
211	0xbd2a084a	-0.04151181
212	0x3be42cd5	0.006963352
213	0xbdb7a070	-0.08966148
214	0xbe5a972e	-0.21346733
215	0xbdd65bfa	-0.10466762
216	0x3cc60bd6	0.024175566
217	0xbe466cbf	-0.19377421
218	0x3e1656ab	0.14681499
219	0xbdeffd51	-0.11718238
220	0x3c905d9f	0.017622767
221	0x3c5439b8	0.012953214
222	0xbe365660	-0.17806387
223	0xbd965a92	-0.07341494
224	0xbed88fe1	-0.4229727
225	0xbe0d83b7	-0.13819776
226	0xbe0d6a2c	-0.13810033
227	0xbe91b25e	-0.28456396
228	0xbe20ae8e	-0.15691587
229	0xbdd17024	-0.10226467
230	0xbdb3228d	-0.087468244
231	0x3c45b4f6	0.01206707
232	0xbe2cbf87	-0.16869937
233	0xbe1e146e	-0.15437481
234	0x3ba576a0	0.0050495416
235	0xbe35b4d1	-0.17744757
236	0xbe6a51f9	-0.22882833
237	0x3c64a819	0.013956093
238	0xbdfca20d	-0.12335596
239	0xbea2a68e	-0.31767696
240	0xbdd25440	-0.10269976
241	0xbdf95b74	-0.121756464
242	0xbe4be7b7	-0.19912611
243	0xbd914b75	-0.070944704
244	0xbd1355f4	-0.035970643
245	0xbd1d6ed0	-0.038435757
246	0xbe83c314	-0.2573477
247	0x3e95e8aa	0.2927907
248	0xbe47f481	-0.19526865
249	0xbe0ee64f	-0.13955043
250	0xbd1bafcd	-0.038009454
251	0xbe834fd9	-0.25646856
252	0x3c9755ee	0.018473592
253	0xbdf639be	-0.12022732
254	0xbdd3b218	-0.10336703
255	0xbddd5e7f	-0.10809039

module.conv1.weight f4 [32, 1, 7, 7]
0	0xbf6276dd	-0.8846262
1	0xbecd885e	-0.40143102
2	0xbf2038d4	-0.6258671
3	0xbbaee049	-0.0053367955
4	0xbefffc31	-0.49997094
5	0xbea9e6b0	-0.33183813
6	0xbeccea32	-0.40022427
7	0xbf0b7d8b	-0.5448844
8	0xbee325bb	-0.44364724
9	0xbd3e9448	-0.04652813
10	0xbc762ca2	-0.01502529
11	0xbea9b0cc	-0.33142698
12	0x3e9dc570	0.30814695
13	0xbf006624	-0.50155854
14	0xbf473618	-0.77816916
15	0xbd820330	-0.06348264
16	0xbd80b491	-0.0628444
17	0x3d5aa16b	0.053376596
18	0xbe9ff430	-0.31240988
19	0xbd82c623	-0.06385448
20	0xbe79f846	-0.24411115
21	0x3e07fffd	0.13281246
22	0xbe95fe2b	-0.29295477
23	0x3e480868	0.19534457
24	0x3e540f94	0.20709068
25	0xbe181bcd	-0.14854355
26	0x3e209877	0.1568316
27	0xbd5d6c63	-0.054058444
28	0xbe748b13	-0.23881178
29	0xbc1d5e8d	-0.009605062
30	0xbddf9270	-0.109166026
31	0xbd185294	-0.037188128
32	0xbed8a1ba	-0.42310888
33	0x3ed40085	0.41406646
34	0x3dfc834c	0.123297304
35	0xbe0ba187	-0.13635837
36	0xbecc84bc	-0.39945018
37	0xbf373b66	-0.7157501
38	0x3ebb1f1b	0.3654717
39	0xbdd2e464	-0.10297468
40	0xbea0efd9	-0.3143299
41	0xbeb1bb88	-0.34713387
42	0x3dd4a9f0	0.103839755
43	0xbd2b78fe	-0.041863434
44	0xbd5449cd	-0.051828194
45	0xbe8c10b4	-0.27356493
46	0xbeab71e3	-0.33485326
47	0xbe554f72	-0.20831087
48	0x3d57f338	0.052722186
49	0x3d1d1819	0.03835306
50	0xbe0f0cb0	-0.13969684
51	0xbd9030c0	-0.07040548
52	0xbbda6b2e	-0.006665609
53	0xbdcbef8b	-0.099577986
54	0x3cb39c4e	0.021925118
55	0x3e23d3ff	0.15998839
56	0xbcc7d392	-0.024392877
57	0xbd94805f	-0.07251047
58	0x3a92d3c8	0.0011202032
59	0xbcfcd906	-0.030865204
60	0x3e159392	0.14607075
61	0x3d9c24e8	0.07624227
62	0x3d9dabef	0.07698809
63	0xbcb97c9b	-0.022642424
64	0x3d09894f	0.033578213
65	0x3de83d70	0.11339843
66	0x3e1cfdc4	0.15331179
67	0x3d833947	0.06407409
68	0x3da88266	0.082279965
69	0x3d3b3614	0.04570587
70	0x3d378209	0.044801746
71	0x3d9f6fa2	0.07784964
72	0x3d0bb791	0.03411061
73	0xbeb908b7	-0.3613946
74	0xbd9051d4	-0.070468575
75	0x3d52aa0c	0.0514317
76	0x3b51e6f8	0.0032028537
77	0xbd9c50cc	-0.07632598
78	0xbda93d40	-0.08263636
79	0x3da2ddb8	0.07952446
80	0x3e3a52d1	0.18195654
81	0x3d46434b	0.04840402
82	0x3cb78fba	0.022407401
83	0xbd5ea3a1	-0.054355267
84	0xbde188d0	-0.11012423
85	0xbdb60e35	-0.088894285
86	0xbd3fe992	-0.04685361
87	0xbcf447c9	-0.029819386
88	0x3d92d10b	0.07168778
89	0xbbd66a23	-0.006543414
90	0xbc7e3bff	-0.015517234
91	0xbd472f40	-0.048629045
92	0xbd28e3ee	-0.041232996
93	0xbdaf5270	-0.085606456
94	0xbbe2a288	-0.006916348
95	0xbdc8d511	-0.09806264
96	0xbd63a7d8	-0.05557999
97	0xbdeb1374	-0.1147832
98	0xbde69567	-0.11258965
99	0x3d5c73fd	0.053821553
100	0x3e1055d4	0.14095241
101	0xbe2e6fd9	-0.17034854
102	0xbe8b2c82	-0.27182394
103	0xbdf8a447	-0.121407084
104	0x3e2ce476	0.16884026
105	0x3cd3c0e5	0.025848815
106	0x3dfad55f	0.122477286
107	0xbd652d5a	-0.055951454
108	0xbe626619	-0.2210926
109	0xbe51825f	-0.20459889
110	0x3b9f04b4	0.0048528556
111	0x3dee075c	0.116224974
112	0xbe82ea45	-0.25569358
113	0xbd1d6940	-0.038430452
114	0xbe04a89a	-0.12954941
115	0xbb95b052	-0.004568138
116	0xbe7f2cea	-0.24919477
117	0xbdd78ad7	-0.105245285
118	0x3d9e90d3	0.07742467
119	0x3eb2c364	0.34914696
120	0x3dbdacba	0.092614606
121	0x3d410b3b	0.04712985
122	0x3e531f7e	0.20617482
123	0x3d642aba	0.05570481
124	0xbe261e0a	-0.16222396
125	0x3cfe93ae	0.031076279
126	0x3d987953	0.07445016
127	0x3ea6bff8	0.32568336
128	0x3dfce3db	0.123481475
129	0x3e56b724	0.209683
130	0x3d73dd14	0.05953701
131	0x3e10a11b	0.14123957
132	0x3e059f56	0.13049063
133	0xbe77cf13	-0.24200086
134	0x3c36dd98	0.0111612305
135	0xbe3f4e9f	-0.18682335
136	0xbbe27013	-0.006910333
137	0xbe37742a	-0.17915407
138	0xbe6da22d	-0.23206396
139	0xbe05b7ad	-0.13058348
140	0xbe594bae	-0.21220276
141	0xbe2e2862	-0.17007592
142	0xbe4b2df1	-0.19841744
143	0xbe519a64	-0.20469052
144	0xbe283f8f	-0.16430496
145	0xbe7c68ab	-0.24649303
146	0xbd1ef9f3	-0.03881259
147	0xbbc5841b	-0.006027711
148	0x3c5cca94	0.013476033
149	0xbb5533ae	-0.0032532024
150	0x3bfd0c6c	0.007722428
151	0xbc8cf475	-0.01720641
152	0xbd6749e8	-0.056466967
153	0xbd117ea6	-0.035521172
154	0xbb3f7894	-0.0029216157
155	0xbc415091	-0.011798994
156	0xbca2904c	-0.019844197
157	0x3bd59c75	0.0065188953
158	0xbb1dec36	-0.0024097092
159	0xbd89a28f	-0.06720459
160	0xbd7a371a	-0.061087705
161	0xbd7784c3	-0.060429346
162	0x3cb69797	0.02228908
163	0xbc6079f4	-0.013700951
164	0x3c4cb624	0.012494598
165	0xbd2a9a48	-0.04165104
166	0xbd70cb88	-0.058787853
167	0x3a0c74c8	0.0005357978
168	0xbd44a50e	-0.04800897
169	0xbd3ba061	-0.045807246
170	0xbcdb6ef5	-0.026786307
171	0xbd0188af	-0.031624492
172	0xbdc38357	-0.095465355
173	0xbd5778b3	-0.052605342
174	0xbbd280a0	-0.0064240247
175	0xbd8249ce	-0.063617334
176	0x3c328ac6	0.010897344
177	0xbcee70e4	-0.029106565
178	0xbd1b4095	-0.037903387
179	0xbcf6c3b5	-0.030122617
180	0xbb7bc6a1	-0.0038417953
181	0xbd1740b1	-0.03692693
182	0x3cadaa8e	0.02119949
183	0xbd191e3d	-0.037382353
184	0xbd328836	-0.043586932
185	0xbd9ded71	-0.07711304
186	0xbd308e55	-0.04310449
187	0xbd2e7f16	-0.042601667
188	0xbc4ca690	-0.0124908835
189	0xbc9cdeb4	-0.019149162
190	0xbd997d4f	-0.07494604
191	0x3ca5a4d4	0.020220198
192	0xbd72b266	-0.059252165
193	0x3cf17389	0.029474037
194	0xbd0c9fd2	-0.034332104
195	0xbda5c8af	-0.08094918
196	0xbd9cd318	-0.076574504
197	0xbdb06e27	-0.0861476
198	0xbd98ba58	-0.07457417
199	0x3d9dce9a	0.07705422
200	0x3c8e75bd	0.017390126
201	0xbcb227b1	-0.021747442
202	0x3d68ac36	0.05680486
203	0xbd7d4afb	-0.061839085
204	0xbccbca10	-0.024876624
205	0x3d3b228b	0.04568724
206	0x3e01acdc	0.12663597
207	0x3d5a58a0	0.053307176
208	0x3cc23401	0.023706438
209	0x3cd22d99	0.025656508
210	0x3cd1c079	0.025604473
211	0x3d2853a5	0.041095395
212	0x3db6d8c1	0.08928061
213	0x3e29d5f9	0.1658553
214	0x3e333d69	0.17503895
215	0x3dc31f1e	0.095274195
216	0x3d190d8f	0.037366446
217	0x3b38000b	0.0028076197
218	0xbcc5d940	-0.024151444
219	0x3e2164c7	0.157611
220	0x3e358d99	0.17729796
221	0x3e4ab295	0.19794686
222	0x3db52fd6	0.088470146
223	0x3c20917b	0.00980031
224	0xbd504221	-0.050844315
225	0x3d6fb01c	0.05851756
226	0x3d1a1ff6	0.037628137
227	0x3e06b0f0	0.13153434
228	0x3dc0632e	0.09393917
229	0x3d3353f3	0.043781232
230	0x3c25d3ac	0.010121267
231	0xbd27312d	-0.040818382
232	0xbd0e17ad	-0.034690548
233	0x3bec4b97	0.0072111594
234	0x3d8c6b43	0.06856396
235	0x3d5f3731	0.054495994
236	0xbc474f62	-0.012164922
237	0x3c144823	0.009050402
238	0xbdad1f7f	-0.08453273
239	0xbd29caf9	-0.041453335
240	0xbd90310a	-0.070406035
241	0x3d3311f6	0.0437183
242	0x3af3f437	0.001861221
243	0xbd0e239d	-0.034701932
244	0x3d01ee15	0.031721193
245	0xbeecccae	-0.46249908
246	0xbe6abaff	-0.22922896
247	0xbea96dfb	-0.3309172
248	0xbf29f4ee	-0.6638936
249	0x3e1558ef	0.14584707
250	0xbf2720ed	-0.65284616
251	0x3d39410b	0.045228045
252	0xbf0db8fb	-0.5536038
253	0x3e2ec396	0.17066798
254	0x3e0f4b9a	0.13993683
255	0x3e23ccbe	0.15996072

module.conv1.bias f4 [32]
0	0x3e4c9605	0.19979103
1	0xbe5ba79a	-0.21450654
2	0x3c1047e8	0.008806206
3	0xbe184bce	-0.14872667
4	0xbe0b18a8	-0.13583624
5	0x3bc3ece8	0.005979169
6	0xbd60973c	-0.05483173
7	0x3d423bbc	0.04742025
8	0xbe181e22	-0.14855245
9	0xbd7fe518	-0.06247434
10	0xbe130956	-0.1435903
11	0xbea94546	-0.33060664
12	0x3e341d18	0.17589223
13	0xbe2cc0b9	-0.16870393
14	0xbecc6683	-0.3992196
15	0x3c0013ec	0.00781725
16	0xbe4710e1	-0.19440033
17	0xbcc4509a	-0.023964215
18	0xbe36df30	-0.17858577
19	0xbe30b6f9	-0.17257299
20	0x3b22e0c6	0.0024853214
21	0xbdf80584	-0.12110427
22	0xbe46c60b	-0.19411485
23	0xbc2b41a4	-0.010452662
24	0xbb83b2cf	-0.0040191184
25	0xbdcce42b	-0.10004457
26	0x3d81c386	0.06336121
27	0xbe9bfa8e	-0.30464596
28	0xbdc87555	-0.09788004
29	0x3db9dd3c	0.090754
30	0xbbdbaf1c	-0.0067042243
31	0xbdcbbd6d	-0.099482395

module.conv2.weight f4 [32, 32, 3, 3]
0	0xbdd0c4bc	-0.10193774
1	0x3ee622f3	0.4494854
2	0x3d5fb88f	0.05461937
3	0x3e93057f	0.2871513
4	0xbe283143	-0.16425042
5	0x3db7646b	0.089547
6	0xbe1aa330	-0.15101314
7	0xbed90462	-0.42386156
8	0xbd941595	-0.07230679
9	0x3e0c693d	0.1371202
10	0x3d0920f5	0.033478696
11	0x3e905def	0.28196666
12	0x3db64beb	0.08901199
13	0x3d265cb8	0.040615767
14	0x3e1ea5ae	0.1549289
15	0xbcb03047	-0.021507395
16	0xbdbfe3b9	-0.093696065
17	0xbe13fb2c	-0.14451283
18	0x3b1bd7cf	0.0023779755
19	0xbdeeece1	-0.11666275
20	0xbf0b3d33	-0.5439026
21	0xbd612f43	-0.054976713
22	0x3dfc34c6	0.12314753
23	0x3c3eea4d	0.011652541
24	0x3dd59f4b	0.10430773
25	0x3e505d03	0.20347981
26	0x3e6a8d76	0.22905526
27	0x3d8705ea	0.06592925
28	0xbdc834bc	-0.09775683
29	0xbd06ac1c	-0.03287898
30	0x3d1e7ac9	0.038691316
31	0x3d33d4a0	0.043903947
32	0x3cae3cd3	0.021269238
33	0xbd841bbf	-0.06450605
34	0x3cfd5921	0.030926289
35	0x3d55fcb7	0.05224296
36	0xbcd746db	-0.026278904
37	0xbdde0355	-0.10840479
38	0xbcc81a2f	-0.024426548
39	0xbddae107	-0.10687452
40	0xbd7907f8	-0.060798615
41	0xbcc55751	-0.024089487
42	0x3c8ded5e	0.0173251
43	0xbce76d55	-0.028250376
44	0xbdf9a4f5	-0.12189666
45	0xbf093e05	-0.5361026
46	0x3c98e1bd	0.018662328
47	0x3dc1530f	0.0943967
48	0xbeeed96b	-0.46650252
49	0xbefcc2c8	-0.49367356
50	0xbf67746a	-0.9041201
51	0xbe90e83c	-0.2830218
52	0xbd9eb954	-0.07750192
53	0xbe64a4fc	-0.22328562
54	0xbee40a6e	-0.44539207
55	0xbf3220ac	-0.69581103
56	0xbec1af6c	-0.3782915
57	0xbf5cb3a3	-0.86211604
58	0xbd9eb8be	-0.077500805
59	0xbe47e6b3	-0.19521599
60	0xbdb4613c	-0.088076085
61	0x3f239206	0.6389469
62	0xbf431cc6	-0.7621578
63	0xbd9384ce	-0.07203065
64	0xbd90f69c	-0.07078287
65	0x3d60f903	0.054924976
66	0xbd54ef66	-0.05198612
67	0xbdf95ffa	-0.12176509
68	0xbe32e04f	-0.1746838
69	0x3e6264b6	0.2210873
70	0xbe50cd67	-0.20390855
71	0x3f2c9c76	0.6742624
72	0xbf09753e	-0.5369452
73	0xbe986201	-0.2976227
74	0xbef35161	-0.47523025
75	0xbe75d60d	-0.24007435
76	0xbeca948c	-0.39566457
77	0xbecbb189	-0.39783886
78	0x3dcbc227	0.09949141
79	0xbc9f5fd1	-0.019454869
80	0x3c71562b	0.014730017
81	0xbe6d70df	-0.23187588
82	0x3ee720e5	0.45142284
83	0x3e452cf5	0.19255431
84	0xbeaaf0fa	-0.33386976
85	0x3dfaad87	0.12240129
86	0xbe98f75a	-0.29876214
87	0xbf2bffbf	-0.6718711
88	0xbed870c7	-0.42273542
89	0x3e367def	0.17821477
90	0x3e08a031	0.13342358
91	0x3c7881ab	0.015167634
92	0x3dceadc5	0.10091738
93	0xbdd005c1	-0.101573475
94	0x3be022c5	0.0068400824
95	0xbdbd33a6	-0.09238367
96	0xbdd87482	-0.10569097
97	0xbe14e66b	-0.14541022
98	0x3c8d3bbe	0.017240401
99	0xbc864e40	-0.016394734
100	0xbce95d10	-0.028486758
101	0x3dc04aeb	0.093892895
102	0x3e1fd3ed	0.15608187
103	0xbb0dcbd7	-0.002163639
104	0x3e080076	0.13281426
105	0xbe9abf6d	-0.3022417
106	0xbe80d72c	-0.25164163
107	0xbe93a87e	-0.28839487
108	0x3d10e109	0.03537086
109	0x3de071e7	0.10959225
110	0x3cc79c9a	0.024366666
111	0xbd4991ba	-0.04921124
112	0x3d885db4	0.066584975
113	0xbd597204	-0.05308725
114	0x3c2ad256	0.010426125
115	0x3da3615c	0.07977554
116	0xbd89b6cb	-0.06724318
117	0x3ea348f3	0.31891593
118	0x3e1ac9c5	0.15116031
119	0x3ec5632b	0.38552222
120	0x3e51526c	0.20441598
121	0x3e1d495d	0.15360017
122	0x3ea757e4	0.32684243
123	0xbea2d42b	-0.31802496
124	0xbedde9e9	-0.43342522
125	0xbe8046ce	-0.2505402
126	0xbe946b84	-0.28988278
127	0xbd19674c	-0.037452027
128	0xbd1aa2cd	-0.037752915
129	0xbe802592	-0.25028664
130	0xbef04d15	-0.4693381
131	0xbeb5d1b4	-0.35511553
132	0xbdc576ec	-0.09641823
133	0xbddfabc4	-0.109214336
134	0x3d9b0400	0.07569122
135	0xbd370894	-0.044685915
136	0xbee39707	-0.44451162
137	0xbe61055a	-0.21974698
138	0xbd85ffbd	-0.06542919
139	0xbbd723b3	-0.006565535
140	0x3e4036bb	0.18770878
141	0x3e0a3bfd	0.13499446
142	0x3e36078a	0.17776313
143	0x3e0cf6e3	0.13766055
144	0x3e9acc3f	0.30233952
145	0x3e5ca518	0.21547353
146	0x3e675dd5	0.22594388
147	0x3d98a22a	0.07452805
148	0xbe4a7e03	-0.19774632
149	0xbed4304b	-0.41443095
150	0xbf3c3ab1	-0.73527056
151	0xbeef3629	-0.46721008
152	0xbedf40b9	-0.43604067
153	0x3eacb6ff	0.33733365
154	0xbf1fd6a7	-0.6243691
155	0xbe695558	-0.22786462
156	0xbe92149e	-0.28531355
157	0xbf30f6f4	-0.6912682
158	0xbf550887	-0.83216137
159	0x3d461789	0.04836229
160	0x3e045890	0.12924409
161	0x3e4bb469	0.1989304
162	0x3ce3aa80	0.027791262
163	0xbd014366	-0.031558417
164	0xbcde732b	-0.027154526
165	0xbce14799	-0.02749996
166	0x3cdb7db0	0.02679333
167	0x3dea4a72	0.114399806
168	0x3d912839	0.0708775
169	0x3e14fe52	0.1455014
170	0xbca1e1c6	-0.019760977
171	0x3c9a7a98	0.018857285
172	0x3f1b65b3	0.60702056
173	0x3e02dda6	0.12779865
174	0xbf384466	-0.7197937
175	0xbf9dee10	-1.2338276
176	0xbf69e680	-0.9136734
177	0x3e5aab4f	0.21354412
178	0x3e520d1f	0.20512818
179	0x3e90464c	0.28178632
180	0xbeaf1526	-0.34195822
181	0xbf292250	-0.6606798
182	0x3dfe3142	0.12411739
183	0x3d85b3b7	0.065284185
184	0x3ed48a5b	0.41511807
185	0xbe7b4caf	-0.24540971
186	0x3d660cac	0.05616443
187	0x3e90af2b	0.28258643
188	0xbe430c19	-0.19047584
189	0x3d405bca	0.046962537
190	0xbde31a04	-0.110889465
191	0xbe0838a7	-0.13302861
192	0xbd655150	-0.05598575
193	0xbd9e4937	-0.077288084
194	0x3d143764	0.036185637
195	0xbdec5d5a	-0.11541243
196	0x3d186f4a	0.03721551
197	0x3d38ae31	0.045087997
198	0xbf046cf8	-0.51728773
199	0xbf24597d	-0.6419905
200	0xbe052c7a	-0.13005248
201	0xbe4325f8	-0.19057453
202	0xbe5a909d	-0.21344228
203	0xbf0b4bed	-0.5441273
204	0xbead7d84	-0.33884823
205	0x3dc7d8ed	0.09758172
206	0xbe0f6c27	-0.140061
207	0xbf143cf6	-0.5790552
208	0xbf3b994e	-0.732808
209	0xbe5eb328	-0.2174803
210	0x3e3d5097	0.18487774
211	0x3ce9f6c3	0.028560048
212	0x3e17fc75	0.14842398
213	0xbdd2d0f9	-0.102937646
214	0xbdf9809b	-0.12182733
215	0xbb78c2a8	-0.003795782
216	0xbe8b3d04	-0.2719499
217	0xbecf3c3d	-0.40475646
218	0xbf0d1053	-0.55103034
219	0x3dc0861a	0.09400578
220	0x3dc4425a	0.09582968
221	0xbe4015ae	-0.1875827
222	0x3e96d9df	0.29463097
223	0x3e94811c	0.29004753
224	0x3e94d077	0.29065296
225	0x3e813e97	0.25243065
226	0xbf2f455a	-0.684652
227	0xbdd66295	-0.10468022
228	0xbe5d58ea	-0.2161595
229	0xbf1bf720	-0.6092396
230	0xbdec1f6a	-0.11529429
231	0x3e8e42f7	0.27785465
232	0x3ea4719b	0.32117924
233	0x3ec2d316	0.3805167
234	0xbf21e7b0	-0.6324415
235	0xbed18327	-0.40920374
236	0xbedc4ecd	-0.4302887
237	0x3dc8a857	0.09797733
238	0xbe29d4af	-0.16585039
239	0xbd944f0f	-0.07241642
240	0xbf316ff4	-0.6931145
241	0xbede8b84	-0.43465817
242	0xbf22747f	-0.6345901
243	0x3d3c70dd	0.046006072
244	0x3d03088e	0.03199058
245	0x3e7c22d1	0.24622656
246	0x3e8dae4d	0.27672043
247	0x3d9001d7	0.07031601
248	0x3da0bd46	0.07848601
249	0xbcf7f7a9	-0.03026946
250	0xbd38169f	-0.04494345
251	0xbdc53dd6	-0.09630935
252	0x3c9b2caf	0.018942205
253	0x3cc59726	0.024119925
254	0xbd7bdf89	-0.061492477
255	0xbd1e25c1	-0.038610224

module.conv2.bias f4 [32]
0	0xbd97e646	-0.07416968
1	0xbdbae78e	-0.09126197
2	0xbdfa43f5	-0.12219993
3	0xbcc86568	-0.024462417
4	0xbd68480d	-0.056709338
5	0xbdda9cd9	-0.106744476
6	0xbd9bc903	-0.07606699
7	0xbe16aaea	-0.14713636
8	0xba8e92a9	-0.0010877448
9	0xbec47775	-0.38372388
10	0xbdcf6d36	-0.10128252
11	0x3d0c781f	0.034294244
12	0xbe2ab311	-0.16669871
13	0xbe5f6938	-0.21817482
14	0xbd6550bf	-0.05598521
15	0xbcad9229	-0.021187859
16	0x3c692e54	0.014232237
17	0xbb1c2e58	-0.0023831334
18	0xbe2c3610	-0.16817498
19	0x3d5d85d7	0.054082718
20	0x3d93ba8b	0.072133146
21	0x3c9c3aa9	0.01907094
22	0xbea00537	-0.3125398
23	0x3dd6ee6e	0.104946956
24	0xbb2c5cd3	-0.0026300445
25	0xbe2eaf3e	-0.17059037
26	0xbd5426c6	-0.05179479
27	0xbd2b0b7a	-0.04175899
28	0xbeb07a24	-0.34468186
29	0xbf0afbd3	-0.54290503
30	0x3d39366b	0.045217913
31	0x3e29fc98	0.16600263

module.conv3.weight f4 [16, 32, 3, 3]
0	0x3e45fef9	0.19335546
1	0xbae4e7b3	-0.0017464071
2	0x3e58d5a4	0.21175247
3	0xbedb20d0	-0.4279847
4	0x3db01d34	0.0859932
5	0xbe765ad8	-0.24058092
6	0x3e8a16b2	0.2697044
7	0x3e7b35d4	0.24532253
8	0x3d6f582f	0.058433708
9	0x3d6636d5	0.056204636
10	0x3d408fcf	0.047012147
11	0x3da7c89e	0.081925616
12	0xbd90017a	-0.07031532
13	0x3dbf14f5	0.09330169
14	0xbd16940f	-0.036762293
15	0xbd9daefe	-0.07699393
16	0xbde9fb8f	-0.11424934
17	0x3d0fd36a	0.03511373
18	0x3e482685	0.19545944
19	0x3d2316cd	0.039816666
20	0x3e0c9f07	0.13732539
21	0xbe1c02c0	-0.15235424
22	0xbd1818b0	-0.03713292
23	0xbb19ee0e	-0.002348784
24	0x3d87dd53	0.06634011
25	0xbe350127	-0.17676221
26	0xbcac4d57	-0.021032972
27	0x3e33ff16	0.17577776
28	0x3d10c7b5	0.035346705
29	0xbf01932e	-0.50615203
30	0x3deeef74	0.11666766
31	0xbebe84ab	-0.37210593
32	0xbe0d20b4	-0.13782007
33	0x3e1ccca3	0.15312438
34	0x3dc75545	0.09733061
35	0x3da7284f	0.08161985
36	0x3dc80e0b	0.097683035
37	0xbc147d2c	-0.009063046
38	0x3d6223b2	0.055209823
39	0xbc66d11f	-0.014087944
40	0xbbfc6cb5	-0.0077033886
41	0x3e15dbac	0.1463458
42	0x3e392ec8	0.18084252
43	0x3e28c1d6	0.16480193
44	0x3e42a342	0.1900759
45	0xbda2d9f7	-0.0795173
46	0xbced2dd3	-0.028952515
47	0x3d9db0d1	0.07699741
48	0x3d039595	0.032125074
49	0xbc24d75d	-0.010061112
50	0x3d9db96d	0.07701383
51	0x3c96e704	0.018420704
52	0x3cf58fd1	0.029975804
53	0x3b4faf78	0.003169028
54	0xbe1f6c2c	-0.15568608
55	0x3dfc2aa4	0.123128206
56	0x3e5e2ea0	0.21697474
57	0x3e0ea082	0.13928416
58	0x3e06b191	0.13153674
59	0xbcab246b	-0.020891389
60	0x3ea1756d	0.315349
61	0x3da40883	0.08009436
62	0x3e186e62	0.14885858
63	0xbe1511cc	-0.1455757
64	0xbee07c54	-0.43844855
65	0xbe143cc8	-0.14476311
66	0xbdd5b0b2	-0.104340926
67	0xbe86ae5d	-0.26304904
68	0xbe853bca	-0.26022178
69	0x3e6b0888	0.22952473
70	0x3ea6ebee	0.32601875
71	0x3d62ef85	0.055404205
72	0xbdb9f88a	-0.09080608
73	0xbe16bb3e	-0.14719865
74	0xbe2f7a71	-0.17136551
75	0xbd86ce6f	-0.06582343
76	0xbdc2e46c	-0.09516224
77	0xbcbb2675	-0.022845486
78	0xbb8825f0	-0.004154913
79	0xbd872650	-0.065991044
80	0xbde61753	-0.112349175
81	0xbdf88225	-0.12134198
82	0xbed30cdb	-0.41220745
83	0x3d82a5e1	0.06379295
84	0x3d8df067	0.06930619
85	0x3e3e7b3d	0.18601699
86	0x3e3bc373	0.18336277
87	0xbe166cc1	-0.14689924
88	0xbe8c09fa	-0.27351362
89	0xbcfccce2	-0.030859414
90	0xbe148790	-0.14504838
91	0xbe6bee9d	-0.23040242
92	0xbe589d90	-0.21153855
93	0xbe5288c0	-0.20559978
94	0xbd927029	-0.07150299
95	0xbd30db17	-0.04317769
96	0xbd81819b	-0.063235484
97	0xbdb334b8	-0.0875029
98	0xbe8e3a04	-0.27778637
99	0x3dbf19a0	0.093310595
100	0xbd6852da	-0.05671964
101	0xbe3758e4	-0.17905003
102	0xbd018a80	-0.031626225
103	0xbd74faf2	-0.059809633
104	0xbe54aa39	-0.2076806
105	0xbe4515ec	-0.19246644
106	0xbe04066d	-0.12893076
107	0xbdd2a22b	-0.10284837
108	0x3d336e2a	0.043806233
109	0x3be6008c	0.007019108
110	0xbea6579b	-0.32488713
111	0x3cac09b5	0.021000722
112	0x3ec04c0d	0.37558022
113	0xbd2724ee	-0.040806703
114	0x3b492f9e	0.0030698548
115	0x3cd1d823	0.025615757
116	0xbe80b187	-0.25135443
117	0x3dab64e9	0.083688565
118	0x3d96ccab	0.07363256
119	0x3de037ae	0.1094812
120	0xbdaee434	-0.0853962
121	0xbd9dce01	-0.07705308
122	0x3d39d429	0.045368347
123	0xbdb4bb47	-0.08824783
124	0xbe11d9df	-0.14243267
125	0xbe099ae9	-0.13438
126	0xbe7d04c9	-0.24708857
127	0xbd267f41	-0.040648703
128	0xbe5acc85	-0.2136708
129	0xbe134cee	-0.14384815
130	0x3c7f67c2	0.015588703
131	0xbe0e4a6d	-0.13895579
132	0xbdcc2363	-0.09967687
133	0xbdcfa03c	-0.10137984
134	0xbe4f5ffc	-0.20251459
135	0xbd927e93	-0.07153048
136	0xbdf047e8	-0.11732465
137	0x3cc5523e	0.024087068
138	0x3ce741d9	0.02822964
139	0x3cacadb6	0.021078926
140	0xbd3e6082	-0.046478756
141	0xbd1159dc	-0.035486087
142	0xbdcc3a85	-0.09972099
143	0xbd3372f7	-0.04381081
144	0x3e95fae5	0.2929298
145	0x3ca7a862	0.020466033
146	0x3c0b7f5c	0.008514252
147	0x3ed63bef	0.418426
148	0x3e69eede	0.22845027
149	0x3e611b03	0.2198296
150	0x3e8a11aa	0.26966602
151	0x3d65473e	0.055976145
152	0x3e0ab305	0.13544853
153	0x3d61a881	0.05509234
154	0x3d6bf7c2	0.057609327
155	0x3dca5ec0	0.098813534
156	0xbcfc5320	-0.030801356
157	0xbcfe6bad	-0.031057203
158	0x3dcdec04	0.10054782
159	0x3d5e87b9	0.054328654
160	0xbd8e08d6	-0.06935279
161	0xbcc42917	-0.023945374
162	0xbd9b6a95	-0.07588688
163	0xbd7ac8f6	-0.061226808
164	0x3cceac93	0.025228774
165	0xbdb41c24	-0.0879443
166	0xbded8749	-0.11598069
167	0x3d38b9db	0.04509912
168	0x3bae3c4f	0.005317248
169	0x3df7351b	0.12070676
170	0x3d03fe52	0.03222496
171	0xbdcc80c7	-0.099855
172	0x39e4755c	0.00043574988
173	0x3e2aeff6	0.166931
174	0xbe84c8fe	-0.25934595
175	0xbd6533c1	-0.05595756
176	0x3cf4450f	0.029818086
177	0xbd695817	-0.056968775
178	0xbc93c5c2	-0.018038634
179	0xbb278ff8	-0.002556799
180	0x3e6f7e72	0.23388079
181	0xbe8fcb5f	-0.28084847
182	0x3e2db0f5	0.16962035
183	0x3deb053e	0.11475609
184	0x3def2c02	0.11678316
185	0xbd97088c	-0.07374677
186	0x3e572ba8	0.21012747
187	0x3e3bf4d7	0.18355118
188	0xbeebcb7d	-0.46053687
189	0xbf3bd8f0	-0.73377895
190	0xbf12472d	-0.57139856
191	0xbf46cedc	-0.7765939
192	0xbe8a2c6a	-0.2698701
193	0xbcdebcb8	-0.027189597
194	0xbe9bc66f	-0.3042483
195	0x3cd9cbd7	0.026586456
196	0x3e2a07a0	0.16604471
197	0x3d0dcf28	0.034621388
198	0xbca56089	-0.020187633
199	0xbece59fd	-0.4030303
200	0xbee6868f	-0.45024535
201	0x3dcca38f	0.09992134
202	0x3ebeec39	0.372896
203	0x3c6bb9be	0.014387546
204	0xbe14e1fe	-0.14539334
205	0xbe35d593	-0.17757253
206	0xbd946574	-0.07245913
207	0x3e17be8a	0.14818779
208	0xbe903a75	-0.281696
209	0xbce2b3c3	-0.027673608
210	0x3cdd90fa	0.02704667
211	0xbdd0d5ed	-0.10197053
212	0xbe712ed1	-0.23553015
213	0xbeab6945	-0.33478752
214	0x3ed38220	0.41310215
215	0xbe7c0a67	-0.24613343
216	0x3d8b7733	0.06809845
217	0xbd44ccb8	-0.048046798
218	0x3dd52812	0.104080334
219	0xbe1ce175	-0.1532038
220	0xbe3bc4a5	-0.18336733
221	0xbdb18456	-0.08667819
222	0xbdbbefb3	-0.091765784
223	0xbe1f29e5	-0.15543325
224	0xbb3e2b87	-0.0029017644
225	0xbe1a0f0f	-0.15044807
226	0xbd934014	-0.07189956
227	0x3db11512	0.08646597
228	0x3d63cc4a	0.055614747
229	0x3d9904d8	0.07471627
230	0x3dff2439	0.12458081
231	0xbe23bff2	-0.1599119
232	0xbe21678e	-0.15762159
233	0x3e5fd611	0.21859004
234	0xbe9f8c43	-0.311617
235	0xbd67ca65	-0.056589503
236	0x3ecaee68	0.39635015
237	0xbdb90911	-0.090349324
238	0x3e24a33e	0.16077897
239	0x3e7631b5	0.24042399
240	0x3e275d40	0.16344166
241	0xbe1bbedd	-0.15209527
242	0xbd14a532	-0.036290355
243	0x3c833710	0.016017467
244	0xbd7a7cd9	-0.06115422
245	0x3c6482f4	0.013947237
246	0xbce42dcc	-0.027853869
247	0xbd7a9100	-0.06117344
248	0xbda11b74	-0.078665644
249	0xbdaefdb1	-0.085444815
250	0xbe010844	-0.1260081
251	0xbbfbd575	-0.007685358
252	0xbeb5dbcf	-0.35519263
253	0xbdf2b103	-0.118501686
254	0xbedb689a	-0.42853242
255	0xbe743be0	-0.23850965

module.conv3.bias f4 [16]
0	0xbe9b5b52	-0.3034311
1	0x3e15d9f9	0.14633931
2	0x3d94f82c	0.072738975
3	0x3c005ea9	0.007835069
4	0x3cc44455	0.023958365
5	0xbe0c52e4	-0.13703495
6	0xbe92c97d	-0.28669348
7	0x3d0d8323	0.03454889
8	0x3d887923	0.0666373
9	0x3db18bd3	0.086692475
10	0xbe0c16eb	-0.13680618
11	0x3e64b71f	0.2233548
12	0xbd63537b	-0.055499535
13	0xbda490f9	-0.08035464
14	0xbca821f8	-0.02052401
15	0xbd9765e0	-0.07392478

module.conv4.weight f4 [16, 16, 3, 3]
0	0xbd84e191	-0.06488336
1	0x3c521389	0.01282204
2	0x3aa30abf	0.0012439116
3	0xbe45bb5c	-0.19309753
4	0xbd995398	-0.07486647
5	0xbdc53446	-0.09629111
6	0x3e3e4329	0.18580307
7	0x3e53cebf	0.20684336
8	0x3e0604bc	0.13087744
9	0xbeb12f36	-0.34606332
10	0xbe897f47	-0.26854917
11	0xbe71146e	-0.2354295
12	0xbdc08976	-0.094012186
13	0xbd577362	-0.052600272
14	0x3d588326	0.052859448
15	0xbb41215c	-0.0029469347
16	0xbe61bb68	-0.22044146
17	0x3c99a20b	0.018754026
18	0x3d950586	0.07276444
19	0x3c8b9f67	0.017043782
20	0xbd9c56cb	-0.07633742
21	0xbdf74647	-0.12073951
22	0xbe25232c	-0.16126698
23	0xbca377e7	-0.019954635
24	0xbf38ff5a	-0.72264636
25	0xbee005f5	-0.43754545
26	0xbe8aa5b7	-0.27079555
27	0xbe49a093	-0.1969016
28	0x3d12e58c	0.035863444
29	0x3e4bab48	0.19889557
30	0xbe797700	-0.24361801
31	0xbb6177d9	-0.003440371
32	0xbcda13c7	-0.026620759
33	0xbef3ee6c	-0.4764284
34	0xbe50008e	-0.20312712
35	0xbe4cbee1	-0.1999469
36	0x3e0121a0	0.12610483
37	0x3cb41c4b	0.021986147
38	0x3e59c218	0.21265447
39	0xbdcbeb3d	-0.099569775
40	0xbd592359	-0.053012226
41	0x3d24a9b4	0.040200904
42	0x39fa3b34	0.00047727826
43	0xbe8b6d24	-0.27231705
44	0xbe9c38fa	-0.3051222
45	0xbdc68885	-0.09694008
46	0xbe0d1ace	-0.13779756
47	0x3cca7e40	0.024718404
48	0xbe179ecf	-0.14806674
49	0xbcb874c6	-0.02251662
50	0x3e21f6eb	0.15816848
51	0x3dcb56b2	0.09928645
52	0xbe1075af	-0.14107393
53	0xbac5376d	-0.0015046425
54	0x3ca748d8	0.020420477
55	0xbc98428a	-0.018586416
56	0xbd833d09	-0.06408126
57	0x3d8a3ff7	0.067504816
58	0x3bdac417	0.0066762078
59	0xbdfff49c	-0.124978274
60	0x3e39228f	0.1807959
61	0xbd34a256	-0.044100128
62	0xbe3b1d77	-0.18272959
63	0xbd902748	-0.07038742
64	0xbda4bbbb	-0.08043619
65	0x3d9b6dde	0.07589315
66	0x3ce4b82a	0.027919848
67	0xbd8d8433	-0.069099806
68	0xbcb9e376	-0.02269147
69	0xbd1f2f89	-0.038863692
70	0xbd86e4e0	-0.06586623
71	0xbd36748c	-0.04454474
72	0xbdc4f86c	-0.09617695
73	0x3cf5b2c4	0.029992469
74	0xba527aeb	-0.00080291805
75	0xbe113f27	-0.14184247
76	0xbe725f38	-0.23669136
77	0xbe96b73c	-0.29436672
78	0xbe53a8f3	-0.20669918
79	0x3e37aaa6	0.17936191
80	0x3d88804a	0.06665094
81	0xbcd1a9b6	-0.02559362
82	0xbc538568	-0.0129102245
83	0xbdf8e86b	-0.12153705
84	0xbd69c8f0	-0.057076395
85	0x3dcbc533	0.09949722
86	0xbd2ab327	-0.04167476
87	0xbdd5b540	-0.10434961
88	0x3e31075e	0.17287967
89	0xbbdbe474	-0.0067105833
90	0xbb9bbe4e	-0.0047529107
91	0xbcaf9239	-0.02143203
92	0x3defb4a2	0.11704375
93	0xbe2335ba	-0.15938464
94	0xbd257634	-0.04039593
95	0xbdc75251	-0.097324975
96	0x3e50d7bb	0.20394795
97	0xbdbda7fb	-0.09260555
98	0x3d127fef	0.03576654
99	0xbe10dc00	-0.14146423
100	0xba16c14a	-0.0005750848
101	0xbd7c6416	-0.061618887
102	0xbe199ffb	-0.15002434
103	0x3ce7b276	0.028283339
104	0x3d402292	0.04690797
105	0xbd311a33	-0.043237876
106	0x3d1ba95b	0.038003307
107	0x3e21d052	0.15802124
108	0xbd71ca3c	-0.059030756
109	0xbe4b4305	-0.19849785
110	0x3dc7f172	0.09762849
111	0x3e697882	0.22799876
112	0xbebb7b02	-0.36617285
113	0x3ca7e87a	0.020496596
114	0xbd449afc	-0.047999367
115	0xbe8e7b67	-0.27828524
116	0xbe0a46a5	-0.13503511
117	0x3cb07b9c	0.021543317
118	0xbd53ba8f	-0.051691588
119	0xbe23ae9b	-0.15984575
120	0xbe065882	-0.131197
121	0xbdecc8ce	-0.11561738
122	0x3da09079	0.07840056
123	0xbe228aa0	-0.15873194
124	0xbe094026	-0.13403377
125	0xbde0b904	-0.10972789
126	0xbe190319	-0.14942588
127	0xbdb64326	-0.08899526
128	0x3dc33530	0.09531629
129	0xbc5d929e	-0.013523726
130	0x3cc982da	0.024598528
131	0x37fcc613	3.0132976e-05
132	0x3dfc7766	0.12327461
133	0xbc973b32	-0.018460844
134	0xbdc3dbde	-0.09563421
135	0xbe147a53	-0.14499788
136	0xbe096b0b	-0.1341974
137	0xbe7e4df2	-0.24834421
138	0xbe7186c8	-0.23586571
139	0xbd5b1d9c	-0.053495035
140	0xbd9ecb51	-0.07753623
141	0xbe480d45	-0.19536312
142	0x3e359a20	0.17734575
143	0x3e28c75d	0.16482301
144	0xbd9d4f42	-0.07681133
145	0x3db5c0b8	0.08874649
146	0x3db430c1	0.087983616
147	0xbe5fad3e	-0.2184343
148	0x3c6d825c	0.014496412
149	0x3c783896	0.01515021
150	0xbe84b440	-0.2591877
151	0xbe406011	-0.18786646
152	0xbb69056d	-0.0035556213
153	0x3e990dda	0.2989338
154	0xbe2323cc	-0.15931624
155	0x3d9b1229	0.07571823
156	0x3dba89a9	0.09108288
157	0xbd787f99	-0.06066856
158	0x3d335cb3	0.043789577
159	0x3e6fc8ba	0.23416415
160	0xbe7d8eb8	-0.24761474
161	0xbd4e5186	-0.050370716
162	0xbf9230f1	-1.1421186
163	0xbf81e11b	-1.0146822
164	0xbf194667	-0.5987305
165	0x3df90569	0.12159235
166	0xbecad48e	-0.3961529
167	0xbf4fc086	-0.8115314
168	0x3eda6d84	0.4266168
169	0x3cd47fcf	0.02593985
170	0xbdd22d05	-0.10262493
171	0x3e01f3a5	0.126906
172	0xbe1573ad	-0.14594908
173	0xbef81fa0	-0.48461628
174	0xbda84048	-0.08215386
175	0xbecc061b	-0.39848408
176	0xbf01bfc4	-0.50683236
177	0x3e461d2f	0.1934707
178	0xbd9929b1	-0.07478655
179	0xbf074ea9	-0.528544
180	0x3e0ba275	0.13636191
181	0xbef46605	-0.47734085
182	0xbf1a6512	-0.6031047
183	0x3e06b7a5	0.13155992
184	0xbf12beca	-0.5732237
185	0xbf1902ab	-0.59769696
186	0xbc23f410	-0.0100069195
187	0xbf14f97b	-0.58193177
188	0xbee4673d	-0.44610015
189	0x3d9882e2	0.07446839
190	0x3d911a87	0.07085138
191	0xbd024a6e	-0.031809263
192	0xbe1980ff	-0.14990614
193	0x3c92d6fe	0.017924782
194	0xbdc9883b	-0.09840437
195	0x3d07b3d4	0.03313048
196	0x3da0a560	0.07844043
197	0x3e4fd91a	0.20297661
198	0xbccca28e	-0.024979856
199	0x3de36aee	0.111043796
200	0xbd11aaa6	-0.035563134
201	0x3d04f703	0.03246213
202	0xbd3275f0	-0.043569505
203	0xbdc183d3	-0.094489716
204	0x3e20dd7b	0.15709488
205	0xbe0b7839	-0.1362008
206	0xbe2e3bc7	-0.17014991
207	0xbd4240f8	-0.04742524
208	0xbd8c003e	-0.06835984
209	0x3da3ce9b	0.07998391
210	0xbd8515f2	-0.06498326
211	0xbd7dd2c4	-0.06196858
212	0xbda55eab	-0.08074697
213	0x3d688b45	0.056773443
214	0xbc54bd73	-0.012984621
215	0xbdb2ce50	-0.08730757
216	0xbe753139	-0.23944558
217	0x3d871ac4	0.06596902
218	0xbe881c2a	-0.26583987
219	0x3e10e461	0.1414962
220	0xbdb2aa1b	-0.08723851
221	0xbe4610fb	-0.19342415
222	0xbf06f5f3	-0.5271904
223	0x3bf7ed6b	0.007566144
224	0xbe9a3d0a	-0.30124694
225	0xbdef776c	-0.116927
226	0xbd6fea60	-0.058573127
227	0x3e1963ae	0.14979431
228	0x3bb94c70	0.005654864
229	0xbdb148b4	-0.08656445
230	0xba889ac5	-0.0010422101
231	0xbc877531	-0.016535373
232	0xbd7bbcaa	-0.06145922
233	0x3d5b9472	0.053608365
234	0xbd641fc5	-0.05569436
235	0xbe262144	-0.16223627
236	0x3daf555a	0.085612014
237	0x3d84ed72	0.064906016
238	0xbe111129	-0.14166702
239	0x3e08d583	0.13362698
240	0xbe90fdd8	-0.28318667
241	0x3d1404d8	0.03613743
242	0x3e1580f3	0.14599971
243	0x3dbbc810	0.09169018
244	0xbde4b258	-0.11166829
245	0xbc322e4d	-0.010875297
246	0x3d6cb284	0.057787433
247	0xbdee1167	-0.11624413
248	0xbcadf4e0	-0.02123493
249	0x3dfbc551	0.122934945
250	0xbe1c9fd1	-0.1529534
251	0x3d9128da	0.0708787
252	0xbeb5b84d	-0.35492173
253	0xbcdf1b70	-0.027234763
254	0xbe5e3a2d	-0.2170188
255	0xbc9c528c	-0.01908233

module.conv4.bias f4 [16]
0	0x3d800e14	0.06252685
1	0x3c8e1a32	0.017346475
2	0xbd8548a6	-0.06507997
3	0x3e2b601e	0.16735885
4	0xbdbe6ae3	-0.09297731
5	0xbe603f26	-0.21899089
6	0x3c12197a	0.008917207
7	0x3da7967a	0.08182998
8	0x3dcb7966	0.09935264
9	0x3e2a5065	0.1663223
10	0xbe2fab56	-0.17155203
11	0xbbcf5ee3	-0.00632845
12	0xbd6ffb2f	-0.058589157
13	0xbed25a4b	-0.41084513
14	0xbd2689e1	-0.040658835
15	0xbd567b52	-0.0523637

module.conv5.weight f4 [8, 16, 3, 3]
0	0xbee22bdf	-0.44174096
1	0xbdb5c682	-0.08875753
2	0xbd55bede	-0.05218398
3	0xbe44fd5a	-0.19237271
4	0x3c399c5c	0.011328783
5	0x3c920760	0.017825782
6	0xbe190299	-0.14942397
7	0xbda99fe1	-0.082824476
8	0x3c57ce1e	0.013171701
9	0x3e109fee	0.14123508
10	0xbdc9b172	-0.09848298
11	0xbe6601fc	-0.22461694
12	0x3e84cbf8	0.25936866
13	0xbc818bee	-0.015813794
14	0x3dd6221d	0.10455725
15	0x3d703113	0.05864055
16	0x3ed2791a	0.41108018
17	0x3caa37a3	0.020778483
18	0x3d0e053b	0.034672957
19	0x3e35b7f9	0.17745961
20	0x3e336eed	0.17522784
21	0xbe622df9	-0.2208785
22	0x3df14e31	0.11782492
23	0x3e8d9d13	0.276589
24	0xbf0e55a6	-0.5559944
25	0xbe6c4a94	-0.23075324
26	0xbd5c2910	-0.053750098
27	0xbedaab03	-0.42708597
28	0xbed34dee	-0.41270393
29	0xbf539536	-0.8264955
30	0x3db60a2b	0.08888658
31	0x3e3ae499	0.18251266
32	0xbe7fbf9f	-0.24975441
33	0xbf1ebef9	-0.6201015
34	0xbed0fc6a	-0.40817577
35	0xbdf831bb	-0.1211886
36	0x3e0e3840	0.13888645
37	0xbe511e44	-0.20421702
38	0xbdaa428e	-0.083134755
39	0x3c5e2d72	0.01356064
40	0xbe9504d5	-0.2910525
41	0xbe8a9899	-0.27069548
42	0x3eceb6ae	0.4037375
43	0xbd8aee99	-0.0678379
44	0xbd510390	-0.051028788
45	0xbcaeedc4	-0.02135361
46	0x3d1ac767	0.03778782
47	0xbd0cd94d	-0.03438692
48	0xbd65912a	-0.056046642
49	0xbdf41628	-0.119182885
50	0x3d874943	0.066057704
51	0xbd76c72d	-0.060248543
52	0x3c60cdea	0.013720969
53	0x3d34cf2f	0.0441429
54	0xbecb0946	-0.39655513
55	0x3db24a8c	0.08705625
56	0x3d5f203c	0.0544741
57	0xbeab4fdb	-0.33459362
58	0xbe15c049	-0.14624132
59	0x3e2ee418	0.17079198
60	0xbd6b48a3	-0.05744232
61	0x3de6264e	0.11237775
62	0xbe18d28f	-0.14924072
63	0xbe1a667b	-0.15078156
64	0xbdd17dec	-0.10229096
65	0x3d9e01ee	0.07715212
66	0x3bf2e5b2	0.0074126357
67	0x3d59d90b	0.053185504
68	0xbd739271	-0.05946583
69	0xbdd38bcc	-0.103293985
70	0xbd292032	-0.04129047
71	0x3d810cfc	0.06301305
72	0xbdb81cae	-0.08989845
73	0xbdc14548	-0.094370425
74	0x3e2bfbe4	0.16795307
75	0xbe40d354	-0.18830615
76	0xbd91b2e6	-0.071142
77	0x3ddfa2b4	0.10919705
78	0xbd3335f6	-0.043752633
79	0x3e055f7d	0.13024707
80	0xbdfea271	-0.12433327
81	0xbe5c9a2a	-0.21543184
82	0xbdacb244	-0.08432439
83	0xbe9f540e	-0.31118816
84	0xbd4b9dea	-0.049711145
85	0x3de98f4b	0.11404284
86	0xbec469e0	-0.38362026
87	0x3e8578b8	0.26068664
88	0x3d9b42db	0.07581111
89	0xbe3ef50c	-0.18648165
90	0xbe3fdc44	-0.18736368
91	0x3db3bab1	0.08775843
92	0x3db75ee1	0.089536436
93	0x3d16922c	0.036760494
94	0xbe03dc2e	-0.1287696
95	0xbc6ffd8b	-0.014647852
96	0x3d03aee6	0.032149218
97	0xbe106993	-0.14102773
98	0xbdc0db0c	-0.0941678
99	0x3dc29bb7	0.095023565
100	0x3dde7cfd	0.108636834
101	0x3d9bb809	0.07603461
102	0xbe2e94c9	-0.17048945
103	0x3de4abf7	0.11165612
104	0xbdc300d0	-0.09521639
105	0xbde4576a	-0.111494854
106	0x3e1cf422	0.15327504
107	0xbe595144	-0.21222407
108	0xbd8754d5	-0.06607977
109	0xbedea460	-0.43484783
110	0xbe27dab4	-0.16392022
111	0x3d9c3560	0.07627368
112	0xbe95cf80	-0.29259872
113	0xbdea8e3e	-0.11452912
114	0xbdf6be74	-0.12048045
115	0xbeb911a6	-0.36146277
116	0xbe89fcf1	-0.2695079
117	0xbe02d95d	-0.1277823
118	0xbb003326	-0.0019561737
119	0xbd70606c	-0.058685705
120	0xbee7d8c5	-0.4528257
121	0xbe9cdd31	-0.30637506
122	0xbd927bbc	-0.07152507
123	0xbeaad02e	-0.33361953
124	0xbecc599c	-0.39912117
125	0xbcff469f	-0.031161604
126	0x3d9391d2	0.072055474
127	0x3d8bf0f2	0.06833066
128	0xbd5144d1	-0.05109102
129	0x3e31170e	0.17293951
130	0xbda781ec	-0.081790775
131	0xbdb49c42	-0.08818866
132	0x3e537933	0.20651703
133	0xbd3d4264	-0.046205893
134	0x3da79cfe	0.08184241
135	0x3dc7b42c	0.09751162
136	0xbd7bfbff	-0.06151962
137	0xbd89d0d7	-0.06729286
138	0xbe19e6d7	-0.15029465
139	0x3bdbb97b	0.0067054606
140	0xbdbf0e05	-0.09328846
141	0xbd2223ec	-0.03958504
142	0x3dfeded6	0.12444846
143	0x3ed182c9	0.40920094
144	0x3b363dab	0.0027807753
145	0xbdec5eff	-0.115415566
146	0xbdcf6cc1	-0.10128165
147	0x3cf38b99	0.029729651
148	0xbd3f9caf	-0.046780284
149	0xbd291c07	-0.041286495
150	0x3d99f48c	0.07517347
151	0xbd810b35	-0.06300966
152	0x3d7c1bff	0.061550137
153	0xbd2aeb9e	-0.04172861
154	0x3d87fe0d	0.06640253
155	0x3d61f9c0	0.05516982
156	0xbb60b01c	-0.0034284657
157	0xbc84726d	-0.016167844
158	0xbb9c897a	-0.0047771307
159	0xbdebb107	-0.11508375
160	0x3ccc0965	0.024906823
161	0x3d84a054	0.06475893
162	0x3cb7899c	0.022404484
163	0xbc9069f6	-0.017628651
164	0xbdeaa11e	-0.11456512
165	0xbe09167e	-0.13387486
166	0xbd5e7c29	-0.054317627
167	0x3d21c508	0.039494544
168	0xbca17f5d	-0.019714052
169	0xbd8d8c2d	-0.06911502
170	0xbdea017c	-0.11426064
171	0x3d98b4da	0.0745637
172	0xbd68af75	-0.056807954
173	0x3c213fab	0.00984184
174	0xbd6a4a15	-0.057199556
175	0x3dc3dbc2	0.095634
176	0xbca7284b	-0.020404955
177	0xbe2fd918	-0.17172658
178	0xbdc5cbd1	-0.096580155
179	0xbdd32b06	-0.103109404
180	0xbd64d888	-0.055870563
181	0xbb755384	-0.0037433812
182	0x3e3141ff	0.17310332
183	0x3c8a0e79	0.016852604
184	0xbc8e77ba	-0.017391074
185	0x3c1c2c27	0.009532011
186	0x3a3fffaa	0.00073241687
187	0xbd6ba818	-0.057533354
188	0xbd508294	-0.05090578
189	0x3e8c3674	0.27385294
190	0xbd22763b	-0.039663535
191	0x3dc442a4	0.09583023
192	0x3ea59328	0.32338834
193	0x3dde3103	0.10849192
194	0x3d922091	0.07135118
195	0x3e7b4eee	0.24541828
196	0x3d699033	0.057022285
197	0x3e1630f7	0.14667116
198	0x3cc5a523	0.024126595
199	0x3d8e365e	0.069439635
200	0xbdc58665	-0.09644774
201	0x3e45a679	0.19301786
202	0x3eca1f0d	0.39476815
203	0xbcee1c7a	-0.029066313
204	0xbd97cc99	-0.07412071
205	0xbd45e5d8	-0.0483149
206	0xbe2c4068	-0.16821444
207	0x3d873bf9	0.06603236
208	0x3d4c2873	0.049843263
209	0x3d32c097	0.0436407
210	0x3d83a8a7	0.06428652
211	0x3da203a7	0.07910853
212	0x3d32263b	0.04349349
213	0x3c8ff322	0.01757199
214	0x3cfd5bff	0.030927656
215	0x3ca94af4	0.020665623
216	0x3cd6f880	0.02624154
217	0x3dc6e9cf	0.09712564
218	0xbc84c981	-0.016209366
219	0x3e176b62	0.14787057
220	0x3db5ef9c	0.088835925
221	0x3d7fefee	0.062484674
222	0xbc2a9896	-0.010412356
223	0x3e5c1de8	0.21495783
224	0x3d4c8f82	0.049941547
225	0xbda827ad	-0.082106926
226	0xbd47ec49	-0.048809323
227	0xbd1bef94	-0.038070276
228	0xbdc4cf3b	-0.096098386
229	0x3e510a53	0.20414095
230	0xbd628680	-0.05530405
231	0xbdac2859	-0.08406133
232	0xbd6dcb12	-0.05805499
233	0xbd32198b	-0.04348139
234	0x3dfa5949	0.12224061
235	0xbe1b8031	-0.1518562
236	0x3db09f17	0.08624094
237	0x3e6cca38	0.23124015
238	0xbd9d3279	-0.076756425
239	0xbd2283b1	-0.039676372
240	0x3cad1355	0.021127382
241	0x3e045a19	0.12924995
242	0x3d96007f	0.07324313
243	0xbd59a18d	-0.053132582
244	0x3e0a7f69	0.13525166
245	0xbda4532f	-0.080236785
246	0x3cddf703	0.027095323
247	0x3d44fa3c	0.048090205
248	0xbd87285a	-0.06599493
249	0xbcb3d51b	-0.021952203
250	0x3bbffe3c	0.0058591645
251	0xbd6ceaa4	-0.05784096
252	0x3d0cfe80	0.034422398
253	0xbcb85024	-0.022499152
254	0xbcc2ff4d	-0.023803378
255	0x3deac0b1	0.11462534

module.conv5.bias f4 [8]
0	0xbce5f751	-0.028072031
1	0x3e2474b9	0.16060151
2	0xbe3fe22a	-0.18738618
3	0xbcf3f02a	-0.029777605
4	0x3d09d961	0.033654574
5	0xbdb5132c	-0.08841547
6	0x3ca51272	0.020150397
7	0xbde187a5	-0.110122
