model_state_new_final_lastest.pth (torch, 559419 bytes, 13 tensors)

module.fc1.weight f4 [1089, 109]
00000000: 68e1 d33e 0b94 c3be 967b 86bf 9381 04bf
00000010: 8930 babd 7062 093f 5ab5 b1be 6de8 0f3c
00000020: 9879 ee3d ffdf 85bf 5b89 1c3f bb34 25be
00000030: ccc2 0b3d ba36 57bf bd27 3a3f fb6b ca3e
00000040: 613b 0dbe cb66 fabe 892e a03e 2167 473f
00000050: afe5 123e 3649 193f f95d e33e a926 a8be
00000060: 25c0 9cbf 179c a03e a632 1c3e 19b7 973e
00000070: b732 673e 125f 333e f857 cdbe e6ab e23e
00000080: 92e0 ee3e aa16 123f b587 55be 1884 463e
00000090: 3847 efbe b654 80bd 1146 b2be 2752 c4bb
000000a0: 3242 3c3f 7c85 063f 1422 22bf 7917 c33e
000000b0: 85e3 10bf f672 503e 5f8a 153f f60e 803e
000000c0: e9b7 263f df15 ac3c 8eb6 0c3f c1ff eb3c
000000d0: 5e4d 203f a931 d2bd a945 21be 713c 34bc
000000e0: e01a 6a3d 0434 f23e bcf6 debe 74b0 9dbf
000000f0: ac9c 6f3f e6b4 1b3f e8b6 5ebe 880e 7bbf
00000100: ecca 973e 345d 173f eafa 06bf e9b1 0d3f
00000110: 15a1 1dbc b2ca 3abf 406a b6be 8344 1c3e
00000120: 85e3 a5be 2e53 a4bd 3b3a 1bbe 8e6b 40bd
00000130: 614d 863e c902 efbe 0e31 0cbe e821 023f
00000140: 3442 81bf 5098 4dbf 0d6b 933e 060e 093f
00000150: b39f 54be f932 443f 6961 433d 6094 293e
00000160: a98f 5a3d b57f 86bd 3521 653e 82a7 9fbd
00000170: 0f36 f3bd a851 07bf c2aa 03be 221c bcbd
00000180: d4dd 493f 7c95 08be 1bfd 37be d0bb a03e
00000190: cad4 18bd 48ca cebf 3e43 b73e a5e0 b0be
000001a0: 92ae 1dbf 26ea d13e 6eff 87be d4a1 913e
000001b0: f015 523e 4231 643e 6b58 aabe b028 95bb
000001c0: 44df a2be dba3 bd3e 5556 2bbf d33d 3fbe
000001d0: 3961 043f 0c69 2e3f 829c 463e 4c15 673f
000001e0: 7067 abbe 15fd 1a3f 44c4 1dbf d429 0b3e
000001f0: 9e45 433d ad24 55be ccbd 703e 7fd2 ef3e
00000200: c399 053f e36c e33e e439 0e3f ceff 34bd
00000210: c5c9 9bbd 816a 35bf 40c2 bb3e cc15 203e
00000220: 3286 643e 07ed cb3e cd62 ac3e 3b5a 803f
00000230: 686c 493c c141 6a3f 279c 523c 5b35 86bd
00000240: 9477 4d3f 7dca f6be f0f5 103e 1b49 4f3f
00000250: 895a f4bd 78c3 bf3d a623 fa3e c844 a7bc
00000260: 5426 d1bc 106c e1bd 78ba 093e eeb3 243e
00000270: 6c8b c93e 4cd1 d23e 3eb7 b73b 3bba d4bc
00000280: ca1f 003f 7287 133f b818 a0be 6749 a13d
00000290: 766b 783e b606 66be d1a3 053e 735f 8cbe
000002a0: 2b30 93be 99a6 dd3d 0576 963c 6d1b d8be
000002b0: b9a1 36bf 20f1 813d f114 f93e e6e0 c0be
000002c0: 9bba 99bc 4f1d 08be 58a5 8c3e 10d4 d8be
000002d0: ca07 093c 31c8 1e3b 1561 6ebe d1b3 b33d
000002e0: 4215 ce3e 9699 803d 48d9 bcbe fd99 b2bd
000002f0: 1d4e ed3e 63ff 853c cf57 93bf 147e 673e
00000300: 1499 0f3e cff6 acbc 5275 bf3e d73a 2ebe
00000310: 7b64 fcbe cdd3 9a3e 98e4 a6bd 14a9 c2be
00000320: 4b01 7bbe f267 983d 0c82 1abe 4349 4abe
00000330: a791 ffbe db6f 39be d023 f03d 0bce 66be
00000340: 8b78 b53e 74bb 1e3e e21d a0bf e1a9 e3bd
00000350: cf55 023f 42d2 47bf 5ef4 d03e 84fc 4ebe
00000360: 7296 3a3e de68 e6bb f2d8 8f3d 52ee 1e3f
00000370: d198 733e d979 bf3c 1f8c 47bf b5e8 6dbf
00000380: b78e 393e d710 2c3e 739b b7be d2a2 3f3f
00000390: 49ee 013e 8657 0fbe 4b3d 3d3e abd5 cc3e
000003a0: 68ae 5fbe 28d1 a93e dbe6 97bb 3b11 f4be
000003b0: 2256 5d3e c450 b83e 5800 60bf 5f82 1f3f
000003c0: ca30 14be 1542 1ebe d7f3 86bf 4bdb f8be
000003d0: 1923 173d eef1 f33d 6125 373e d75f b73e
000003e0: 5ee0 253e fd6f e03e ef50 333f 8115 17bf
000003f0: 3f17 8fbd 4f34 5c3f 5dd4 c93d dc21 cabe
0.4138291 -0.38198885 -1.0506465 -0.51760215 -0.090912886 0.5366583 -0.34708673 0.008783442
0.11644286 -1.0458983 0.6114709 -0.16133396 0.03412132 -0.8406788 0.72716886 0.39535508
-0.13792183 -0.4890655 0.31285504 0.7789174 0.1434543 0.59877336 0.44407633 -0.32841995
-1.2246138 0.31369087 0.15253696 0.2963188 0.2257794 0.17516735 -0.40106177 0.44271773
0.4665571 0.5706583 -0.2085255 0.19386327 -0.46734023 -0.06266157 -0.3481908 -0.0059912386
0.73538506 0.5254743 -0.6333325 0.38103846 -0.5659717 0.20356354 0.5841426 0.25011414
0.65124375 0.021006523 0.54966056 0.028808476 0.6261805 -0.10263378 -0.1574923 -0.0110007385
0.057154536 0.4730531 -0.43547618 -1.2319474 0.9359844 0.60822904 -0.2174946 -0.9806905
0.29647005 0.5912659 -0.52726614 0.55349594 -0.0096209245 -0.7296554 -0.35627937 0.1526051
-0.32400146 -0.08023678 -0.15158932 -0.046977572 0.2623091 -0.46681812 -0.13690588 0.50832987
-1.0098329 -0.80310535 0.2879261 0.53537023 -0.20764045 0.7664028 0.04770032 0.16560507
0.05335966 -0.06567327 0.22375949 -0.077956215 -0.11875545 -0.5285897 -0.12858108 -0.091850534
0.7885411 -0.13338274 -0.17967646 0.3139329 -0.037312306 -1.6155481 0.3579349 -0.3454639
-0.615945 0.40998954 -0.26562065 0.28443778 0.20516181 0.22284415 -0.33270583 -0.0045519695
-0.31810963 0.37039074 -0.6692861 -0.18675928 0.5171085 0.6812904 0.1939564 0.9026687
-0.33477354 0.6054242 -0.616276 0.13590175 0.047673814 -0.20814772 0.23509902 0.46840283
0.52187747 0.4441901 0.55557084 -0.044189267 -0.07606844 -0.7086564 0.36671638 0.15633315
0.22316816 0.39829275 0.3366913 1.0027536 0.0122939125 0.9150658 0.012854612 -0.065531455
0.80260587 -0.4820136 0.14156318 0.80970925 -0.11931331 0.093634546 0.48855323 -0.02041854
-0.025530972 -0.110069394 0.13450038 0.16084263 0.39364183 0.41175306 0.005606561 -0.025967708
0.50048506 0.5762855 -0.3126886 0.078753285 0.24259743 -0.22463498 0.13050772 -0.27416572
-0.28747687 0.108227916 0.018366823 -0.42208424 -0.7134052 0.06344819 0.4864879 -0.37671584
-0.018765738 -0.1329243 0.27469897 -0.4234929 0.008363673 0.002422821 -0.23279221 0.08774532
0.40250593 0.06279294 -0.36884522 -0.08720777 0.46348658 0.01635713 -1.1511172 0.22606689
0.14023238 -0.021113781 0.37394196 -0.17014633 -0.4929541 0.30239716 -0.081490695 -0.3801962
-0.24512212 0.07441701 -0.15088671 -0.1975451 -0.4991581 -0.18109076 0.11725581 -0.22539537
0.3544353 0.15501195 -1.250912 -0.11116386 0.50912184 -0.780552 0.40811437 -0.20213515
0.18221453 -0.007031544 0.07023801 0.620824 0.23788764 0.023373531 -0.7794818 -0.9293321
0.18120848 0.16803299 -0.35860786 0.7485782 0.12688555 -0.13998231 0.18480413 0.40006766
-0.21843874 0.33167386 -0.0046356744 -0.47669396 0.21614888 0.3599912 -0.87500525 0.62308306
-0.14471737 -0.15454896 -1.0543164 -0.48604807 0.036898706 0.11911379 0.17885353 0.35815307
0.1619887 0.4383544 0.7004537 -0.5901719 -0.06986856 0.86017317 0.09854958 -0.39478958

module.fc1.bias f4 [1089]
00000000: 2708 7bbe af3f 62bd 8be9 92be 5853 66bc
00000010: 301e 3ebe 5546 20be 3968 12be cbc4 92bb
00000020: 783e c4bc 703e 963c 64bf efbd 7c17 8ebd
00000030: 25c3 bc3b 8436 80be e1a3 c8bd a64f 58be
00000040: d60d d8bd ff37 ec3a 2faf 46be 1d13 3cbc
00000050: aa8a 06be 70d8 6abe 5cec 13be 6b13 a9bd
00000060: cebc 1abe 754e 1bbd 43c1 4dbe 4d5b 3abd
00000070: 2041 52bb fc07 90be b0f8 4ebd 92f4 1a3d
00000080: 7b41 e5bd 11af 73bd bb1e 2dbd 3594 f1bd
00000090: 5587 b4bd 690f 16be 91d4 41be 982d 9eba
000000a0: bf74 c7be bdc3 37bd f66c d9bd 3113 79be
000000b0: 66b6 3bbe c068 40be fe24 043e 1a40 90bd
000000c0: 7239 cdbd ba2b 74bd 269b 97be 48f8 bdbd
000000d0: 1e75 24be c8ac 37be d9cd 4a3d 8790 e6bd
000000e0: d40c 59be cd01 193d c728 8cbe bb16 50be
000000f0: f110 99be d54c a9bc 8ca9 ddbd c1ad d9bd
00000100: 6f90 b93d 69d5 6abe c673 95bd b1b3 15be
00000110: 6b2c 083e 4a81 6bbe e0af e9bc 185a d83c
00000120: 5c34 86bd 811b b5bc 0d92 36be 5670 3cbe
00000130: 5eab b9be 2754 cbbd 1f8c 67be b7e4 4f3d
00000140: f0ee 23be 805a 6cbe c6e3 80be f1cc 11be
00000150: cc14 6fbc c4e0 efbe eaee b7bc 2ba7 4dbb
00000160: 62cf 97be 1376 95bd 47e8 39bd 6e1d c1be
00000170: 0758 d4bd e501 67bd 7e70 02be 8339 ebbd
00000180: 0a3c 84be 953a 12bd 3c7c c738 1031 86be
00000190: 0aea bdbd 937b 22bf b51b 65be dcef 5ebe
000001a0: 9e31 a0be 69c1 94be b0c8 f3bc c888 73be
000001b0: 374d 90be e42c ccbd ee8b 99bd 4cdc 4cbe
000001c0: a972 5ebf 87a4 bdbe ae12 83be 48a4 2cbf
000001d0: cbdd 1fbe d9a7 abbd 3ddd 80bd bb90 a2bd
000001e0: fa99 9fbd e264 b9bf 91c5 9fbe 6e43 d1bd
000001f0: 48d0 d5be 7900 04be 86bd 63be 47ad 26be
00000200: 31e6 cabd 2f1d 44bd acf6 3abe 558c eb3c
00000210: 3d3b e4bc a4d3 43be c22c 57bd 750d 02bd
00000220: 9456 b1bd 8638 5dbd c85b 86be a832 f4be
00000230: c488 b3bc ff13 96be ba50 94bd d3f1 d8be
00000240: 59bf 7bbd eac7 0fbe 4081 4fbf 554e 2ebf
00000250: 7103 85bd 1080 c2be 2387 573c b74a 62bd
00000260: 5cec d8be 758d 17bd e59d 8cbe 5b49 9dbf
00000270: d302 b2bd c8ae 54bf b775 f3bd 7b8e 01bf
00000280: ce95 c3bf 1e4a 3ebe f9ee 8bbe b253 90bd
00000290: c878 91be b1d3 0bbe 6b52 8abf 5679 4fbe
000002a0: 691d 28bd 05c5 b7be 4dd2 ec3c f1f4 9fbf
000002b0: a730 9abe ff50 efbd 90a8 c5be 2255 93bd
000002c0: ef15 aabd 445c 91be 4366 913c 1051 c4be
000002d0: fc64 95bf 87ca 24bb 8798 1cbe e48a 30be
000002e0: 1ab5 13bf d19f 61be 9363 8fbe 7e8d abbd
000002f0: 4715 783c ba27 0dbf e34b f0bd eee4 d93e
00000300: d25d cabc a376 6bbd 35a1 aabf 800c 78bc
00000310: 6b2a 37be 9d22 643e aa59 cfbe ae09 1bbd
00000320: 0c97 83be 3da3 9bbd 8bdb c6be ce27 d63e
00000330: cca0 a7bd efdd 6cbe f26e 0fbf a5ed 9ebc
00000340: 8809 f9bd 927c 9bbd 3037 8ebe 0fe0 c23c
00000350: 25f6 e4be 1f73 7bbc f750 c63c 5b6d cabe
00000360: 0899 07be ec1a 03be d787 dcbe 9b63 0dbd
00000370: 2644 03bc 811b 9cbe cfe5 62bf 3a67 c2bd
00000380: 6536 5cbf 2c1a f8bc 2e79 d2be 47a8 acbd
00000390: 8f73 64be 8062 a9be 50cc 40bd 5bf6 bf3c
000003a0: bf81 eebd 1faf e7bd 83a7 78bf 33f5 18be
000003b0: 0595 ab3c 4937 eebe 3cd5 05bf 10a8 65be
000003c0: 46be c8bd 67a1 cfbe b0a4 45be 4551 903c
000003d0: 893b 9cbd 2d0e d2bd 31a7 d0be daaa 5cbe
000003e0: b480 17bc 23aa 713c c8fd 96be 46fa 85bd
000003f0: 2034 8ebe 4fa6 d1be 953c 11bf 267b 9cbf
-0.24514829 -0.055236515 -0.28693804 -0.014057957 -0.18566203 -0.1565183 -0.1429757 -0.004479026
-0.023955569 0.01834032 -0.11706427 -0.06938073 0.0057605677 -0.25041592 -0.097968824 -0.21124133
-0.10549514 0.0018022059 -0.19402765 -0.011479166 -0.13138834 -0.22934127 -0.14445633 -0.08255657
-0.15111086 -0.03791662 -0.20093255 -0.045497227 -0.0032082275 -0.28131092 -0.050530136 0.037830897
-0.1119413 -0.05949313 -0.042265635 -0.117958464 -0.08814875 -0.14654316 -0.18928744 -0.0012068031
-0.38956258 -0.044864405 -0.10616486 -0.24323727 -0.18331298 -0.18789959 0.12904736 -0.070434764
-0.100207224 -0.059612013 -0.29610556 -0.092758715 -0.16060302 -0.17937005 0.049512718 -0.11258035
-0.211963 0.037355233 -0.2737486 -0.20321171 -0.29895738 -0.02066652 -0.10823354 -0.10628844
0.09060752 -0.22932972 -0.07297473 -0.14619328 0.13298194 -0.22998539 -0.028526247 0.026410148
-0.065529555 -0.022107841 -0.17829151 -0.18402228 -0.36263555 -0.0992816 -0.22612046 0.05075523
-0.16009116 -0.23081398 -0.25173777 -0.14238335 -0.014592361 -0.4685117 -0.02245279 -0.0031380157
-0.29650408 -0.072979115 -0.045387533 -0.37717766 -0.103683524 -0.05639829 -0.12738225 -0.11485579
-0.25827056 -0.0357004 9.5122e-05 -0.26209307 -0.09273155 -0.6346981 -0.2237385 -0.21771187
-0.31287855 -0.2905381 -0.029758781 -0.23782647 -0.2818391 -0.099695 -0.074973926 -0.20005912
-0.8689371 -0.37039587 -0.2560019 -0.67438173 -0.15611951 -0.08381624 -0.06292198 -0.079377614
-0.077930406 -1.4483912 -0.3120542 -0.10217939 -0.41760468 -0.12890805 -0.22240266 -0.16277038
-0.09907187 -0.047879394 -0.1825816 0.028753439 -0.027860278 -0.19123703 -0.05253292 -0.031751115
-0.086590916 -0.054008983 -0.262419 -0.47694898 -0.0219158 -0.2931213 -0.0724196 -0.42371997
-0.06146178 -0.14041105 -0.81056595 -0.68088275 -0.06494797 -0.3798833 0.013154778 -0.055247035
-0.42367828 -0.03700014 -0.27464214 -1.2288011 -0.08691945 -0.83079195 -0.11887687 -0.5060803
-1.5280092 -0.18582961 -0.2733076 -0.070472136 -0.2841246 -0.13654973 -1.0806402 -0.2026113
-0.041043673 -0.358925 0.028908873 -1.2496625 -0.30115244 -0.11685371 -0.38605165 -0.07193972
-0.08304965 -0.28390706 0.017748957 -0.38343096 -1.1671443 -0.002514513 -0.1529256 -0.17240483
-0.57698214 -0.22033621 -0.28005657 -0.08376597 0.015141792 -0.5513874 -0.11733224 0.42557472
-0.02470294 -0.057486188 -1.3330446 -0.015139699 -0.17887275 0.22278829 -0.40498096 -0.03785103
-0.25701177 -0.075994946 -0.38839373 0.41827244 -0.081849664 -0.23131536 -0.56028664 -0.019400427
-0.12160021 -0.07592119 -0.2777648 0.02378848 -0.44719043 -0.015347271 0.024208529 -0.39536557
-0.1324197 -0.12803239 -0.43072388 -0.03451882 -0.008011853 -0.30489734 -0.8863191 -0.09492345
-0.860205 -0.030285917 -0.41108078 -0.08430534 -0.22309707 -0.33082962 -0.047069848 0.023432901
-0.11645841 -0.113126986 -0.971306 -0.14937286 0.020945081 -0.46526554 -0.52278495 -0.22427392
-0.09801917 -0.40552828 -0.19301105 0.017616877 -0.07628543 -0.1025661 -0.40752557 -0.2154955
-0.009246994 0.014750036 -0.29490495 -0.065418765 -0.27774143 -0.40947196 -0.56733066 -1.2225082

module.conv1.weight f4 [32, 1, 7, 7]
00000000: 6324 30bd 6266 663c ef4d db3d aeae ffbd
00000010: f1aa 8fbe 05c5 9e3c bd35 6ebe 1210 3fbc
00000020: d27c 533e a595 a3bd 3596 bfbd 53f2 acbc
00000030: e7b9 4f3c fdbb 6fbe 37b9 f13c a4b7 bfbe
00000040: 58a8 acbe f5c9 c9bd 6b3e f73b c98c 47bf
00000050: 31b3 f53e 0ba8 093e 8e2d 73be dd86 bc3e
00000060: 42d9 753d 6e7d 853e badc f1be 5be0 fdbe
00000070: bc0f 853e dbf8 0fbe edb1 04be cb72 90be
00000080: e79c 41be a484 e03d 358f c8bb 2a99 d5bd
00000090: d1b0 ddbd d56f 243d 4b7d c8be 9f29 04be
000000a0: 8467 d23d e141 2bbe 9bdb 8dbd e475 173e
000000b0: c1ee cebd 1363 a1be 4dc3 dd3d c2db d2be
000000c0: c840 00be 39b4 833c 03cb 9d3c de65 dc3d
000000d0: dbe6 493e 6a2b 1e3e 3bb4 803e ca03 aa3e
000000e0: edc2 3abc c751 443e fcb4 9bbd 9d81 053f
000000f0: 78d7 af3e 51d8 ea3e 9411 043f cb44 44bc
00000100: 0270 94bd 38a6 3c3e 8247 97bd 5ea8 8f3d
00000110: c237 f03d f80a 533e 734d 24bd 12bf 333b
00000120: e84f 17be 0309 9fbe 6d80 c1be aada 29be
00000130: c5c6 26be 8ecb 88bd 4335 a3bd 52cc 96be
00000140: 6552 a7be 584d 0fbf b0e8 b0be 6e25 e6bd
00000150: a124 3fbe e02c 38be 15ab 1bbe 8058 8ebe
00000160: edb3 a2be 9a3d 71be 321c 10be 304d 3cbe
00000170: d0cb 2dbe 5d0c 9dbd 6bf0 a0bd f999 35be
00000180: 83ba cdbd ccde 0fbd db48 1e3e 6198 01be
00000190: 8ddc 59be a010 053e 6595 ccbe 1edd 8ebd
000001a0: 5bff 813e 94d3 74bd 1a07 10be eab1 b1bd
000001b0: d18d 473e f86c 2abd 8639 fb3c d92e 10bd
000001c0: f582 7fbd 6bd7 2f3d 3cd4 10be 6731 1bbd
000001d0: f99f 1fbe 4924 3abe 0d91 b8bd d961 c73c
000001e0: 535b 05bf 0a63 f83e 6a1a 6e3e 3fe8 0dbe
000001f0: 7808 97bd 5cf3 ea3c 199d 70bd 2b0b f33c
00000200: 82a9 22bf 6c28 30bf d949 d43b aa61 a03c
00000210: 1ff2 30be ef2b a6bd 6f8a f7be a433 d43c
00000220: ff28 e83e 0688 863e 2337 9cbd d02f 3cbe
00000230: c957 f63c a2ff f4be 0811 5fbe 3c55 2f3e
00000240: 3459 30be bf04 55bc 1abe 9cbd ee45 5e3c
00000250: b8c9 093d ee26 a0bb b18e 80bc fba7 2ebd
00000260: 3072 09bc 7ed5 7c3c e070 943c d5a7 b83b
00000270: 2d77 e2bb 162f 913a baad f3bc 93f8 31bd
00000280: 6ead 503b f78d 6cbc 47d1 1b3b 1d50 b1bc
00000290: 9de2 c33c 9a28 b63a 1f03 0ebe e191 0dbd
000002a0: 3f13 6bbd 2e24 0abd 61e4 f03d d10e 9f3e
000002b0: 3471 193e da71 b63c 5a8e 85bd e472 91bc
000002c0: 875a 863d 0e79 953e 760b 013f 338f df3e
000002d0: 13d2 af3d 25e9 b7bb 8777 66bd 65a5 b1bb
000002e0: e504 2a3e 9301 9b3e 2dcf 883e 6fd6 823c
000002f0: 94f2 77bd 973d e7bc 6d4b 06bd c358 1c3c
00000300: b988 9f3d 5a6e 233d d97e 32bb 9e7e 8abd
00000310: 89da a03c ad3a 5fbd 87aa 45be 4206 cdbd
00000320: 2bc3 c3bc 3399 14bd 415d a93d 89d4 0dbe
00000330: f251 99be 29db a3be b3a2 803d 6639 263d
00000340: f268 c2bd 82ce bf3b 3826 0ebe 3e22 3cbe
00000350: eb77 673d 2f41 113f 2dba c53e 3937 2cbb
00000360: 81f1 95bd 200b a8bd 2f50 973d 2c46 ec3e
00000370: a5e4 5c3f 8e1b 003f 5a6e 90bd 2818 2ebe
00000380: b9ca e9bd 1aa2 08be 57f9 113c 012a 483e
00000390: 54f2 643d 30ac d4be 9905 c4be 8834 93bd
000003a0: 124d 62be 6600 dabe 7f7d e0bd 628c 4bbe
000003b0: 78ab b1be 7077 4ebe ba3d 733d 9163 24bd
000003c0: 812e 60be 6d3d a13d e1f9 4c3d 1e0f 8fbd
000003d0: d9e8 b83c f52d a93d 9ab5 be3e 3619 063f
000003e0: 5b64 f23e feff af3e 3077 e6be 0e8d a8be
000003f0: 5e16 c93e 6a56 793e 05ff 793e ea24 b03e
-0.04300345 0.014062496 0.10708224 -0.124844894 -0.28060105 0.019381056 -0.23262687 -0.011661546
0.20653084 -0.07987527 -0.093548216 -0.021111643 0.0126786 -0.23411556 0.029507263 -0.37444794
-0.33722186 -0.09852973 0.0075452826 -0.77949196 0.47988275 0.1344301 -0.23747846 0.36821643
0.060021646 0.26072258 -0.47238714 -0.49585232 0.25988567 -0.14059775 -0.12958498 -0.2821258
-0.1890751 0.10962799 -0.0061205872 -0.10429604 -0.10824741 0.040145714 -0.3915809 -0.12906502
0.1027365 -0.1672435 -0.06926652 0.14791065 -0.101041324 -0.315209 0.10828266 -0.41183287
-0.12524712 0.016077148 0.019261843 0.10761617 0.1971697 0.15446249 0.25137505 0.33206016
-0.011399013 0.1917182 -0.076028794 0.521509 0.34344077 0.4586816 0.5158932 -0.011979292
-0.07247926 0.18422782 -0.07386686 0.07014535 0.11729385 0.20609653 -0.040112924 0.002742712
-0.14776576 -0.31061563 -0.37793294 -0.1658732 -0.16286762 -0.0667945 -0.07969143 -0.2945276
-0.3268005 -0.5597739 -0.34552526 -0.11237608 -0.18666317 -0.17985868 -0.15201981 -0.27801895
-0.31777897 -0.23558655 -0.14073256 -0.1838882 -0.1697228 -0.07668374 -0.07858356 -0.17734517
-0.1004534 -0.035124585 0.1545748 -0.12655784 -0.2127554 0.12994623 -0.3995773 -0.069757685
0.25390133 -0.05977209 -0.14065209 -0.086765125 0.19487692 -0.041607827 0.030667078 -0.035200927
-0.06238075 0.042930048 -0.14143461 -0.03788891 -0.15588368 -0.18177904 -0.09012041 0.02433865
-0.52092475 0.4851306 0.23252264 -0.13858126 -0.07374662 0.028680496 -0.05874357 0.029668411
-0.635399 -0.6881168 0.00647853 0.01957782 -0.17279862 -0.081138484 -0.48347804 0.02590353
0.45343778 0.26275653 -0.07627704 -0.18377614 0.030071156 -0.47851282 -0.2178384 0.17122358
-0.17221528 -0.01300162 -0.076534465 0.013566477 0.03363964 -0.0048874533 -0.01569304 -0.042640667
-0.008389041 0.01543176 0.01812023 0.0056352415 -0.0069111795 0.0011076655 -0.029745925 -0.04344995
0.0031841653 -0.014438144 0.0023775862 -0.021644646 0.023911769 0.0013897598 -0.13868378 -0.03456295
-0.0573914 -0.03372591 0.1176231 0.31065992 0.1498459 0.022271086 -0.06521292 -0.01775498
0.065602355 0.2919392 0.50408113 0.4366394 0.0858499 -0.00561251 -0.056266334 -0.005421328
0.1660343 0.3027464 0.26720563 0.01597139 -0.060534075 -0.02822761 -0.032786775 0.009542647
0.0778975 0.03990016 -0.0027236252 -0.067624316 0.019635456 -0.054499317 -0.19303332 -0.10010959
-0.023896774 -0.036278915 0.0826974 -0.13850607 -0.29945332 -0.32003143 0.062810324 0.040582083
-0.09492673 0.005853475 -0.13881767 -0.18372437 0.056510847 0.5674009 0.38618603 -0.0026278032
-0.07321454 -0.08205247 0.07388341 0.46147287 0.86286384 0.50042045 -0.07052298 -0.17001402
-0.114156194 -0.13343087 0.008909545 0.19547273 0.055895165 -0.4153762 -0.3828552 -0.07187754
-0.22099712 -0.4257843 -0.109614365 -0.1987777 -0.34701133 -0.2016275 0.05938504 -0.040134016
-0.2189274 0.07873044 0.05004299 -0.06985305 0.022571968 0.08260719 0.37247926 0.5238222
0.4734219 0.34374994 -0.45012808 -0.32920116 0.39274877 0.2434937 0.24413688 0.34403163

module.conv1.bias f4 [32]
00000000: 92cc 72be 2d90 e3bd 2626 59be 7a3d 22c0
00000010: 75cf 15bb ce02 64bf 2bbf aabe a143 20be
00000020: 8b80 bbbd 7d3d 293f 01bf 79be e7ac 3ebc
00000030: 6378 41be fd54 3fbd cdfd 7abe 6e55 20bd
00000040: 1037 233e 15b1 30bf c61c dfbe f96d 97be
00000050: fd61 7dbe 4084 1dc0 a11b aabe 86a3 0abf
00000060: 2f60 03bf 9e05 62bd 490f 3ebe cd14 aebe
00000070: 7dd8 2cbe fcd7 9ebe 788c 78bb 9fb0 19bf
-0.2371085 -0.11111484 -0.21205959 -2.5350022 -0.002285925 -0.8906678 -0.33348975 -0.15650798
-0.09155377 0.6610945 -0.24389268 -0.011637903 -0.1889358 -0.04671191 -0.2451088 -0.039143972
0.15938973 -0.69020206 -0.4357664 -0.2957609 -0.24744411 -2.461197 -0.33224204 -0.54155767
-0.5131864 -0.05518114 -0.18560518 -0.34000245 -0.16879459 -0.31024158 -0.0037925523 -0.6003513

module.conv2.weight f4 [32, 32, 3, 3]
00000000: a9c9 b83e c1c6 dcbe 4631 44bf 2f1b 73be
00000010: a8b9 01be 5d72 e53e e3e2 adbe f2c0 3cbc
00000020: 4fa4 43be 73e5 b13e a4f4 e2bd 5053 1b3d
00000030: 2176 acbf f123 6ebf ce26 59bf afd9 953e
00000040: 8b51 e23e 6612 afbe 9a04 8abf 7eb3 ad3d
00000050: f6ef 223d 58a7 8bbf cdd3 583e c831 46be
00000060: 893a 193e 0ed1 dc3e 4837 803e 1d61 bebe
00000070: 7772 d6bf 1b0b 92bf 652c 153e 031d 88bf
00000080: 9143 ce3e d858 0c3f 9e2e abbf 59ea ae3e
00000090: ccdf 733d c7bc bb3a 43ce 79be c97d 173e
000000a0: 52cc 4e3e ad95 343e 513f a33e fd06 e0be
000000b0: c1c8 f73d d28c f2bc 767d c83e 7aa6 903e
000000c0: dab8 1abe d517 38be 5815 a53e ac0b 783e
000000d0: 239c 103f ea22 aa3e 064c 883e 4aa9 03bf
000000e0: 8bd9 00bf 00b3 b5be 0404 c9be 2f99 65bc
000000f0: 504b a23e dcb0 683e f294 c13e 6d60 67be
00000100: 0ee0 1a3e 2fb2 a63e 5fcb f0be 229a 62bf
00000110: 5ef9 88be 0c84 243f 036d da3e 7f8d b73e
00000120: 88b9 00be 41b8 27be 3f96 c8be 7fdd 843e
00000130: 79c9 093e d580 6fbd 6524 b33e 5a60 b2be
00000140: 9e4a 73be adf6 b43e b708 943e 5002 1a3e
00000150: 97b6 c3bc a3c5 cf3d 7c60 f7be 2dd7 c93d
00000160: bb7e 95be ac30 48bf fb17 893d 088a 7d3c
00000170: 42e6 ea3e 3881 72bf b4f9 09bf 5369 15bf
00000180: df2c e03e 7540 103e 5078 a4be 9c60 c9be
00000190: 9286 a83e a6f6 e9bd 03ce 67bf c047 8c3d
000001a0: ebaf 283e a5f0 83be 5f58 603d 2688 6abe
000001b0: 283e d5be 8bf1 35be 473a 233f adec ddbe
000001c0: abf0 9b39 bcdc 583e f13e 94be 8d3f 123e
000001d0: 4aa5 52be 6ac7 483e 95c0 2e3e 80c2 6a3e
000001e0: 9cea 88be 589e d9be 1ae8 65bd 8aa8 16be
000001f0: 2a07 cf3d 3895 313e 3b52 d73c a954 a83e
00000200: a9e7 703c 2792 febe 9e85 0e3f 7193 4bbe
00000210: 8a4b 73bc b362 d63e c689 f3bd 3441 babd
00000220: 70f9 173e 9753 cbbe 5cda b93d 40c9 cd3e
00000230: 02e4 933d a4bc 06be 62fa f6bd 743b 763e
00000240: a6c3 0b3e 11a8 5d3e dbea 06be d1a4 0b3d
00000250: 2dc4 95be e56c b6bd 4b08 063d 89b2 3fbc
00000260: 88e5 a13d 6dff 3fbe 719f 4b3e e65d ac3d
00000270: 01ef 6f3e e5c1 b6bd eb7c 9ebe 14c6 a6be
00000280: e2f2 f1bc 1031 a43d ba0f 14bd c1f5 0abf
00000290: c91e 98be 7969 9bbd 47b7 fe3e b830 9abf
000002a0: ff74 0b3c 04aa 053e d804 9f3e 251a f63d
000002b0: 92cf a1bd 14ea 7fbe f179 cb3e 91f3 203d
000002c0: 72a1 6ebe 0ed2 e1be 2672 f33d 9f93 283e
000002d0: 49db 82bc 67f2 9c3e 6551 423e 6807 67be
000002e0: 3c5c b13e 0dbe 94be 41e6 35bf f6ea 04bb
000002f0: 0a2a 293e 2667 f43b 6ce0 b03e 4535 31bf
00000300: b1d9 d3bd 8ae3 4bbd ec2c 27bf f6da 883d
00000310: f3fa 3fbe 2ff7 a7bf 1ff2 b8bd 00db b9be
00000320: 2b9e d83d a88f 093f e78b 9a3e 9949 553d
00000330: 6897 40be a7e4 383e 3deb 97bc 8ecc 42bd
00000340: 2b4f 173d c392 4dbd 516c 343c d64a 8f3e
00000350: 1524 87be b412 3ebe f80d 8c3e 4321 cdbe
00000360: 8f48 13bf 7dfc 82bf 2d59 19be 5c9e 4b3e
00000370: ce66 4c3e d343 0c3d e4a9 8cbe d9bd 0abf
00000380: 0d9a 88be 99cc ebbd aae1 ad3e 121e 133f
00000390: d12c e9be f6b8 3cbe 958b 043f 8e82 303d
000003a0: 05f1 87bd 9a0e d03e c721 5c3c f10f 023d
000003b0: 84f8 cb3d 8a93 ddbc 6cce 1cbd a9a7 673c
000003c0: 5f7d 163d 3114 d4bd 2808 ca3c b20d 6b3d
000003d0: 56bb 273f 3a0b 983e ab3c febe 5898 023e
000003e0: 1d44 92be 02cf 3dbf d5b4 d4be b609 f6bf
000003f0: 1e29 89bf 632a 483f 16f8 0dbf ceba b0be
0.36091354 -0.43120387 -0.76637685 -0.23740838 -0.12668478 0.44813815 -0.33962163 -0.011520611
-0.19105648 0.34745368 -0.11081818 0.03792125 -1.347355 -0.9302359 -0.84824836 0.29267642
0.44202837 -0.34193724 -1.0782654 0.08481501 0.039779626 -1.0910444 0.21174546 -0.19354928
0.14963736 0.43128246 0.25042176 -0.37183467 -1.6753682 -1.1409639 0.14567716 -1.0633854
0.40285924 0.54823065 -1.3373601 0.34163168 0.0595396 0.0014323228 -0.24395089 0.14794077
0.2019513 0.17635222 0.31884244 -0.43755332 0.12098838 -0.029608164 0.3915822 0.28252012
-0.15109578 -0.17977841 0.32242846 0.24223202 0.56488246 0.33229762 0.266205 -0.5143019
-0.50331944 -0.3548813 -0.39260876 -0.014013573 0.31698084 0.22723716 0.3780895 -0.22595377
0.15124533 0.32557818 -0.4703016 -0.8851644 -0.26752752 0.6426399 0.42661294 0.3585014
-0.12570775 -0.16378881 -0.3917713 0.25950238 0.13455762 -0.058472473 0.34988704 -0.34839135
-0.23758933 0.3534445 0.289129 0.15039945 -0.023890777 0.10145118 -0.483158 0.09855495
-0.2919825 -0.7819927 0.06694027 0.015474804 0.45878798 -0.9472842 -0.5389664 -0.58363837
0.43784234 0.14087088 -0.3212304 -0.3933152 0.3291517 -0.114239976 -0.90548724 0.06849623
0.16473357 -0.25769535 0.054771777 -0.22903499 -0.41648984 -0.17767923 0.637608 -0.43344632
0.00029743215 0.21177953 -0.2895427 0.14282055 -0.20570865 0.1960732 0.17065652 0.22925758
-0.26741493 -0.4250362 -0.056129552 -0.1471273 0.10108788 0.17342079 0.026284328 0.3287709
0.01470367 -0.4972088 0.55672634 -0.19880463 -0.014849553 0.41872177 -0.118915126 -0.09094468
0.14841247 -0.3971221 0.09074852 0.40192604 0.072212234 -0.13157898 -0.120594755 0.24046117
0.13648853 0.21646143 -0.13175528 0.034092728 -0.29251233 -0.08907489 0.032722753 -0.011700281
0.07905108 -0.18749781 0.19885041 0.08416347 0.23431017 -0.08923701 -0.3095468 -0.32572997
-0.02953476 0.080171704 -0.03614781 -0.5428124 -0.29710987 -0.07588477 0.49749205 -1.2046118
0.008511781 0.13053137 0.31058383 0.120167054 -0.07900919 -0.24991637 0.3974147 0.039294783
-0.23303774 -0.44105572 0.118870065 0.16462563 -0.015973704 0.30653688 0.18976362 -0.22561419
0.34640682 -0.29051247 -0.71054465 -0.002028165 0.16519943 0.0074585853 0.3454622 -0.6922191
-0.10344256 -0.049777545 -0.6530292 0.066823885 -0.18748073 -1.312231 -0.09030556 -0.36299896
0.10577043 0.5373483 0.30184862 0.05207214 -0.18807757 0.18055974 -0.018544788 -0.04755836
0.036940735 -0.05018879 0.011012153 0.27986783 -0.26394716 -0.18561822 0.27354407 -0.4006444
-0.5753259 -1.0233303 -0.14975424 0.19884628 0.19961092 0.03424437 -0.27473366 -0.54195935
-0.2668003 -0.11513633 0.3396123 0.5746776 -0.45542005 -0.18429932 0.51775485 0.043093257
-0.06637768 0.4063614 0.0134357875 0.031753484 0.0995951 -0.027047891 -0.038282797 0.014139094
0.036740657 -0.10355414 0.024662092 0.057386108 0.65520227 0.29696065 -0.4965566 0.12753427
-0.2856759 -0.74143994 -0.41544214 -1.9221714 -1.0715673 0.78189677 -0.55456674 -0.3451752

module.conv2.bias f4 [32]
00000000: 3c46 dfbd 7cd9 3c38 b0c0 d9bf be19 b23d
00000010: add4 9f3d 236c 26bf 7944 7cbf e186 01bf
00000020: ab7b 4d3d ea31 ea3d ac6a 00be 2937 3cbf
00000030: ee2e 333e 7248 3dbe 43c2 c3be d9e2 82bf
00000040: 5bf9 9a3d c2ec 90bf d057 b6bf 801f aebe
00000050: 5b09 95be 3c43 1cbf 7dd1 7bbf 2e88 50bd
00000060: 7c96 57bf 30ea eebf e3f6 3bbd dfee e5be
00000070: e454 2bbd bd0b ff3d fd3e e83d d9aa b33d
-0.10902068 4.502524e-05 -1.7011929 0.08696316 0.078042366 -0.65008754 -0.9854198 -0.50596434
0.050166767 0.114353016 -0.12540692 -0.7352167 0.17498371 -0.18484667 -0.38234147 -1.0225478
0.07567092 -1.1322253 -1.4245548 -0.34008408 -0.291087 -0.6104009 -0.9836653 -0.05091112
-0.84213996 -1.8665218 -0.045889746 -0.44908807 -0.041829005 0.12453411 0.11340139 0.08772821

module.conv3.weight f4 [16, 32, 3, 3]
00000000: 0bc4 d7bd c20a 1dbd a070 a13c 91e0 8a3c
00000010: b81a 283d 89a6 92bd ab6d 35bc e800 0d3e
00000020: c07a 063d fa9b 053e 50a9 183e 1670 5fbd
00000030: 3814 0d3e b22c 2d3e 6a0b 3f3e b9d9 133e
00000040: 7702 863c 8d14 3bbd 826c 703e f5b0 6fbe
00000050: e5a7 80bd 026b 57be be42 e3bb 2e6c fe3d
00000060: 7f8e 6fbc 5dc2 c83d b894 f7bd 91cf 43be
00000070: bb03 913d 6cdb 3e3d c78f e53d 2a5c 95bd
00000080: 7cd6 34be 8fe7 133e 8db1 af3c bec9 643a
00000090: 6803 7fbd 873c 16bc f12b 23bd 2112 3bbd
000000a0: b899 3d3e b70f 0a3d a549 4fbe 78e6 d9bb
000000b0: 7a70 79be dd7d 4abe c85d f63d 3694 54be
000000c0: 4b3b 12bd ba38 a33d 0025 993c cead 0dbe
000000d0: 7409 073d e437 43be c994 b8bd e56e b93d
000000e0: 0b56 a23c 3e76 89be 51f9 833e be65 c4bd
000000f0: 9733 173d 343f 0ebc 3c5f 8abe 17f2 99be
00000100: 4acd 4bbd 3a06 5bbe 14fa 903d 0759 df3d
00000110: 54af 26be 6a7a 3fbe f100 f8bd 5e5c 163e
00000120: e313 7cbb 343b 9ebd b8e7 cfbd e530 253e
00000130: 6fd2 9e3d 3c9c 733d 7834 20bd 3a79 b23c
00000140: d0ff debd 3f21 8bbd e967 e33d df41 c83c
00000150: 735d bf3d 069d bb3d 1afa fabd 1a0e 84bd
00000160: 82bc 0a3d 1809 b8bd 148e 1ebf a77f d6bc
00000170: 49f9 2dbf ae91 ec3d b122 a73d 6ec6 d9be
00000180: d7e7 76be 82f2 16bd 50aa 7abe ae80 dc3d
00000190: 04b4 4cbe 324e 5c3e 51de f2bc 98a8 6f3d
000001a0: f127 ac3d a970 20bc 5113 9bbe fa29 383d
000001b0: 38a6 bebe d59b f9bc 552e 24be 49af a53d
000001c0: e0c3 8f3e 96a9 e2bd 1614 6cbf c2b8 cf3d
000001d0: 154a 7dbf fb9d a53e 1b96 0b3e 8905 aebe
000001e0: c53e fc3c c65d 34be 94cf 463e 7234 ec3d
000001f0: 01bf 41be 8992 643e 9182 383c a40b 423d
00000200: 88fd 86bd 0c04 3c3d cc3e 823b 2d0c 083e
00000210: 948e 67bd f18e afbd f74b 92bd 970e 46be
00000220: bc40 f53d 2704 89be 8f57 1d3d faa5 13bc
00000230: d4c0 393c a678 9b3d 3240 233d 9c7f 243e
00000240: 01af 39bd 6e2d d83c 6bbd 3d3d 5785 e93c
00000250: 5e43 0cbd 05e7 20be 7bc7 d5bd ac06 193e
00000260: ef06 b93d f0c8 373d 04df 16be f2d8 38bd
00000270: 4f4e 113d 1361 583d 1fbc 433e 4db5 95bd
00000280: 7950 83bd 7c5a 24bd c17b 33bd df4f b03d
00000290: b697 3b3d b277 263e 41bb 693d f919 e7bd
000002a0: 9738 e3bb a726 0ebe db05 7dbd 7ab2 083e
000002b0: 2629 0abe fa09 eebe e89a e53d facc d33e
000002c0: ba09 86be ea88 dfbf 101c 0ebe 0bbf eabe
000002d0: 356c 81bf da29 7abe 27e5 15bf 7cda 14be
000002e0: 4a54 f53d f562 4cbe 41f7 7c3c dc50 eebd
000002f0: 39e6 0ebd adc3 6a3e 492d 66be bf1d 9fbd
00000300: e30a e7bd 3bfe 01be 3638 f93d ccde 0b3e
00000310: b7b5 a9bd d119 c03d 99e8 c13d deda a73c
00000320: c8ab fa3d 95d6 a6bd 6463 843d e46f d9bd
00000330: 1eb4 0abe 2513 2b3d dce6 c2bd f466 07be
00000340: 4587 943d 47d5 b9bd d46a 013d 390f 213d
00000350: 43b3 b6bd 4dab c33a 01b0 9bbd e33e bf3d
00000360: 0e80 443e bb50 8cbe f2f8 de3d e8a5 9c3d
00000370: 2949 35bd 01d2 343e 5450 893d aa64 4bbe
00000380: 7870 1d3d 2031 963e 2e35 8ebc 8195 c33d
00000390: ec59 83be 749a 19bd 56cb 9e3c 054a 27be
000003a0: 3629 28be 637b 03be 8649 3e3d 7f28 46be
000003b0: 7169 4e3e b736 9b3c fb79 aabd bdba 403d
000003c0: f3eb 02be 262a 653d c3de 733c 1aeb 00be
000003d0: 9100 d4bd 7dbf c1be f17c 76bd 625a 3e3e
000003e0: 60bf 0d3c 8918 5ebe 7865 2c3e 8351 37be
000003f0: 1beb 76bf 9721 a7bd 740a ec3d adb6 dd3b
-0.10535439 -0.038340338 0.019707024 0.016952785 0.041041106 -0.0716067 -0.01107351 0.13769877
0.032831907 0.13047782 0.14908338 -0.054550253 0.13777244 0.16911581 0.18656698 0.14438523
0.016358597 -0.045673896 0.23478892 -0.23407348 -0.06282023 -0.21036914 -0.0069354465 0.124229774
-0.014621376 0.09802697 -0.12088913 -0.19122149 0.0708079 0.046595976 0.11209064 -0.072929695
-0.17659944 0.14443801 0.021446967 0.00087275717 -0.062259108 -0.009169704 -0.039836828 -0.045671586
0.1851567 0.033706393 -0.20242937 -0.0066497885 -0.24359313 -0.19774576 0.12029606 -0.20759663
-0.035701077 0.07969804 0.0186944 -0.13835832 0.032968 -0.1906429 -0.090127535 0.090543546
0.01981642 -0.26848024 0.2577615 -0.09589718 0.036914434 -0.008682061 -0.27025783 -0.30067512
-0.049756326 -0.21389094 0.070789486 0.109056525 -0.1627782 -0.18699041 -0.121095546 0.14683673
-0.0038464002 -0.07726136 -0.10151619 0.16131933 0.07754981 0.05947517 -0.039112538 0.021786321
-0.10888636 -0.067934506 0.11103804 0.024445472 0.09343996 0.09160809 -0.12254734 -0.06448002
0.03387118 -0.089861095 -0.61935544 -0.026183916 -0.67958504 0.11551224 0.08160914 -0.42534202
-0.24111877 -0.036852367 -0.24479032 0.10766731 -0.19990546 0.21514204 -0.029647024 0.058510393
0.08406056 -0.009792485 -0.30288175 0.044961907 -0.3723619 -0.030469814 -0.160333 0.080900736
0.28079128 -0.11067502 -0.9221815 0.10142662 -0.98941165 0.32347092 0.1363148 -0.33988598
0.03079165 -0.17613897 0.19415122 0.11533441 -0.18920518 0.22321524 0.011261598 0.047374383
-0.06591326 0.045902297 0.003974771 0.13285895 -0.056532457 -0.08572186 -0.071433954 -0.19341503
0.11975238 -0.2676098 0.03841358 -0.00901174 0.011337478 0.07591371 0.039856143 0.16064304
-0.045332912 0.02638885 0.04632322 0.028505964 -0.034243934 -0.15713127 -0.104384385 0.14943951
0.090345256 0.044869363 -0.14733511 -0.04512877 0.03547507 0.052826952 0.19114731 -0.07309971
-0.06411833 -0.040125355 -0.043819193 0.08608984 0.04579898 0.16256598 0.057063345 -0.11284251
-0.0069342363 -0.13881932 -0.061773162 0.13349333 -0.1349226 -0.46491987 0.11211187 0.41367322
-0.26179296 -1.7463658 -0.13877892 -0.4584888 -1.0111147 -0.24430028 -0.58552784 -0.1453647
0.119789675 -0.19959624 0.015439809 -0.116365165 -0.034887526 0.22926207 -0.22478212 -0.077693455
-0.11281373 -0.12694637 0.121689245 0.13659209 -0.082866125 0.09379924 0.094681926 0.020490106
0.12239796 -0.08146397 0.0646427 -0.106170446 -0.13545272 0.041766305 -0.09516689 -0.13222867
0.07252363 -0.090738826 0.03159602 0.039321158 -0.0892091 0.0014928371 -0.076019295 0.093381666
0.19189474 -0.27405342 0.10887326 0.076488316 -0.044259224 0.17658235 0.067047745 -0.19862619
0.038437337 0.29334354 -0.017359342 0.0955 -0.25654542 -0.037500814 0.019384068 -0.1633683
-0.1642197 -0.12840037 0.046456836 -0.19351386 0.2015741 0.018946989 -0.08324047 0.047053088
-0.1278532 0.0559484 0.0148846535 -0.12589684 -0.103516705 -0.37841406 -0.060177747 0.18589166
0.008651584 -0.21689047 0.16835582 -0.17902188 -0.9645249 -0.08160704 0.11525431 0.0067661614

module.conv3.bias f4 [16]
00000000: b804 1a3d 1eaa 803d ee62 30bf 09c9 77bf
00000010: 30c2 fe3e abe0 ae3d 556c f33d c9bb af3b
00000020: 362f 2bbe c027 333e 5d86 20bf 4686 2a3e
00000030: 8a25 05bf 7772 6abf b97a 443e a999 dbbf
0.037602156 0.06282447 -0.68900955 -0.9679113 0.49757528 0.08538946 0.11885897 0.005362962
-0.16717228 0.17495632 -0.6270502 0.16652784 -0.52010405 -0.9158091 0.1918744 -1.7156268

module.conv4.weight f4 [16, 16, 3, 3]
00000000: 7c9d b2bd 6f2a 0b3e f798 3e3e eae7 b8be
00000010: d220 1abd 6679 503e ea6a 0cbe 18f2 3cbe
00000020: fd18 2e3e 304c 8ebd ca75 303e 1415 4f3d
00000030: 0b4f 1abe 1905 b3bd 3edc e9be a696 b7be
00000040: 8e7a 23be 9cf5 94be bb68 79bf ed3a 14bf
00000050: b4cd 7cbf 7322 a63d e356 35be e9aa 0bc0
00000060: dbd7 04bf 9b81 38bf 9065 f6bf 1c2b aebf
00000070: c3ac 94be c600 113f f412 f6bf 329f d0bd
00000080: 7f11 46bf d863 2bbf 5ad4 71bf 2065 8f3d
00000090: 7324 e9bf 73fd 093f 70ea c1bc a3a3 02c0
000000a0: 4af1 15bd 5fb5 b33d c2fc 1ac0 e933 e1be
000000b0: 5e35 3abd d68b 1b3e 7201 ad3d f303 aa3d
000000c0: 512a 4cbe 3cc1 89bd 0602 0c3e 7449 e83d
000000d0: ae28 00be 4382 7a3c 7264 54be 7edd 3f3c
000000e0: d1ef 003d eaa9 10bf 23a3 58be 3f5c 3abc
000000f0: 43e6 2dbf 9279 2abe 577e 2f3e 97a6 c2be
00000100: d090 5fbe 6b4a 0dbe cd3b a6bd 9792 3bbe
00000110: 873f 32be 77a7 c9be 4998 1fbe 5a9f 13bd
00000120: f49c ba3c 4fda 3b3d f053 5e3e c3a5 c43d
00000130: 395b 6e3e 7e4c 16be 4390 7bbe c7e5 3bc0
00000140: 70ae 8abf 619e 953e eb8a 60bd 8fc9 a63d
00000150: 7e9b c4bd 9055 53bd 7c8b c2be 0270 263e
00000160: d7ff 10bd 6ac1 19bf b1a3 a33e 4c86 92bf
00000170: 2f68 393e ba07 acbe ee5c c1bf 5cd4 99be
00000180: f85d 9fbd e44d 0ebf 4743 a13e 9baf bcbe
00000190: 7b31 95be 971a 7f3e 8866 a7be 5530 3b3c
000001a0: 5acf 773e 1601 6c3e fd6d 52be 79f0 433e
000001b0: d0f8 5ebd 528c 083e a52f 043e 3bf8 a8bd
000001c0: a08f 1dbe 2137 df3c 9dcb 39bc 170a 56bf
000001d0: 80ff 7d3d ce1e 513e 5421 ccbd 3381 cbbc
000001e0: 3969 8cbd a1cf 323c 0373 41bc 0f8d 02be
000001f0: 659c fd3d f00a 033e 7145 b0be 15fa 04bd
00000200: 0cfb ffbf 78b2 b93c 63a1 b83c ce8f bbbd
00000210: a1eb 033e caa1 75bd 0626 c4be e333 c03e
00000220: 104a f4bd bea8 56bd 41aa 1fbd 1fda ecbe
00000230: bd2a 91be 4bf9 1bbf a7cf 4fbe 6240 05be
00000240: 9d61 c83c a287 4ebb f25a f13b b247 873e
00000250: 2970 e7bd de64 81bd 6262 69bd 1421 0e3e
00000260: ad3a 4ebe 116b 00bf 95af adbe f40e 07bf
00000270: b6d9 0cbf 4e3a 9abd 7e30 943d acd4 92be
00000280: c0b0 6b3d 73ad a63c b314 32bf f000 7cbd
00000290: c0a6 59be 1f56 523e e869 b3bf ebf5 af3d
000002a0: 8f5b 09bf 8aee e1bd bda0 9fbf ea50 98bf
000002b0: 9ec4 a93e 79ee 42be 1097 673b 9de7 9f3d
000002c0: c676 89be 4779 efbf b00f 59be 5360 4b3c
000002d0: d075 07bf 3441 5dbf cde3 df3c fa20 86be
000002e0: 4732 14c0 8fc0 96bf 0186 7b3e 53d3 b23e
000002f0: e74b 0d3e 8165 9abe 102b 4cbe 9ce8 4b3c
00000300: 3087 20be 638a 65bd 457f 28bb 11f4 aa3d
00000310: b81f 0d3e 44fb a73e eab3 f9bb e7ef 5cbe
00000320: 2537 c1bb 2cd3 28bd 7f26 21bf 25b5 57be
00000330: a9b0 2bbe 28da c7bf 6308 eebf 1b5e 6cbe
00000340: 0741 43c0 efae 7ebf 6a76 a9bf 6f01 403e
00000350: cd37 cbbd 21d3 643e 1512 a8bc d750 713e
00000360: b377 cbbd c393 1cbe 557a f1bd 7645 07be
00000370: 80a1 6dbd 5c0c 86be 6ee0 833d 87d0 dcbe
00000380: 3831 393e 8835 52be 2d66 54be ec8f b2be
00000390: 0f1e e1bb 55e8 75bc 90d0 653e 6ec7 2abd
000003a0: b6df 863d f263 653e 4fc7 2dbd 8bac 77be
000003b0: 8ad9 0abc 3c8f 453d 6370 58bd 6742 89be
000003c0: 8ffe bb3b ea84 033d 9823 863b 25e2 053d
000003d0: e275 c13c 99e0 833d bec1 933d 5a64 c9bc
000003e0: d5ae 12be 8bed 6bbe 46ac 583e e249 453e
000003f0: b8c8 02bd 7127 56be c147 323e 1f35 b9bf
-0.08721444 0.13590406 0.18613039 -0.36114436 -0.037628956 0.2035881 -0.1371266 -0.18451726
0.1700172 -0.06948125 0.17232433 0.05055721 -0.15069215 -0.08741207 -0.45675844 -0.35857123
-0.1596472 -0.29093635 -0.9742543 -0.57902414 -0.9875138 0.081120394 -0.17708926 -2.1823065
-0.5189187 -0.7207276 -1.9249744 -1.3606906 -0.29038057 0.56641805 -1.9224534 -0.10186614
-0.77370447 -0.66949224 -0.9446465 0.0700171 -1.8214248 0.5390236 -0.023671359 -2.0412376
-0.036607064 0.08774828 -2.421677 -0.43984917 -0.04546105 0.15190062 0.08447541 0.083015345
-0.19938017 -0.0672631 0.13672647 0.11342135 -0.12515518 0.015289846 -0.20741442 0.011710523
0.031478707 -0.5650927 -0.21155982 -0.011374532 -0.67929476 -0.16647938 0.17138039 -0.38017723
-0.21832585 -0.1379792 -0.08116875 -0.18317638 -0.17407046 -0.39385578 -0.15585436 -0.03604064
0.02277992 0.045862492 0.21711707 0.09601929 0.23276986 -0.14677617 -0.2456675 -2.9358995
-1.0834484 0.29222396 -0.054819982 0.08143913 -0.0959997 -0.05159527 -0.37997043 0.16253665
-0.035400238 -0.6006075 0.31960824 -1.1447234 0.18106149 -0.33599645 -1.5106485 -0.3004483
-0.07781595 -0.555876 0.3149664 -0.36852726 -0.29139313 0.24912487 -0.32695413 0.0114250975
0.24200192 0.23047289 -0.2054977 0.19134702 -0.054436505 0.13334778 0.129088 -0.08250471
-0.1538682 0.027247967 -0.011340049 -0.83609146 0.062011242 0.20421907 -0.09967294 -0.02484188
-0.06856007 0.01091376 -0.011807206 -0.12749122 0.123833455 0.12797141 -0.3442798 -0.03246506
-1.9998488 0.022668108 0.022537893 -0.09158288 0.12882854 -0.059968747 -0.3831026 0.37539586
-0.11928189 -0.05240702 -0.038980726 -0.46260163 -0.2835292 -0.60927266 -0.20294057 -0.13012841
0.024460608 -0.003151395 0.007365578 0.26421887 -0.1130069 -0.06318067 -0.05697859 0.13879806
-0.2013957 -0.5016337 -0.3392302 -0.5275719 -0.550197 -0.07530652 0.07235812 -0.2867788
0.05754161 0.020346379 -0.69562835 -0.06152433 -0.21255016 0.20540665 -1.4016695 0.08591827
-0.5365533 -0.11031826 -1.2470928 -1.1899693 0.3315782 -0.19036283 0.0035337843 0.078078486
-0.2684843 -1.8708886 -0.2119739 0.012413102 -0.5291414 -0.8642762 0.027330304 -0.26197034
-2.3155687 -1.1777514 0.24562837 0.34926853 0.13798486 -0.30155566 -0.19938302 0.012445595
-0.1567657 -0.05604018 -0.0025710624 0.08347333 0.13781631 0.32808888 -0.0076203244 -0.2157589
-0.0058964663 -0.041217014 -0.62949365 -0.21065195 -0.16766609 -1.5613451 -1.859631 -0.23082773
-3.050844 -0.9948568 -1.3239262 0.18750547 -0.099227525 0.22346164 -0.020516435 0.23565994
-0.0993494 -0.15290742 -0.11790911 -0.13210091 -0.058015347 -0.26181304 0.06439291 -0.43127844
0.18085182 -0.20528233 -0.20742102 -0.3487543 -0.0068700383 -0.015009006 0.22442842 -0.041694097
0.06585638 0.22401407 -0.042426404 -0.24186914 -0.008474717 0.048232302 -0.052841555 -0.26808473
0.005737133 0.03210918 0.0040935986 0.03268637 0.023615781 0.06439323 0.07214688 -0.024583984
-0.14324506 -0.23039834 0.21159467 0.19266465 -0.0319297 -0.20913483 0.17410184 -1.4469336

module.conv4.bias f4 [16]
00000000: a954 35bf ed4a 84be af39 d1bf 51a4 1e3d
00000010: 2cec 6ebe bf27 92bf d8c3 8abe 69ac 36bd
00000020: 9374 123d 5982 6f3e 9172 22bd 86d4 943e
00000030: b881 f33d 6438 9cbe 8ca5 2bbe a462 f8bd
-0.70832306 -0.25838414 -1.6345729 0.038730923 -0.2333228 -1.141838 -0.27102542 -0.044598017
0.035755705 0.23389567 -0.03966004 0.29068393 0.11889976 -0.30511773 -0.1676237 -0.12128189

module.conv5.weight f4 [8, 16, 3, 3]
00000000: e63a b03c 5af7 4d3d b580 e03d 192a be3d
00000010: d965 1a3e e429 4fbd 51dd 693d 4f0a c83d
00000020: 45cc 3bbe ee2f f4bc 32e0 9d3d 9230 733e
00000030: 67d5 f43c 082f 773d 225c 853c 40bd 51bd
00000040: a952 383e 46f8 353e bdcf a0bc 05eb e9bd
00000050: 6712 f9bd aac4 0cbd 0814 33bc 5ba5 dabc
00000060: af71 593c cf27 82bc aa9a d73c 8813 cc3e
00000070: 31a0 b63e cd68 563e 68eb 223e 8176 e9bc
00000080: 95cd d7bd bacd c93c 5aad 41bd fdf3 eebd
00000090: 7ac2 d23c bdbb d33d 95f3 283d 34d2 743d
000000a0: f34c 4e3d 4d5f b43a 9ddf 5cbd e55b 163d
000000b0: dd31 9d3d 5085 193d 7d70 e43c 6879 133d
000000c0: 8669 af3b fbe8 9b3d b10b 97bc e46a e3bb
000000d0: e6d1 52bd 73be c3bd 512b 7abd b2a8 5fbd
000000e0: 676c ad3c 328d a63c bf84 29bd 6813 55bc
000000f0: 5274 a8bc 408c 613d 7611 723d 5db5 d3bc
00000100: f5a4 e4bc ddaa 1abd 306b bcbc 77a1 a63c
00000110: da60 b73d ea93 ebbd 6797 bcbd d14a 143d
00000120: 4e3c ac3c 0c75 bc3c e8b8 e9bc 5a80 4c3c
00000130: ad5a 7c3c c126 84bb 8b2c ccbd 4b37 04be
00000140: 63c2 11be 682f e0b7 a9b2 b43d e5b8 7bbd
00000150: 043a a3bc c7f8 523d 2e2c a23c 30c9 60bd
00000160: a850 ebbb 6da6 96bd 7dc8 ad3d 632b 0d3e
00000170: 6f28 b7bd f3e4 603e 2447 9d3d 6231 61bd
00000180: 8bd0 113d 7e5b b23c ae1e 95bd aedc 8dbd
00000190: ba91 553d e232 653d 56c8 5a3c 3a6b 633d
000001a0: 6f1f aabc 10a1 52be b628 f6bd 0a0a e73d
000001b0: 8fc4 ea3b 6f9d 1e3e 5026 cc3d 2a7d 2ebd
000001c0: 5a34 293e 2963 993d b9d6 b73a afe4 0fbd
000001d0: 178a db3d 93b8 febc f695 023d ba20 693e
000001e0: 6efc 683e 41da c43e 7e95 f9bd db58 e3bd
000001f0: e351 cabc d2fd e2bd b83e ac3d 637c 81bd
00000200: 8c08 cf3c 3918 db3c bd8f a63c 5cfe 143d
00000210: 5fd0 e4bc 7a3d 9b3c 1ad0 6f3d 6ea3 43bd
00000220: be21 92bb 7dde e43c 230e bcbd 4660 00bc
00000230: 2b19 273e 115c 89be 5dd5 d0be c0f6 ecbe
00000240: d768 b03e fd89 27bc 0a10 01be c296 bfbd
00000250: 80f3 98be 4c01 cb3c 05c8 1ebe 3407 0e3e
00000260: 4a75 9f3e 9e98 3f3e 787b 14be 4291 febe
00000270: 0bb2 97bd dae1 10be b797 19bf 0a78 143d
00000280: 6669 0f3e 1a8e 8a3e 80df d3bc 56e1 9a3c
00000290: 9d71 803d 5723 99bd b393 e9bc fd2c e3bc
000002a0: 64c7 8dbe 431b e1bd a892 97bc 4164 fbbe
000002b0: 1b8b 223d bcb0 28be 2c33 433d b666 f9bb
000002c0: d152 5cbe 0ef0 bf3d 10ee 95bd b343 10bc
000002d0: 9a1b 30bf 9771 2abe 4286 9d3d 3b43 5bbe
000002e0: 98aa 1cbe fdef 2f3e 505c aa3d 1cdf 97be
000002f0: 9faa c83d fe04 08b9 ccb3 0f3d 6927 2a3e
00000300: 1f18 cd3c ceb9 4c3e 2bc6 33bb 4fa0 193d
00000310: c9d3 da3c 700c b13c fcae 993d 4467 ccbe
00000320: 200b e0be 14f1 21be 7a95 05bb 2368 46bd
00000330: d9d0 50bd 4564 29bd f770 10bf b5b4 e13d
00000340: 27f2 243c f27d ee3d 4590 07bb f442 4bbe
00000350: b28d 7b3d 8f0c bc3d 247b 0ebe 9307 17be
00000360: 1b2c c03d cc9c a03d 90b9 91be 8e3c 3c3c
00000370: bb04 85be ab80 20bf 5195 313b 7d25 43bd
00000380: 5616 a3bc 60d9 c4bd 3902 f33d 0ecc 1bbe
00000390: 571a 0d3e dc60 0ebd 2a97 c7bd 4fcc da3c
000003a0: c100 8aba ae94 17be 4bc3 52bd bd9f 86bf
000003b0: 1be1 88bf d268 473d 0c52 e43d 97d5 a7be
000003c0: bbda c43d a2df 91bc 60e6 843c 7725 423e
000003d0: 153b 633e 495a 10bf 90fc dfbd 7b59 e9bc
000003e0: bc98 5e3e bee4 6dbd d8da 0d3e b52e 5abf
000003f0: 6622 edbe aa02 cdbd 3c3f 3ebf 26e4 873c
0.02151246 0.05028472 0.10962049 0.09285373 0.15077914 -0.05057706 0.05709583 0.09767591
-0.18339641 -0.02980801 0.077087775 0.23748997 0.029886914 0.060347587 0.016279284 -0.051205873
0.18000282 0.1777049 -0.019630307 -0.114217795 -0.12161713 -0.03436724 -0.010930069 -0.026690176
0.013271733 -0.015888123 0.026318867 0.3985865 0.3566909 0.20938416 0.15910113 -0.02849889
-0.105372585 0.02463423 -0.04728446 -0.11667631 0.0257275 0.103385426 0.041247923 0.059770778
0.050366353 0.0013761312 -0.05392419 0.03670873 0.07675526 0.037480652 0.02788567 0.036004454
0.0053531555 0.07612797 -0.018438192 -0.0069402326 -0.051469706 -0.0955781 -0.061076466 -0.05460424
0.021169854 0.020330999 -0.041386362 -0.013005115 -0.020563278 0.055065393 0.059098683 -0.025843317
-0.027910689 -0.037760604 -0.02300033 0.020340664 0.0895402 -0.11502822 -0.09208565 0.036204163
0.02102485 0.023005031 -0.028530553 0.012481773 0.015402478 -0.00403294 -0.099694334 -0.12911718
-0.14234309 -2.6724956e-05 0.08823139 -0.061455626 -0.019925125 0.051506784 0.019796457 -0.054879367
-0.007181246 -0.07355962 0.08485506 0.13786082 -0.08943259 0.21962337 0.076795846 -0.054978736
0.035599273 0.021772142 -0.07281242 -0.06926857 0.05214093 0.05595673 0.013353428 0.05552218
-0.020766942 -0.20569253 -0.12019484 0.11281212 0.007164545 0.15489744 0.09968245 -0.042599835
0.16523877 0.074896164 0.0014025784 -0.0351302 0.10719698 -0.031093871 0.031881295 0.2276639
0.22752544 0.38447765 -0.121867165 -0.11100932 -0.02469725 -0.11083569 0.084104 -0.06322553
0.02527263 0.026744949 0.020332212 0.03637539 -0.02793139 0.018950213 0.05854807 -0.04776328
-0.004459589 0.027938122 -0.09182384 -0.007835453 0.16318195 -0.26828054 -0.40787783 -0.46282005
0.34454986 -0.01022577 -0.12603775 -0.09354927 -0.29873276 0.024780892 -0.15505989 0.13869935
0.31144172 0.18710563 -0.14500225 -0.49720198 -0.07407006 -0.14148656 -0.59997123 0.03624729
0.1400505 0.2706154 -0.025863409 0.018906277 0.0627167 -0.07477444 -0.028512811 -0.027731413
-0.27691185 -0.10991528 -0.018502548 -0.49099925 0.039683443 -0.16473669 0.047656223 -0.007611121
-0.21515967 0.09371959 -0.073207974 -0.008805203 -0.68792117 -0.16644894 0.07691623 -0.21412365
-0.15299451 0.17181392 0.083183885 -0.29662406 0.097981684 -0.0001297183 0.035083577 0.16616596
0.025035916 0.19992754 -0.002743135 0.037506398 0.026712315 0.021612376 0.07504079 -0.39922535
-0.43758488 -0.1581462 -0.0020383284 -0.048439156 -0.050980423 -0.04135539 -0.5642237 0.11020795
0.010067499 0.11645116 -0.0020685357 -0.1984976 0.061414428 0.09182083 -0.13914162 -0.14748983
0.093834125 0.07842407 -0.28461885 0.011489047 -0.25980172 -0.6269633 0.0027097056 -0.047643173
-0.019908112 -0.096117735 0.11865658 -0.1521456 0.13779579 -0.03476034 -0.09745629 0.02670875
-0.0010528789 -0.1480281 -0.051455777 -1.0517498 -1.0693697 0.04868395 0.11148462 -0.32780144
0.09612032 -0.017806832 0.016223133 0.18959604 0.22190507 -0.56387764 -0.10936844 -0.02848505
0.21737951 -0.058079474 0.13853014 -0.8522752 -0.46315306 -0.10010274 -0.7431524 0.016588282

module.conv5.bias f4 [8]
00000000: 7199 923d 352a 7c3b 91d0 0ebf b8c0 8c3c
00000010: 9b2f d3bf 5d8c b23d 231f 08bf b3d1 2fbe
0.07158173 0.0038477306 -0.55787 0.01718174 -1.6498903 0.087181784 -0.5317251 -0.17169838

module.conv6.weight f4 [1, 8, 3, 3]
00000000: 1adc 09bc 98be 153d 6890 163b ecba 21bc
00000010: 95bd 523d b7e5 77bc fda6 ffbc 9da9 e3bb
00000020: 116b 1bbd 1354 983c 201a 1bbb bb27 77bc
00000030: 78c5 f13b 7e87 3b3c 86b3 06bd b529 8f3c
00000040: a7d9 113d 5967 85bc 3635 c9bc 9ce9 51bd
00000050: 45c0 ebbc 9065 2dbc 2a69 19bd 4329 51bd
00000060: e6f3 cbbb 694f 2fbc 5ddf c3bc 14d8 3f3d
00000070: d5b1 3c3d 52cb 843c a762 1f3c d369 a4bc
00000080: bdd1 eebc f356 a0bc d994 bcbc c70f 93bc
00000090: c216 09bd a127 cdbc 7281 bb3a 3254 6fbd
000000a0: 850f 3cbd 96ac 31bb 20d9 87bc 4769 a5bc
000000b0: 8caa a9ba 2143 a23a 3d93 e33c aa7d 2e3d
000000c0: f049 5c3d fd8b f53d fa06 c63d 9dc8 b33c
000000d0: 65ba 6c3d d3f4 3d3c a2b5 803c acdb 743d
000000e0: 731d 373d 21dc 1c3b a20c 7e3d 6489 8e3d
000000f0: f920 13bc 0144 043d d960 6c3d a901 273d
00000100: 8a7c 6b3d 840d 2a3d ca08 373d ad31 703d
00000110: 772a 003d 02d3 893c 97e6 d83c 6931 fa3b
-0.008414293 0.036558717 0.0022974256 -0.009871226 0.05145033 -0.015130452 -0.031207556 -0.0069477097
-0.037943903 0.018594777 -0.0023666695 -0.015085156 0.0073782764 0.011445878 -0.03288605 0.017475942
0.03560796 -0.016284632 -0.024561506 -0.051248178 -0.028778205 -0.010583296 -0.037453808 -0.05106474
-0.0062241433 -0.010700085 -0.023910219 0.046836928 0.04606803 0.016210232 0.00972811 -0.020069992
-0.029152745 -0.01957271 -0.023020195 -0.01795186 -0.03346897 -0.02504331 0.0014305545 -0.058429904
-0.045913238 -0.0027110926 -0.016583025 -0.020191802 -0.0012944504 0.0012379625 0.02778017 0.04260031
0.05378145 0.11989591 0.096692994 0.021946246 0.057794947 0.011594015 0.01571161 0.059779808
0.04470582 0.0023934918 0.062023766 0.06959799 -0.008980029 0.032291416 0.05770955 0.040773068
0.057491817 0.041516796 0.044686116 0.058641125 0.031290498 0.01682425 0.026477141 0.0076352847
