model_state_new_Residual_Block_lastest.pth (torch, 639071 bytes, 57 tensors)

module.fc1.weight f4 [1089, 109]
0	0x3e8f98cd	0.28046265
1	0xbdc3d96b	-0.095629536
2	0xbf1560c6	-0.5835079
3	0xbf415df0	-0.7553396
4	0x3e31c112	0.17358807
5	0x3eabf2e3	0.33583745
6	0xbdea0bfc	-0.11428067
7	0xbd93915c	-0.072054595
8	0x3f34854b	0.7051589
9	0xbfbc5a50	-1.4715061
10	0x3f4a3c95	0.7899869
11	0xbe85c924	-0.2613002
12	0xbe6cc241	-0.23120977
13	0xbf81da17	-1.0144681
14	0x3f374007	0.7158207
15	0x3ed95e20	0.42454624
16	0xbe645a2d	-0.22300024
17	0xbe13bff3	-0.14428692
18	0x3e0a95c4	0.13533694
19	0x3e5652df	0.2093005
20	0x3d4fb3bb	0.050708514
21	0x3f8a0f93	1.0786003
22	0x3e96e3e6	0.29470748
23	0xbd8f7c95	-0.07006184
24	0xbf44032a	-0.7656733
25	0x3f0e0062	0.55469334
26	0xbc25a3c9	-0.01010985
27	0x3ebf4cfe	0.37363428
28	0x3f201b99	0.6254211
29	0x3d661d2b	0.05618016
30	0xbebf6eb5	-0.3738915
31	0x3ef9fbc7	0.48824903
32	0x3c82a6f0	0.015948743
33	0x3f1936fc	0.59849524
34	0xbdcce8f3	-0.10005369
35	0x3ec166d8	0.37773776
36	0xbf0b4ea8	-0.54416895
37	0x3ccd59b3	0.025067186
38	0xbdb32b9a	-0.08748551
39	0xbd88d57a	-0.066813424
40	0x3f75500b	0.9582526
41	0x3f2018a0	0.62537575
42	0xbe8acb9d	-0.2710847
43	0x3eb1c825	0.3472301
44	0xbed7cd2f	-0.4214873
45	0x3ee044c4	0.43802464
46	0x3dd16ac5	0.10225443
47	0x3dd5668f	0.10419952
48	0x3f06abdb	0.5260598
49	0x3e3a3668	0.18184817
50	0x3ee98b7a	0.45614225
51	0x3e699a99	0.2281288
52	0x3d22871f	0.039679643
53	0x3e0ee574	0.13954717
54	0x3e27c3cb	0.16383283
55	0xbe864c43	-0.26230058
56	0xbe512232	-0.204232
57	0x3ec0aab8	0.37630248
58	0xbf37fcf1	-0.7187033
59	0xbf7303f0	-0.94927883
60	0x3f573fbc	0.84081626
61	0x3efb8cc4	0.49130833
62	0xbc84ad50	-0.016195923
63	0xbf6b1ac9	-0.91837746
64	0xbd1b74bd	-0.037953127
65	0x3ed4cdce	0.41563267
66	0xbf211db1	-0.6293593
67	0xbcf0caf5	-0.029393652
68	0xbf1c212d	-0.6098812
69	0xbf4c5465	-0.79816276
70	0xbe6823ff	-0.22669981
71	0x3eb49c04	0.3527528
72	0xbda66280	-0.08124256
73	0xbd3db654	-0.04631646
74	0x3e74391a	0.23849908
75	0x3de67f13	0.11254706
76	0x3e509af8	0.20371616
77	0xbf3c450d	-0.73542863
78	0x3e60ef68	0.21966326
79	0x3e76170f	0.24032234
80	0xbfa00283	-1.2500767
81	0xbf0c1dbe	-0.5473288
82	0x3f4fef5f	0.81224626
83	0xbdef4dd9	-0.1168477
84	0xbf7ebe9f	-0.99509615
85	0x3e5bd806	0.21469125
86	0x3dd7ea44	0.105427295
87	0xbe00d443	-0.12580971
88	0x3ed6f9a2	0.4198733
89	0xbdc9eedc	-0.09860012
90	0x3e565c3f	0.20933627
91	0xbe97ddc4	-0.2966138
92	0x3e05635d	0.13026185
93	0xbec3f25b	-0.3827084
94	0xbf1d5f79	-0.61473805
95	0xbee2b941	-0.44281963
96	0xbef31a0e	-0.47480816
97	0xbe2f2c71	-0.17106797
98	0x3e1b86a9	0.15188088
99	0x3f0233de	0.50860393
100	0x3ea5652a	0.32303745
101	0xbfc9f209	-1.5776988
102	0x3e545d9d	0.20738836
103	0xbe8cb888	-0.27484536
104	0xbe441fde	-0.19152781
105	0x3e4d8e6a	0.20073858
106	0xbedd9c7f	-0.4328346
107	0xbcc4e76e	-0.024036136
108	0xbd143a4b	-0.036188405
109	0x3f5e1409	0.8674932
110	0x3e224995	0.15848382
111	0x3d85cb0e	0.0653287
112	0xbf2d4bfa	-0.67694056
113	0x3f5b0891	0.85559946
114	0xbfbf19ef	-1.4929789
115	0xbcd43b51	-0.02590719
116	0x3e1ad074	0.15118581
117	0xbe4f9793	-0.20272665
118	0x3e36179d	0.17782445
119	0xbdc97955	-0.098375954
120	0xbe8bdec9	-0.2731841
121	0xbcee6ecd	-0.029105568
122	0xbf576b8b	-0.8414847
123	0x3f3c16a7	0.73472065
124	0x3e83adb1	0.25718454
125	0xbf29422f	-0.66116613
126	0x3e8dda14	0.27705443
127	0x3f062e84	0.5241473
128	0x3e8efbb7	0.27926418
129	0x3e7907f4	0.2431944
130	0x3f4e820b	0.8066718
131	0xbf08fead	-0.53513604
132	0xbf33c6d8	-0.70225286
133	0xbfe26be7	-1.7689179
134	0x3f7ba80b	0.9830329
135	0xbe795038	-0.24347007
136	0x3eab32fb	0.33437333
137	0x3e8a5f56	0.2702586
138	0x3e33efee	0.17571995
139	0x3f36d2e8	0.7141557
140	0x3ec298b3	0.38007125
141	0xbf0f72bc	-0.56034446
142	0xbee01b54	-0.4377085
143	0x3e9de49c	0.30838478
144	0xbe9be945	-0.30451408
145	0xbf0d1974	-0.55116963
146	0xbe3f1b78	-0.18662822
147	0xbe93962d	-0.28825513
148	0xbe0ce88f	-0.13760589
149	0x3f6dc711	0.92881876
150	0x3edece3f	0.43516728
151	0xbeba6fdf	-0.36413476
152	0x3e7cdef3	0.24694423
153	0xbf1cfc9f	-0.6132297
154	0x3e17036e	0.14747402
155	0xbeee12eb	-0.46498808
156	0xbda1e117	-0.079042606
157	0x3fab7e28	1.3397875
158	0xbf2466cb	-0.6421935
159	0xbe2c820b	-0.16846482
160	0x3f858160	1.0430107
161	0x3fb3ab2d	1.4036614
162	0xbec65d7f	-0.38743207
163	0xbf3fc759	-0.74913555
164	0xbf522fe4	-0.82104325
165	0x3eb4d3e8	0.35317922
166	0x3d50bb97	0.05096015
167	0xbf345dec	-0.70455813
168	0xbf8f1655	-1.117869
169	0x3f41a63d	0.75644284
170	0xbeb4e7f1	-0.35333207
171	0xbebedf96	-0.37279958
172	0xbeddcf30	-0.43322134
173	0xbf16c95c	-0.58901
174	0x3fb301c3	1.3984913
175	0x3e5d28d1	0.21597601
176	0x3e2b2108	0.16711819
177	0xbf09033d	-0.53520566
178	0xbecf9df0	-0.40550184
179	0xbf17ae51	-0.5925036
180	0x3f95ba70	1.1697521
181	0xbee72517	-0.45145485
182	0xbe8632ce	-0.26210636
183	0x3e3904ab	0.18068187
184	0x3f144ad3	0.5792667
185	0x3f2ee468	0.6831727
186	0xbf223735	-0.6336549
187	0x3ddb1b70	0.10698593
188	0x3f276c1a	0.65399325
189	0xbee1f4c9	-0.4413207
190	0xbf0b60ac	-0.54444385
191	0xbd43a521	-0.0477649
192	0xbf41c53e	-0.7569159
193	0xbf900ab4	-1.1253266
194	0x3e15a580	0.14613914
195	0x3f9430c9	1.1577388
196	0xbe664f4c	-0.22491187
197	0x3e4fb556	0.20284018
198	0xbe7c4b96	-0.24638209
199	0x3e40d08a	0.18829551
200	0x3d99cf18	0.07510203
201	0x3d7f8234	0.06238003
202	0xbe2b82ee	-0.16749164
203	0xbe960ff3	-0.29309043
204	0xbf61abec	-0.88152957
205	0x3eade8a1	0.33966544
206	0x3e88a9d9	0.26692083
207	0x3f5ca371	0.8618689
208	0x3e8b4b04	0.2720567
209	0x3f61c465	0.881903
210	0xbf6434b3	-0.8914291
211	0xbe847f13	-0.258782
212	0xbe9f5f3e	-0.31127352
213	0xbef92864	-0.48663628
214	0x3ea009a9	0.3125737
215	0xbe4df3d1	-0.2011254
216	0xbe8f534d	-0.2799324
217	0xbfaffbe8	-1.3748751
218	0xbe53a971	-0.20670106
219	0xbef80970	-0.484447
220	0xbd3d55e0	-0.046224475
221	0xbe9e8bea	-0.3096612
222	0x3da054ee	0.07828699
223	0x3e5a53f7	0.21321093
224	0x3e8eeb3d	0.27913848
225	0xbdd1512f	-0.10220563
226	0xbf01dc5d	-0.5072687
227	0x3e8977a8	0.26849103
228	0xbefe9085	-0.49719635
229	0x3d2d1798	0.04225883
230	0xbecd956f	-0.4015307
231	0xbe63b4b0	-0.22236896
232	0x3f0f0110	0.55860996
233	0xbe89600a	-0.26831084
234	0x3e80b4ed	0.25138035
235	0xbe20d586	-0.15706453
236	0x3e073789	0.13204779
237	0xbeffcfac	-0.4996313
238	0x3f06bd9f	0.5263309
239	0xbf000180	-0.5000229
240	0x3e997220	0.29969883
241	0xbd40ce9b	-0.047072034
242	0x3d898761	0.067152746
243	0xbd58a933	-0.052895736
244	0xbf35cbf7	-0.7101435
245	0x3df73a9b	0.12071725
246	0xbf07ae55	-0.53000385
247	0x3efce0ac	0.4939016
248	0xbee41119	-0.44544294
249	0x3dc50bff	0.09621429
250	0xbed775a4	-0.4208194
251	0xbd3dea11	-0.0463658
252	0x3d5543c1	0.05206657
253	0xbda78976	-0.081805155
254	0xbe08e4e5	-0.13368566
255	0x3ef8258c	0.48466146

module.fc1.bias f4 [1089]
0	0xbf0845f1	-0.5323172
1	0xbf1efeb7	-0.62107414
2	0x3f0c4772	0.54796517
3	0x3f8035b1	1.0016385
4	0x3fef1a8f	1.867998
5	0xbdc7b19d	-0.09750674
6	0xbf1cf8bc	-0.6131704
7	0x3fb782d1	1.4336797
8	0xbf0732ff	-0.5281219
9	0x3f165195	0.58718234
10	0xbdb8724f	-0.09006178
11	0x3e995074	0.29944193
12	0x3e18dac5	0.14927204
13	0xbce07593	-0.027399814
14	0x3b9fc3f9	0.0048756567
15	0xbe007c91	-0.12547518
16	0xbc0d6b66	-0.008631563
17	0x3f20606d	0.62647134
18	0xbd59d7ea	-0.053184427
19	0xbeb81f1a	-0.3596123
20	0xbe21aa71	-0.15787674
21	0x3b5625d3	0.0032676354
22	0x3dc92905	0.09822277
23	0x3d93e657	0.07221668
24	0xbe3a1c3a	-0.1817483
25	0xbc171fb9	-0.009223872
26	0xbe4e3c14	-0.20140105
27	0xbeaffef8	-0.34374213
28	0x3af23653	0.0018479325
29	0x3d099060	0.033584952
30	0x3dc5e2a4	0.09662369
31	0x3e02c7de	0.12771556
32	0x3e2d1283	0.16901593
33	0xbdc7ba8f	-0.0975238
34	0xbecadfc1	-0.39623836
35	0xbf3100be	-0.6914176
36	0xbf366162	-0.71242344
37	0xbf04a6d0	-0.51817036
38	0x40092edf	2.1434858
39	0xbc366bf4	-0.0111341365
40	0xbf115daa	-0.56783545
41	0xbebb595d	-0.36591616
42	0xbe1a6e66	-0.15081176
43	0x3edac36a	0.42727214
44	0xbe9d4f13	-0.3072439
45	0x3dd01139	0.10159535
46	0x3e998244	0.29982197
47	0xbe9d8e16	-0.30772465
48	0xbea7dc7c	-0.32785404
49	0xbd50c3ec	-0.050968096
50	0xbf2aa3b4	-0.6665604
51	0xbd8a2235	-0.06744806
52	0xbeb85f96	-0.36010426
53	0x3ba0b534	0.0049044136
54	0xbf12167e	-0.5706557
55	0x3bbdf649	0.0057971817
56	0x3d01ac55	0.03165849
57	0x3eb29fb3	0.34887466
58	0x3e1fb4dc	0.15596336
59	0x3e60f451	0.219682
60	0x3d1d9098	0.038467973
61	0xbf3ed594	-0.74544644
62	0xbdc001bb	-0.0937533
63	0xbd948a43	-0.07252934
64	0xbf1f5be6	-0.622496
65	0xbd855e8f	-0.06512176
66	0x3f933cbd	1.1502911
67	0x3d868dd2	0.06570019
68	0x40070eb6	2.110273
69	0xbf2dad78	-0.6784282
70	0x3f0fc4cc	0.56159663
71	0x40043210	2.0655556
72	0x3dfd7fbb	0.12377878
73	0x3ff9dcd4	1.9520516
74	0x3f913483	1.134415
75	0x3d5a37f3	0.053276014
76	0x3df7eeaf	0.12106072
77	0x3db28dba	0.087184384
78	0xbc8a6541	-0.016893985
79	0xbeecd34c	-0.46254957
80	0xbe8c6a25	-0.27424732
81	0xbf73680f	-0.95080656
82	0xbf3f6a35	-0.74771434
83	0xbee03e69	-0.43797615
84	0x3df47a49	0.119373865
85	0xbf1c8f55	-0.6115621
86	0xbe5d1694	-0.21590644
87	0xbf422eef	-0.75852865
88	0x3e062d4a	0.13103214
89	0xbdd58254	-0.10425249
90	0xbef8ac45	-0.4856893
91	0x3e02eb5e	0.12785098
92	0xbe20571f	-0.15658234
93	0x3e2b33c7	0.1671897
94	0xbe1a4270	-0.15064406
95	0x3e956776	0.29180497
96	0x3e201142	0.15631583
97	0xbf0cb4ce	-0.54963386
98	0xbdc212fe	-0.09476279
99	0xbd864241	-0.06555606
100	0x3e0d6066	0.13806304
101	0xbf6a19f1	-0.91445833
102	0x3fdf8ab8	1.7464209
103	0xbdcb445f	-0.0992515
104	0x3f5c4a54	0.86050916
105	0x4002b066	2.0420165
106	0xbeaec8e6	-0.34137648
107	0x3f48fc4e	0.78509986
108	0xbe640826	-0.22268733
109	0x3d064a5d	0.032785762
110	0xbe02a872	-0.1275957
111	0xbee86ee1	-0.45397094
112	0x3f3b7671	0.732276
113	0xbd573e7d	-0.052549828
114	0xbc189b17	-0.00931432
115	0xbd2bf9a2	-0.041986115
116	0xbe89096f	-0.2676501
117	0x3dc83121	0.097749956
118	0x3dc8ebb0	0.09810579
119	0xbc520698	-0.012818955
120	0xbf519221	-0.818636
121	0xbe6dd905	-0.23227318
122	0x3d86b7d9	0.06578035
123	0xbf4642ba	-0.77445567
124	0xbe8a91a1	-0.2706423
125	0xbd825cf2	-0.06365384
126	0xbf40368c	-0.7508323
127	0xbee829ad	-0.45344296
128	0xbf0c9551	-0.5491534
129	0xbeaf01d3	-0.3418108
130	0xbf13382b	-0.5750758
131	0xbf0632fa	-0.52421534
132	0xbf1d882c	-0.61535907
133	0x3f76983f	0.9632606
134	0x3f9c196c	1.2195258
135	0xbf21c686	-0.6319355
136	0x3fa341c7	1.2754449
137	0xbd453494	-0.048145846
138	0x3fb13af7	1.384612
139	0x3e02a7b4	0.12759286
140	0x3f67d7f4	0.90563893
141	0xbf4e4235	-0.80569774
142	0x3e2e3f15	0.17016251
143	0x3d368b5d	0.0445665
144	0x3d07158b	0.03297953
145	0x3d25940f	0.040424403
146	0xbf42306a	-0.75855124
147	0xbef73750	-0.48284388
148	0x3c5f3439	0.013623291
149	0x3ea42159	0.32056692
150	0xb9924edc	-0.00027906045
151	0xbea12a69	-0.3147767
152	0x3ea20dd0	0.31651163
153	0xbf18f82c	-0.5975368
154	0xbd0b98bf	-0.034081217
155	0xbdeb28d8	-0.114824
156	0xbf192c62	-0.5983335
157	0x3d2e50e2	0.042557605
158	0x3dcda12f	0.10040509
159	0x3e80b42d	0.25137463
160	0xbf3b030c	-0.73051524
161	0xbe0cc5f2	-0.13747385
162	0xbe17c26c	-0.1482026
163	0x3eacae50	0.3372674
164	0xbeac81c1	-0.33692744
165	0x3c137cd8	0.009001933
166	0x3f9336e9	1.1501132
167	0xbecb693f	-0.39728734
168	0xbf039534	-0.5139954
169	0x3e22cfbb	0.15899555
170	0xbed9afe8	-0.42517018
171	0xbe4e938d	-0.20173474
172	0x3d6228e1	0.055214766
173	0x3d9d4def	0.0768088
174	0x3e901677	0.2814214
175	0x3e87a66a	0.2649415
176	0xbf2fcc72	-0.68671334
177	0xbe1dad08	-0.15398037
178	0xbe9beb53	-0.30452976
179	0xbefc23ec	-0.49246156
180	0xbef85862	-0.4850493
181	0xbf01825b	-0.5058953
182	0x3e5a702e	0.21331856
183	0xbd8a6427	-0.06757384
184	0xbf83cbc5	-1.029656
185	0xbe562a47	-0.20914565
186	0xbddbcba4	-0.10732201
187	0xbec41b49	-0.38302067
188	0xbfa34c6b	-1.2757696
189	0xbf2a77e6	-0.665892
190	0x3dc0e550	0.09418738
191	0xbe8396ff	-0.25701138
192	0xbf41d186	-0.7571033
193	0xbb76319a	-0.0037566186
194	0xbe82d5de	-0.25553793
195	0xbf1146c8	-0.5674863
196	0xbd2e2768	-0.04251805
197	0xbcb24a70	-0.02176401
198	0x3c4338ba	0.01191538
199	0x3d46cf7d	0.04853772
200	0x3f0aa67e	0.54160297
201	0xbe9be7f1	-0.30450395
202	0x3fab0770	1.3361645
203	0xbf049f50	-0.5180559
204	0xbde58215	-0.11206452
205	0xbee17efa	-0.44042188
206	0xbda23129	-0.07919533
207	0x3e88ab80	0.26693344
208	0x3c7702fa	0.015076393
209	0x3e3ceca3	0.18449645
210	0x3e0e20b3	0.13879661
211	0x3ccf31d1	0.025292309
212	0xbdb0f9e6	-0.08641414
213	0xbefcee5b	-0.494006
214	0xbd82efe4	-0.06393412
215	0x3b92d6a8	0.0044811554
216	0xbf024812	-0.5089122
217	0xba62b2da	-0.0008647867
218	0xbd26e0b1	-0.040741626
219	0x3e92e76f	0.28692195
220	0xbf1be2bb	-0.6089284
221	0x3d559031	0.052139465
222	0xbf2180dd	-0.63087255
223	0xbf3e799f	-0.7440433
224	0x3eb772ce	0.35829777
225	0xbd110620	-0.035406232
226	0xbdc544d3	-0.09632268
227	0xbee9bbbd	-0.45651045
228	0x3e5080d8	0.2036165
229	0x3cc9b85f	0.024624048
230	0x3d497367	0.049182322
231	0xbbada398	-0.005299043
232	0xbf10f656	-0.5662588
233	0x3f9a7241	1.2066118
234	0xbe57860c	-0.21047229
235	0xbe68ee46	-0.22747144
236	0xbdeb8db7	-0.11501639
237	0xbe5598d7	-0.20859085
238	0xbe865afc	-0.2624129
239	0xbe9f55e5	-0.3112022
240	0x3e81b5d0	0.25334024
241	0xbf3dafa4	-0.7409613
242	0xbf471e9c	-0.7778108
243	0xbdcb2a79	-0.099202104
244	0xbeb63a4a	-0.35591346
245	0xbf36376c	-0.7117832
246	0xbdb7b4e2	-0.089700475
247	0xbf02912e	-0.51002777
248	0xbea108b2	-0.31451946
249	0x3e28b62d	0.16475745
250	0xbf26a569	-0.65096146
251	0xbefd264e	-0.49443287
252	0xbf2776e7	-0.65415806
253	0x3e9fd1ac	0.31214654
254	0xbe4b7e04	-0.1987229
255	0xbf331441	-0.6995278

module.conv1.weight f4 [32, 1, 7, 7]
0	0xbe00abea	-0.1256558
1	0x3dd4bcd1	0.10387576
2	0x3e53c4e5	0.20680578
3	0x3d9082fd	0.07056234
4	0xbe7f6d9a	-0.24944153
5	0x3d807848	0.06272942
6	0x3d014bf3	0.03156657
7	0xbd167378	-0.036731213
8	0xbdddbc73	-0.108269595
9	0x3ca300cf	0.019897847
10	0x3e182fbf	0.14861964
11	0xbe58a972	-0.21158388
12	0x3ee1312f	0.43982837
13	0x3c4ddf54	0.012565453
14	0x3d587d56	0.052853905
15	0xbe87ca33	-0.26521453
16	0x3e53d5c8	0.2068702
17	0xbec9b273	-0.39393958
18	0xbf266aa2	-0.6500646
19	0x3dcadc62	0.09905316
20	0x3f0bda00	0.54629517
21	0xbdd5e61c	-0.104442805
22	0xbe38cadf	-0.18046139
23	0x3e99cce3	0.3003913
24	0x3ea1813a	0.31543905
25	0xbdb49397	-0.08817213
26	0x3e7712aa	0.24128214
27	0x3e1668ce	0.14688417
28	0xbdd0b0a8	-0.101899445
29	0x3d9eb02b	0.07748445
30	0xbde589e6	-0.11207943
31	0xbca2fa05	-0.01989461
32	0xbe1a8d23	-0.15092902
33	0xbf27ec25	-0.655947
34	0x3e96fa52	0.29487854
35	0x3e920bee	0.28524727
36	0xbeb3ad80	-0.35093307
37	0x3ecd8a03	0.40144357
38	0xbd7cb1c2	-0.06169296
39	0xbedcc1c5	-0.43116584
40	0xbcd95735	-0.026530841
41	0xbed721d3	-0.42017993
42	0xbd2a3db1	-0.04156274
43	0x3f3b309e	0.7312106
44	0x3da0d231	0.07852591
45	0xbe21c0a5	-0.15796144
46	0xbe96f1d7	-0.29481384
47	0x3ddb827c	0.10718247
48	0xbe5f4ba7	-0.21806203
49	0x3e2f02c5	0.170909
50	0x3ddd1567	0.10795098
51	0x3e64d896	0.22348246
52	0xbe89f7af	-0.2694678
53	0x3e68d9f7	0.22739397
54	0x3d85977d	0.06523035
55	0x3e8d02cb	0.27541193
56	0x3e60c4e9	0.21950115
57	0x3e7c59ad	0.24643584
58	0x3e22add3	0.15886621
59	0x3e906a4c	0.28206098
60	0x3e89e6f4	0.26934016
61	0x3ed7fd97	0.4218566
62	0xbf074eee	-0.5285481
63	0xbe535fed	-0.20642062
64	0xba778798	-0.0009442507
65	0x3e94985e	0.29022497
66	0x3ed5d465	0.41763607
67	0x3d64e5ba	0.055883147
68	0xbdf7c71c	-0.12098524
69	0xbe078775	-0.13235267
70	0x3e30f99e	0.17282721
71	0xbd65e189	-0.05612329
72	0xbe8b7242	-0.2723561
73	0x3d45ada7	0.04826131
74	0xbeb8072b	-0.3594297
75	0xbd59fc8a	-0.053219356
76	0xbe59b048	-0.21258652
77	0xbf19cd27	-0.6007866
78	0xbeb9dd8f	-0.36301848
79	0xbde10b7d	-0.10988519
80	0xbf09cf4d	-0.5383194
81	0xbeeb2c9f	-0.4593248
82	0xbd9df839	-0.0771336
83	0xbda5d0d2	-0.0809647
84	0x3d71af62	0.05900515
85	0x3e3d7c63	0.18504481
86	0x3d8c518a	0.0685149
87	0xbe3732cb	-0.1789047
88	0xbe3df2ac	-0.18549603
89	0xbf1a57ce	-0.6029023
90	0x3e29975b	0.16561644
91	0x3e11fea4	0.14257294
92	0x3c03192f	0.00800161
93	0xbeac055b	-0.33597836
94	0x3e0f368a	0.13985649
95	0xbe850863	-0.2598296
96	0xbda95069	-0.0826729
97	0xbe9bceca	-0.30431205
98	0x3dc8664d	0.09785137
99	0x3d120b27	0.035655167
100	0xbeeb8809	-0.46002224
101	0xbe63ba51	-0.22239043
102	0xbdac9c93	-0.08428302
103	0xbf2e4fac	-0.6809032
104	0xbe551baa	-0.20811334
105	0x3caff594	0.021479405
106	0x3d89b61f	0.0672419
107	0xbe2e944a	-0.17048755
108	0x3e371baf	0.17881654
109	0xbe8301ec	-0.25587404
110	0xbd114f0f	-0.035475787
111	0x3ebe3666	0.37150878
112	0x3bc54949	0.006020699
113	0x3f02980b	0.5101325
114	0x3cccbf30	0.024993509
115	0xbd8b62b7	-0.06805938
116	0x3e8032d3	0.25038776
117	0x3efc80f5	0.49317136
118	0xbe32b126	-0.1745039
119	0x3de671c6	0.11252169
120	0xbe54c8f4	-0.20779783
121	0xbe0b563f	-0.13607119
122	0xbe46a7b1	-0.19399907
123	0x3d730d27	0.059338715
124	0x3e181076	0.1485003
125	0xbe5a5640	-0.21321964
126	0xbf0afca5	-0.54291755
127	0xbdb5517f	-0.08853435
128	0xbd7c4c80	-0.061596394
129	0x3e09c36a	0.13453451
130	0xbc5df2dc	-0.013546672
131	0x3d770ec3	0.060316812
132	0xbe6feb07	-0.234295
133	0x3cd9275b	0.026508024
134	0xbcb24c3e	-0.02176487
135	0xbf25db3c	-0.6478765
136	0xbee7c1dd	-0.45265093
137	0xbde33bc3	-0.11095383
138	0xbe14a31e	-0.1451535
139	0x3eb000d0	0.3437562
140	0x3d8e49e8	0.0694769
141	0x3da94d8f	0.08266746
142	0x3f141275	0.57840663
143	0xbe468a23	-0.19388632
144	0xbf2f6d3b	-0.6852605
145	0x3e41363a	0.18868342
146	0x3d458398	0.0482212
147	0x3e6a78eb	0.22897689
148	0xbd0aedbc	-0.033918127
149	0x3d875ccc	0.066094965
150	0x3d7b7f26	0.061400555
151	0xbd1d56d2	-0.038412876
152	0x3d814ea2	0.06313826
153	0x3efc87c9	0.49322346
154	0x3d84b12e	0.06479107
155	0xbe8fd3a6	-0.28091162
156	0xbd60b6f5	-0.05486198
157	0xbe0c43cc	-0.13697737
158	0x3ebda79f	0.37041947
159	0x3daee6ad	0.08540092
160	0x3ed8bc0b	0.42330965
161	0xbde0d39d	-0.10977862
162	0xbe85c09c	-0.26123512
163	0x3e94bae3	0.29048833
164	0xbeb06f4d	-0.34459916
165	0x3deaec8f	0.11470901
166	0xbe5b321f	-0.21405838
167	0x3cd5c5ce	0.026095297
168	0xbe4234dc	-0.18965477
169	0xbec876f7	-0.39153263
170	0x3e940a38	0.28914046
171	0xbe53de8e	-0.20690367
172	0x3cc6ba1e	0.02425867
173	0xbee121df	-0.43971154
174	0xbec71aaf	-0.38887545
175	0x3d820d1e	0.06350158
176	0x3d77dc65	0.06051292
177	0x3f347c65	0.7050231
178	0xbed699a6	-0.419141
179	0x3e01774c	0.12643164
180	0xbea0bd50	-0.31394434
181	0xbeb5d374	-0.35512888
182	0xbee5af76	-0.4486043
183	0x3cdbfee9	0.02685495
184	0xbe58d232	-0.21173933
185	0x3eb4a634	0.35283053
186	0x3e046193	0.12927847
187	0xbec09847	-0.37616178
188	0xbf45b199	-0.7722412
189	0xbeaad950	-0.3336892
190	0xbd61f9ae	-0.055169754
191	0xbe134144	-0.14380366
192	0xbdc4143d	-0.09574173
193	0xbb6c2e1a	-0.003603822
194	0x3e93dbb2	0.28878552
195	0x3d736e31	0.05943126
196	0xbe23c8e5	-0.15994604
197	0xbe0356ca	-0.12826076
198	0x3e3e331f	0.18574189
199	0x3dbe8298	0.093022525
200	0x3e568c3d	0.20951934
201	0xbdffe58e	-0.12494956
202	0x3d4e863f	0.050420996
203	0x3e4f31ef	0.20233892
204	0xbe56a3a3	-0.2096086
205	0x3da9bc6e	0.08287893
206	0x3dbf33d6	0.09336059
207	0x3e1c1d6d	0.152456
208	0xbeed7eb4	-0.4638573
209	0x3d47978a	0.048728503
210	0x3e895d05	0.2682878
211	0xbe1aa7f1	-0.15103127
212	0x3d50cef9	0.050978635
213	0x3e30aa59	0.17252482
214	0xbe949ba5	-0.29024997
215	0xbd8dfa60	-0.06932521
216	0x3e949b66	0.2902481
217	0xbd87df63	-0.066344045
218	0x3e395afb	0.18101113
219	0xbe26f883	-0.16305737
220	0x3d1d1e87	0.03835919
221	0xbd1e6f10	-0.038680136
222	0xbda3ec16	-0.08004014
223	0xbde25867	-0.11052018
224	0x3e2b0a2e	0.16703102
225	0xbda72c3d	-0.08162735
226	0xbad94475	-0.0016576188
227	0x3d2c337b	0.042041283
228	0x3ea99ae6	0.3312599
229	0x3f031982	0.51210797
230	0x3e54fef4	0.20800382
231	0xbd66920f	-0.056291636
232	0xbd1abb2c	-0.037776157
233	0x3e814d1c	0.25254142
234	0x3cd3541c	0.025796942
235	0x3e252b7e	0.16129872
236	0xbd1d81c3	-0.03845383
237	0x3df71b29	0.12065727
238	0xbd85a1e6	-0.0652502
239	0xbe556503	-0.20839314
240	0x3e34bdc0	0.17650509
241	0xbd2a1bc0	-0.04153037
242	0x3e8fd8a5	0.28094974
243	0x3e2699c9	0.16269602
244	0xbed16254	-0.4089533
245	0x3dedc310	0.11609471
246	0xbb7fd435	-0.0039036397
247	0x3d7af3b1	0.06126756
248	0x3d35b359	0.044360492
249	0x3d8e3f89	0.06945712
250	0xbdcbb5c1	-0.09946776
251	0xbe59fb1e	-0.212872
252	0x3c50fef6	0.0127561
253	0xbc416bf9	-0.011805528
254	0x3cb331c1	0.02187431
255	0x3e93a632	0.28837734

module.conv1.bias f4 [32]
0	0x3df3c34f	0.119024865
1	0x3a84678b	0.0010101659
2	0x3dd6992a	0.104784325
3	0x3e953c5c	0.29147613
4	0xbbc38f1c	-0.0059679877
5	0x3e7da91c	0.24771541
6	0x3dffcc2a	0.12490113
7	0x3d80a2b1	0.06281031
8	0x3d69194f	0.0569089
9	0x3db7aaab	0.08968099
10	0x3cfddde1	0.03098959
11	0x3e94b8c1	0.29047206
12	0x3e039e6e	0.12853405
13	0x3e95cb70	0.29256773
14	0x3e85856a	0.2607835
15	0xbdd7f16e	-0.10544096
16	0x3f096e9a	0.5368439
17	0x3df8b3a6	0.1214364
18	0x3ca19e1d	0.019728715
19	0x3e13173d	0.14364333
20	0xbe642bd5	-0.22282346
21	0x3d8bea3c	0.06831786
22	0x3db0c30b	0.086309515
23	0x3d9f18dd	0.07768414
24	0x3e0a1469	0.13484348
25	0x3f065989	0.5248037
26	0x3dd14d7e	0.102198586
27	0x3dd936ae	0.106061324
28	0x3a315999	0.0006765365
29	0x3e0a928e	0.13532469
30	0xbd229240	-0.039690256
31	0x3eb2e16f	0.34937617

module.resblock1.conv1.weight f4 [32, 32, 3, 3]
0	0xbe8a5904	-0.2702104
1	0xbe276d78	-0.16350353
2	0x3e8b65ed	0.272262
3	0x3f0cc423	0.5498678
4	0xbeee6159	-0.46558645
5	0xbe2c3e6f	-0.16820692
6	0xbb76858c	-0.0037616221
7	0xbebd0b6e	-0.36922783
8	0x3d3e1274	0.046404317
9	0x3f095fd4	0.5366185
10	0x3e86a367	0.2629654
11	0x3e93d7a5	0.2887546
12	0xbdf11a9e	-0.11772655
13	0xbcf0e1f2	-0.029404614
14	0x3e86b78d	0.26311913
15	0xbf3565da	-0.7085854
16	0xbe5d9ea6	-0.21642551
17	0xbea2ca5a	-0.31795007
18	0xbf07aa31	-0.52994066
19	0xbe708a9d	-0.23490377
20	0xbecef722	-0.40422922
21	0x3b11aa65	0.0022226807
22	0x3e9731f4	0.295303
23	0xbe1fa829	-0.15591492
24	0xbf4fb8aa	-0.8114115
25	0x3e95965f	0.29216287
26	0xbe11f7d8	-0.14254701
27	0x3eb0b785	0.34515014
28	0xbe0a2c53	-0.13493471
29	0xbde383fb	-0.11109158
30	0x3e42c485	0.19020279
31	0xbe9b3809	-0.3031619
32	0x3d3a42c4	0.04547383
33	0x3ec5135d	0.38491336
34	0xbfabdd20	-1.3426857
35	0xbf0cb941	-0.54970175
36	0xbdaa7910	-0.08323872
37	0xbe74cfe7	-0.23907433
38	0x3d842db8	0.06454033
39	0x3cce117e	0.025154825
40	0xbef8a779	-0.48565271
41	0xbeb01fdc	-0.34399307
42	0xbd96e4b2	-0.07367839
43	0xbe21a1b4	-0.15784341
44	0xbe94bc15	-0.29049745
45	0x3f08cb0c	0.53434825
46	0x3ebe5ca8	0.37180066
47	0x3c6782be	0.014130292
48	0x3d1d8e11	0.038465563
49	0xbe5f7ae8	-0.21824229
50	0xbe1e18f7	-0.15439211
51	0x3e67de43	0.2264338
52	0x3eb7fd2c	0.35935342
53	0xbea9019f	-0.3300905
54	0x3ecff78a	0.40618545
55	0xbebed5fc	-0.37272632
56	0xbf2b3833	-0.6688263
57	0x3b0abeab	0.0021170776
58	0x3ef21c5b	0.47287259
59	0xbdb55fdd	-0.08856175
60	0x3ef9dfd0	0.48803568
61	0xbf202d33	-0.6256897
62	0x3e95dd72	0.29270512
63	0x3d608cc9	0.054821763
64	0xbf071130	-0.527606
65	0x3e890f0e	0.26769298
66	0x3e07d7b2	0.13265875
67	0x3e170dbd	0.14751334
68	0xbc1232d0	-0.008923247
69	0x3e3ee09c	0.18640369
70	0xbe232b9f	-0.15934609
71	0x3f44f34c	0.7693374
72	0x3e1f6361	0.15565254
73	0x3e016409	0.12635817
74	0x3e966960	0.2937727
75	0xbf7e8f4a	-0.9943739
76	0x3f0e9537	0.55696434
77	0x3d8b0580	0.067881584
78	0x3adbe0ef	0.001677541
79	0xbebfe012	-0.3747564
80	0x3e8ae1ca	0.27125388
81	0xbea80f86	-0.32824343
82	0x3ec2b378	0.3802755
83	0xbe3fa865	-0.18716581
84	0x3f323048	0.6960492
85	0x3dde6ab2	0.10860194
86	0x3dfff7a2	0.12498404
87	0x3e4e1703	0.20125966
88	0xbdd8330a	-0.1055661
89	0xbf54f725	-0.8318961
90	0x3db0ea29	0.086384125
91	0xbd58a60a	-0.052892722
92	0xbf1685b7	-0.5879778
93	0xbef72ad2	-0.48274857
94	0x3d29c9af	0.041452106
95	0xbf4361e9	-0.76321274
96	0x3caeac77	0.021322472
97	0x3e3bfdf8	0.183586
98	0x3e7c81ce	0.24658892
99	0x3ec9908c	0.39368093
100	0xbdfc17b8	-0.123092115
101	0x3cdb0129	0.026733952
102	0xbea70693	-0.32622203
103	0x3ea78139	0.32715777
104	0xbdc4dad9	-0.096120544
105	0x3ee00125	0.43750873
106	0x3f8b120f	1.0864886
107	0xbf0a8935	-0.5411561
108	0x3e5e07fa	0.2168273
109	0xbe2c205d	-0.1680922
110	0x3d55f410	0.05223471
111	0xbef83e36	-0.48484963
112	0xbf34f579	-0.7068706
113	0x3e903b85	0.2817041
114	0xbe1965f1	-0.14980294
115	0xbf198092	-0.5996181
116	0x3e8b163e	0.27165407
117	0x3f33e15d	0.7026575
118	0x3f4c4bb2	0.79803
119	0xbed0a0f4	-0.40747797
120	0xbf3d5346	-0.7395519
121	0x3e9cc713	0.30620632
122	0xbed596ff	-0.41716763
123	0x3eb8b750	0.36077356
124	0xbf1ed109	-0.6203771
125	0x3db0299f	0.086016886
126	0x3eca94bc	0.395666
127	0x3c555402	0.013020517
128	0xbec7bfa4	-0.39013398
129	0x3d9e3be2	0.077262655
130	0xbcae4842	-0.02127469
131	0xbcc28d99	-0.02374916
132	0xbe9dcb88	-0.30819345
133	0x3dddf4f0	0.10837734
134	0xbe041354	-0.12897998
135	0x3d505f0a	0.050871886
136	0xbe6f20e3	-0.23352389
137	0x3de76634	0.112987906
138	0x3e8d4e24	0.2759868
139	0xbe8da64f	-0.27665946
140	0xbecfa9c1	-0.405592
141	0xbed9dead	-0.425527
142	0x3dfea3c2	0.12433578
143	0xbd3e1c59	-0.046413753
144	0xbeedd833	-0.4645401
145	0x3ed47fe0	0.4150381
146	0x3e03b5a5	0.1286226
147	0x3f656d87	0.8962025
148	0x3e76d859	0.24105968
149	0xbee9e935	-0.45685735
150	0x3edab8e0	0.42719173
151	0x3e909566	0.28238982
152	0x3e1daff8	0.15399158
153	0xbf013084	-0.50464654
154	0xbee91b0b	-0.45528445
155	0xbdf1ffb5	-0.1181635
156	0xbf19c56d	-0.6006687
157	0x3ebf52a5	0.3736774
158	0xbd8e19ac	-0.0693849
159	0x3f2730b1	0.6530867
160	0xbefad3d6	-0.48989743
161	0xbe2d4fc6	-0.16924962
162	0xbedfcadb	-0.43709454
163	0x3e861768	0.26189733
164	0xbe4da2cb	-0.20081632
165	0x3f63590a	0.8880774
166	0xbec9b45a	-0.3939541
167	0x3eed6ab5	0.46370474
168	0xbe7ecec9	-0.2488357
169	0x3d6ea5c2	0.058263548
170	0xb8db84db	-0.0001046748
171	0x3f037181	0.5134507
172	0x3dea8b25	0.11452321
173	0x3e98af18	0.29821086
174	0xbe2e6251	-0.17029692
175	0x3d4398f9	0.047753308
176	0x3d91c27f	0.07117175
177	0x3dc0e436	0.09418528
178	0xbe738de4	-0.23784596
179	0x3f1f6ce4	0.6227553
180	0xbe8f24f6	-0.27957886
181	0xbdd7d13f	-0.105379574
182	0x3ecbdb62	0.39815813
183	0x3e7f6c8f	0.24943756
184	0x3cecf990	0.028927594
185	0x3de01816	0.10942094
186	0x3d8033da	0.0625989
187	0xbe29d74d	-0.16586037
188	0xbea01b74	-0.31270945
189	0xbe06c2c8	-0.1316024
190	0x3f85e73d	1.0461193
191	0x3ef8f8fd	0.48627463
192	0xbf467a49	-0.7753034
193	0xbe8e6f09	-0.27819088
194	0x3e785f7b	0.24255173
195	0xbdd1a5c3	-0.10236695
196	0x3cbe654f	0.023241667
197	0xbedb2a12	-0.42805535
198	0x3e6a8129	0.22900833
199	0xbf16a494	-0.58844876
200	0xbdd37c50	-0.10326445
201	0x3effa874	0.49933207
202	0xbed20619	-0.41020277
203	0xbe2db732	-0.16964415
204	0xbf235a23	-0.6380941
205	0x3e0e2e41	0.13884832
206	0x3f078729	0.52940613
207	0xbe267829	-0.16256775
208	0x3e9b13d4	0.30288565
209	0xbf20da01	-0.6283265
210	0xbe22fdf4	-0.15917188
211	0xbe7274e3	-0.23677401
212	0xbde2e085	-0.1107798
213	0xbecb83ca	-0.39748985
214	0xbea0937d	-0.31362525
215	0xbea67047	-0.32507536
216	0xbef07125	-0.46961322
217	0xbe4fb899	-0.20285262
218	0xbd306f44	-0.04307486
219	0xbe8f4a79	-0.27986506
220	0xbd556658	-0.052099556
221	0x3e81ec59	0.2537563
222	0x3ddb3f36	0.10705416
223	0xbe467cd0	-0.1938355
224	0xbe879153	-0.2647806
225	0xbf3db2e0	-0.74101067
226	0x3e127dd3	0.1430581
227	0xbe1d18c8	-0.15341485
228	0x3c83b83a	0.016079057
229	0xbd55f4b8	-0.052235335
230	0x3e646219	0.22303046
231	0xbe584867	-0.2112137
232	0xbd423a32	-0.04741878
233	0x3eb4b096	0.35290974
234	0x3e9ed156	0.31019086
235	0x3ea3bba3	0.31979093
236	0x3e8f2f1c	0.2796563
237	0x3f210067	0.6289124
238	0xbb7ef565	-0.003890359
239	0xbe488a70	-0.1958406
240	0x3eee9a2f	0.46602008
241	0x3e56e832	0.20987013
242	0xbf718162	-0.9433805
243	0x3eb8453e	0.35990328
244	0x3ebba3dd	0.36648455
245	0x3f128dec	0.57247806
246	0xbebab531	-0.36466363
247	0x3df7541c	0.120765895
248	0x3ee16cc2	0.44028288
249	0xbd890df8	-0.066921175
250	0xbef5c0c9	-0.47998646
251	0xbeb578b2	-0.35443646
252	0x3e736939	0.23770608
253	0x3e6b5ed6	0.22985396
254	0x3e8dc587	0.27689764
255	0x3d020b37	0.031748977

module.resblock1.conv1.bias f4 [32]
0	0xbd7488c4	-0.059700742
1	0x3d69f6c4	0.0571201
2	0x3d4265cd	0.047460366
3	0x3c2298d7	0.009924135
4	0x3b9bf999	0.004759979
5	0xbac79184	-0.0015225862
6	0x3cd95946	0.026531827
7	0xbd14ad7b	-0.036298256
8	0xbd5ee0e3	-0.054413687
9	0xbcc171b5	-0.02361379
10	0xbc7ef1fa	-0.015560621
11	0x3c62a3ea	0.0138330255
12	0xbc9b9491	-0.01899174
13	0xbc535216	-0.012897989
14	0x3d4ed515	0.05049618
15	0xbc61d7c1	-0.01378435
16	0x3d45e9b8	0.048318595
17	0x3ce43263	0.027856058
18	0x3bafb03e	0.005361586
19	0x3cef26ad	0.029193247
20	0xbcd5e4cd	-0.026110077
21	0x3c6a8fe8	0.0143165365
22	0x3d2efe81	0.042723183
23	0x3c479e73	0.012183773
24	0x3a9e9118	0.0012097685
25	0x3d03634d	0.032077122
26	0x3c7ff5b9	0.01562255
27	0x3d1e79be	0.03869032
28	0xbcdf9956	-0.027294796
29	0xbc64569d	-0.013936666
30	0xbd007f45	-0.031371374
31	0xbcec5b2e	-0.028852072

module.resblock1.bn1.weight f4 [32]
0	0x3f80da5f	1.0066642
1	0x3f8e58c5	1.112084
2	0x3f6ae078	0.9174876
3	0x3f6b04cb	0.9180419
4	0x3f8d2c08	1.1029062
5	0x3f6e2221	0.93020827
6	0x3f854e6a	1.0414555
7	0x3f841b7d	1.0320889
8	0x3f81bc8f	1.0135669
9	0x3f980de1	1.1879236
10	0x3f91bb84	1.138535
11	0x3f8110cc	1.0083251
12	0x3f915836	1.1355045
13	0x3f91c2fc	1.138763
14	0x3f8b49ef	1.0881938
15	0x3f9b4e20	1.2133217
16	0x3f9a7c4f	1.2069186
17	0x3f879727	1.0593003
18	0x3f95faff	1.1717223
19	0x3f87c7ca	1.0607846
20	0x3f8b14e1	1.0865747
21	0x3f739919	0.95155483
22	0x3f853324	1.0406232
23	0x3f8ef0f2	1.1167281
24	0x3f7e43f2	0.99322426
25	0x3f85c606	1.0451057
26	0x3f9b3409	1.2125255
27	0x3f904d3b	1.1273569
28	0x3f9cb104	1.2241521
29	0x3f8e9f7c	1.1142421
30	0x3f954119	1.1660491
31	0x3f8b51d1	1.0884343

module.resblock1.bn1.bias f4 [32]
0	0xbdc620a6	-0.09674196
1	0xbe48112c	-0.195378
2	0xbe7bbb60	-0.24583197
3	0xbe941252	-0.28920227
4	0xbe90503d	-0.28186217
5	0xbd2629db	-0.04056726
6	0xbe84d0b1	-0.2594047
7	0xbe882b96	-0.26595753
8	0xbebcf192	-0.36903054
9	0xbed4c55b	-0.4155682
10	0xbea6aadd	-0.32552233
11	0xbdfe823d	-0.12427185
12	0xbeab7d86	-0.33494204
13	0xbe897bdc	-0.2685231
14	0xbd8fb648	-0.07017189
15	0xbe70c95d	-0.23514314
16	0xbef9be8a	-0.48778182
17	0xbd9bb2f5	-0.07602493
18	0xbec1c8c2	-0.3784848
19	0xbe9302b8	-0.28713012
20	0xbe770d5b	-0.24126188
21	0xbe8b4420	-0.27200413
22	0xbeee5c4b	-0.4655479
23	0xbe95b121	-0.292367
24	0xbe23041b	-0.15919535
25	0xbe76d6af	-0.24105333
26	0xbea4072d	-0.32036725
27	0xbec0bce4	-0.37644112
28	0xbed3d56c	-0.41373765
29	0xbe0e29e7	-0.13883172
30	0xbeb15989	-0.34638622
31	0xbe818f4d	-0.25304642

module.resblock1.bn1.running_mean f4 [32]
0	0xc0633a60	-3.550438
1	0xc0577b35	-3.366895
2	0xc015c514	-2.3401537
3	0xc020b26a	-2.5108895
4	0xc0b5a390	-5.676216
5	0xc01bfaa7	-2.4371736
6	0xc0898825	-4.297869
7	0xc05871e5	-3.3819516
8	0xc0522b36	-3.2838874
9	0xc083bbca	-4.1166735
10	0xbff574b9	-1.9176246
11	0xc031b38a	-2.7765832
12	0xc09ef366	-4.9672117
13	0xc067e707	-3.6234758
14	0xc0382225	-2.877084
15	0xc0ae49cc	-5.4465084
16	0xc097b2e5	-4.7405877
17	0xc04f08a0	-3.2349014
18	0xc08e2a94	-4.4426975
19	0xc03fa64a	-2.9945245
20	0xc0078886	-2.1177077
21	0xc00316e3	-2.048272
22	0xc0ae97a4	-5.456011
23	0xc08659fd	-4.198485
24	0xc06d2f4b	-3.7060115
25	0xc071450f	-3.76984
26	0xc08c6ff6	-4.388667
27	0xc0489b36	-3.1344733
28	0xc08cc90a	-4.399541
29	0xc0728095	-3.789098
30	0xc08cad85	-4.3961816
31	0xc037d7c7	-2.872545

module.resblock1.bn1.running_var f4 [32]
0	0x42181566	38.020897
1	0x41e5d2e9	28.727983
2	0x41f9bfb9	31.218615
3	0x420a6e30	34.607605
4	0x421c2f9a	39.046486
5	0x41fe76a5	31.807932
6	0x41d623af	26.767424
7	0x4216b48e	37.676323
8	0x420e5af0	35.588806
9	0x41de7239	27.805773
10	0x41f1efe6	30.242138
11	0x4225fbff	41.49609
12	0x421f2daa	39.794594
13	0x41f72e4a	30.897602
14	0x42272e52	41.795235
15	0x4212bcad	36.684254
16	0x41ddeccd	27.740625
17	0x41d69451	26.82242
18	0x41fad00a	31.351582
19	0x41f76bec	30.927696
20	0x42045f31	33.09296
21	0x4200b095	32.172443
22	0x41eefffe	29.874996
23	0x41e5dfb9	28.73424
24	0x41fbaba0	31.458801
25	0x41fc6b0d	31.55227
26	0x42056f99	33.358982
27	0x4210703d	36.109608
28	0x41f13c56	30.15446
29	0x41f99ee2	31.20258
30	0x41e985de	29.190365
31	0x41dc75dd	27.55755

module.resblock1.conv2.weight f4 [32, 32, 3, 3]
0	0xbe24d404	-0.16096503
1	0xbda7f86a	-0.08201678
2	0xbf070651	-0.52744013
3	0x3c8de4d0	0.01732102
4	0xbda1afc0	-0.0789485
5	0x3efbc8a6	0.4917652
6	0x3e630ae0	0.22172117
7	0x3e3074fa	0.17232123
8	0x3e398b89	0.18119635
9	0xbe50070b	-0.20315187
10	0x3ed100bf	0.40820882
11	0xbeea3fc3	-0.4575177
12	0x3ead3136	0.33826607
13	0x3d8f1602	0.069866195
14	0xbc83df5b	-0.016097715
15	0xbed8be11	-0.4233251
16	0xbdbda34f	-0.09259664
17	0xbf1c94c1	-0.6116448
18	0x3e6a3e5a	0.22875348
19	0xbeec6949	-0.46174076
20	0x3e7d4228	0.24732268
21	0x3f1a07de	0.60168254
22	0xbf044f3a	-0.5168339
23	0x3c642059	0.013923728
24	0xbcf3a4b9	-0.029741632
25	0x3e9e97e9	0.30975273
26	0xbd70d41a	-0.058796026
27	0x3ea70e48	0.32628083
28	0x3e9ab8d1	0.3021913
29	0xbf03125b	-0.51199883
30	0x3e78491d	0.2424664
31	0xbece7a62	-0.40327746
32	0x3e402bfd	0.1876678
33	0x3c88cbbc	0.01669871
34	0x3e144d15	0.1448253
35	0xbf4657e1	-0.7747784
36	0x3d3dd696	0.046347223
37	0xbf06ab95	-0.52605563
38	0x3f0b3115	0.5437177
39	0xbee8766b	-0.45402846
40	0xbceebf71	-0.02914402
41	0xbee7ecde	-0.45297903
42	0x3f752653	0.95761603
43	0x3f1e39d3	0.6180698
44	0x3d2b796f	0.041863855
45	0x3dda5bed	0.10662065
46	0x3ee2567d	0.4420661
47	0x3d29fdf3	0.04150195
48	0x3f0987eb	0.5372302
49	0xbdeb5aee	-0.11491953
50	0x3e224f5d	0.15850587
51	0xbed3bea7	-0.41356394
52	0xbe9d7291	-0.3075147
53	0xbeb42657	-0.351855
54	0xbe984d24	-0.29746354
55	0xbe6ed4ba	-0.23323336
56	0x3e2c9a86	0.16855821
57	0x3e9670c0	0.29382896
58	0x3e4c6bad	0.1996295
59	0x3e47f313	0.19526319
60	0x3eaade6c	0.3337282
61	0x3cb4e85f	0.02208346
62	0xbcc39910	-0.023876697
63	0xbe8d7284	-0.2762643
64	0xbf0c109e	-0.54712856
65	0xbeb467a6	-0.35235327
66	0xbccd57ba	-0.025066245
67	0xbe1944ac	-0.14967602
68	0xbd64719b	-0.055772405
69	0xbf521b59	-0.8207298
70	0xbd9ddb3b	-0.077078305
71	0xbd8c5b61	-0.06853367
72	0x3d02aef8	0.031905144
73	0x3e4ab382	0.1979504
74	0xbf564334	-0.83696294
75	0xbe2e02ad	-0.16993208
76	0xbf58da90	-0.847085
77	0xbebdee93	-0.3709608
78	0xbedb2708	-0.42803216
79	0xbe5ebfc0	-0.21752834
80	0xbdde5117	-0.108553104
81	0x3e51c739	0.20486154
82	0xbdb7b2e0	-0.089696646
83	0x3f10f295	0.5662015
84	0x3c0282a9	0.007965722
85	0xbc8f1f9e	-0.017471131
86	0x3dd6d5cb	0.104899965
87	0xbeee76e3	-0.46575078
88	0xbbdd69f4	-0.0067570154
89	0xbdc33adc	-0.09532711
90	0xbe8db9c5	-0.27680793
91	0xbe6381fb	-0.22217552
92	0xbec2e27f	-0.38063428
93	0xbb6f9e9e	-0.003656305
94	0x3e03067a	0.1279544
95	0xbd3dd070	-0.04634136
96	0xbc5fcae8	-0.013659216
97	0xbdd11f8c	-0.10211095
98	0xbea13527	-0.31485865
99	0xbd59afc9	-0.053146157
100	0xbedce49b	-0.43143162
101	0x3dc62c7b	0.09676453
102	0x3e8679ff	0.2626495
103	0x3dc489a4	0.09596565
104	0xbbeebf93	-0.007286021
105	0xbcd8a198	-0.026444241
106	0xbe64c9a3	-0.22342543
107	0xbea973b2	-0.3309608
108	0xbd1dacc1	-0.03849483
109	0x3e2383d7	0.15968262
110	0x3da351f5	0.079746164
111	0xbdc42b0d	-0.09578524
112	0x3edc99b2	0.4308601
113	0x3f12de67	0.5737061
114	0xbecf2ad5	-0.40462366
115	0xbe9475a0	-0.2899599
116	0x3e82ab99	0.25521544
117	0x3e1a838d	0.15089245
118	0x3f3b2318	0.73100424
119	0xbe51b960	-0.20480871
120	0x3f18f15c	0.59743285
121	0x3ebdfffa	0.37109357
122	0x3e4dd874	0.20102102
123	0xbf3a358c	-0.72737956
124	0x3ecd8ce9	0.40146568
125	0xbe3a5b58	-0.18198907
126	0x3e4c28e9	0.19937481
127	0x3f1c5147	0.6106152
128	0x3e8abb6c	0.27096117
129	0xbe2c9346	-0.16853055
130	0xbe264415	-0.16236909
131	0x3e446621	0.19179584
132	0xbe8da425	-0.27664295
133	0xbe598c10	-0.21244836
134	0x3e25bf1e	0.16186187
135	0x3ec9d503	0.39420328
136	0xbdfbc62f	-0.1229366
137	0x3f0aa1d8	0.54153204
138	0xbbc488cc	-0.005997753
139	0xbdd3b598	-0.10337371
140	0xbf217b59	-0.6307884
141	0xbdf8529d	-0.12125132
142	0xbe3d0c94	-0.1846183
143	0x3e27f82b	0.16403262
144	0xbe1b5bea	-0.15171781
145	0x3d277d94	0.040891245
146	0x3f28a7b6	0.65880907
147	0x3ea7d1c6	0.32777232
148	0xbe809573	-0.2511402
149	0xbf0ec936	-0.55775774
150	0xbe2e9373	-0.17048435
151	0x3d840afc	0.064474076
152	0x3f18a318	0.5962386
153	0xbf6d93e4	-0.9280379
154	0xbea0bcb4	-0.3139397
155	0xbc53d9b3	-0.0129303215
156	0x3e783b27	0.24241315
157	0x3d5bfc0e	0.053707175
158	0x3d59892a	0.053109325
159	0xbf053ded	-0.52047616
160	0xbeaa70a8	-0.33289075
161	0x3d4d53bc	0.050128683
162	0x3ea6fa5b	0.3261288
163	0xbec72d79	-0.3890188
164	0x3f34745a	0.7049004
165	0x3ee37568	0.4442551
166	0x3df6f9b5	0.120593466
167	0xbde0321c	-0.109470576
168	0xbdcce6bf	-0.10004949
169	0xbdb0589c	-0.08610651
170	0x3e69d97b	0.22836868
171	0xbcd2ce60	-0.025733173
172	0xbebfa6c7	-0.3743193
173	0xbe4d0a1c	-0.20023388
174	0xbecd222d	-0.40065137
175	0xbf068a4c	-0.52554774
176	0x3e344577	0.17604624
177	0x3c6c7066	0.014431095
178	0xbe832017	-0.2561042
179	0xbeb0aeba	-0.34508306
180	0xbd7f2238	-0.062288493
181	0xbe6fe557	-0.2342733
182	0xbf110c5d	-0.5665949
183	0xbdd27e78	-0.10278028
184	0x3e928db1	0.28623727
185	0x3eb6116d	0.3556017
186	0xbf07556f	-0.52864736
187	0x3d918c45	0.071068324
188	0xbe62accb	-0.22136228
189	0xbe20e08d	-0.1571066
190	0xbe773071	-0.24139573
191	0xbe390923	-0.18069892
192	0xbf23a5e4	-0.63925004
193	0xbf8f190f	-1.1179522
194	0xbe867d8d	-0.26267663
195	0xbd10afeb	-0.03532402
196	0x3ea32d8a	0.3187068
197	0xbf6161c4	-0.88039804
198	0x3eaa6798	0.3328216
199	0x3e73a854	0.23794681
200	0x3efaa506	0.48954028
201	0x3b8dbcd0	0.0043254867
202	0xbec82e3d	-0.39097777
203	0xbef5bf9f	-0.47997758
204	0x3ecc8552	0.39945465
205	0xbe6077a8	-0.21920645
206	0x3d2b8f6d	0.04188483
207	0xbe9f949e	-0.31168073
208	0x3f119726	0.5687126
209	0xbd523488	-0.05131963
210	0xbe07396e	-0.13205501
211	0xbdd73bdd	-0.10509465
212	0x3e0a489c	0.13504261
213	0xbe398625	-0.18117578
214	0xbefc42cd	-0.49269715
215	0x3e716b7b	0.23576157
216	0xbe11fe49	-0.14257158
217	0xbca2cdb5	-0.01987348
218	0x3ef86b66	0.48519439
219	0x3e3b191c	0.18271297
220	0x3ecfaabe	0.40559953
221	0x3f3b7b78	0.73235273
222	0x3ee18f52	0.44054657
223	0xbe8eba8a	-0.27876693
224	0x3e45cfb4	0.19317514
225	0xbdd712ae	-0.1050161
226	0x3ef68298	0.4814651
227	0xbf0a7fa7	-0.5410103
228	0x3e236d27	0.15959607
229	0x3d81cd8b	0.06338032
230	0xbf2a8b12	-0.66618454
231	0xbc8192b7	-0.01581703
232	0x3c97ad70	0.018515319
233	0xbe6acbeb	-0.22929351
234	0x3e9f3e9c	0.31102455
235	0xbf035e12	-0.51315415
236	0xbe13541c	-0.14387554
237	0x3ea4e889	0.3220866
238	0xbe62751e	-0.22114989
239	0xbaf90b6f	-0.00190006
240	0xbe153ecd	-0.14574738
241	0xbe822a4e	-0.254229
242	0x3e9126aa	0.2834981
243	0x3ec1ce74	0.37852824
244	0x3bb6de50	0.005580701
245	0x3ed38c05	0.41317764
246	0xbf042006	-0.51611364
247	0xbd49437f	-0.049136635
248	0xbf0144f6	-0.5049585
249	0xbe33e359	-0.17567195
250	0xbf25a65e	-0.6470698
251	0xbe90f740	-0.28313637
252	0xbd7113bb	-0.058856707
253	0x3ea23af0	0.3168559
254	0xbe7b5172	-0.24542788
255	0x3ed754be	0.4205684

module.resblock1.conv2.bias f4 [32]
0	0x3d65603b	0.055999976
1	0xbd5b9f10	-0.05361849
2	0xbd560121	-0.05224717
3	0x3d151484	0.03639652
4	0x3b36cdf3	0.0027893751
5	0xbd49bfde	-0.049255244
6	0x3cc3de82	0.02390981
7	0xbcc7852d	-0.024355495
8	0x3d645267	0.055742647
9	0x3d4aeb79	0.04954097
10	0xbd1a7520	-0.037709355
11	0xbcd942cd	-0.02652111
12	0xbc16ad0c	-0.009196531
13	0xbcf6688f	-0.030079154
14	0x3d2885ad	0.04114311
15	0x3b859d06	0.0040775565
16	0xbd39f941	-0.045403723
17	0x3d3bf807	0.045890834
18	0xbc0b3aec	-0.008497935
19	0xbcabe8d4	-0.020985045
20	0xbc7627ba	-0.01502412
21	0xbc5f63f5	-0.013634671
22	0xbc808359	-0.015687631
23	0xbd08317c	-0.033250317
24	0xbcf074fb	-0.029352656
25	0xbbc0cfce	-0.0058841472
26	0xbd0c16b6	-0.034201346
27	0xbd61f05b	-0.05516086
28	0x3d6c4a2c	0.057687923
29	0xbcb2ddab	-0.021834215
30	0x3d1ececc	0.038771436
31	0x3d3a8f32	0.045546718

module.resblock1.bn2.weight f4 [32]
0	0x3f694ce1	0.9113293
1	0x3fbaa5c4	1.4581838
2	0x3fa44762	1.2834284
3	0x3fc27c45	1.5194174
4	0x3f532135	0.82472545
5	0x3f5b109c	0.8557222
6	0x3f814fb8	1.0102453
7	0x3f4d3e81	0.801735
8	0x3f5d5c5e	0.86469066
9	0x3f2b42a5	0.66898566
10	0x3f94583d	1.1589428
11	0x3f8d2831	1.102789
12	0x3fa11a51	1.2586156
13	0x3f8c276b	1.094953
14	0x3f8c1ae5	1.0945708
15	0x3f243c2b	0.6415431
16	0x3fa42ed8	1.2826796
17	0x3f9706d1	1.1798955
18	0x3f659364	0.89678025
19	0x3f9d21fc	1.2275996
20	0x3ed198e9	0.40936974
21	0x3f8cfe8b	1.101518
22	0x3f8e82d0	1.1133671
23	0x3f36fac6	0.714764
24	0x3f9ea6a5	1.2394606
25	0x3f94af0b	1.1615919
26	0x3fa1b6ed	1.263395
27	0x3f82bee0	1.02145
28	0x3f53bcd1	0.82709986
29	0x3f988eaf	1.1918544
30	0x3f6d911c	0.92799544
31	0x3fa863d5	1.3155466

module.resblock1.bn2.bias f4 [32]
0	0xbf0a80c6	-0.5410274
1	0xbf2ed807	-0.6829838
2	0xbf15d9f2	-0.58535683
3	0xbf564b51	-0.83708674
4	0xbe4ae1f0	-0.19812751
5	0xbee9503a	-0.4556902
6	0xbebac93b	-0.36481652
7	0xbebc7c79	-0.36813715
8	0xbe33a74b	-0.17544286
9	0xbe61ca3e	-0.22049806
10	0xbf02813d	-0.5097845
11	0xbef0bb00	-0.4701767
12	0xbee9a8d3	-0.45636615
13	0xbf10d658	-0.5657706
14	0xbed61989	-0.41816357
15	0xbe6007e3	-0.21878009
16	0xbf206d01	-0.62666327
17	0xbf03784b	-0.5135543
18	0xbe94238c	-0.2893337
19	0xbf19705b	-0.59937066
20	0xbe4e24e7	-0.20131265
21	0xbec6a27f	-0.3879585
22	0xbf182223	-0.5942709
23	0xbead9d92	-0.3390928
24	0xbf38559b	-0.72005624
25	0xbf15a5d4	-0.5845616
26	0xbf471467	-0.77765507
27	0xbee9eaf5	-0.4568707
28	0xbe336b53	-0.1752141
29	0xbf1a56d7	-0.6028876
30	0xbe3a8f87	-0.18218814
31	0xbf42ed73	-0.7614357

module.resblock1.bn2.running_mean f4 [32]
0	0xc045afa6	-3.0888457
1	0xc00c9a2b	-2.1969097
2	0xc00b96a9	-2.1810706
3	0xc0042fc9	-2.0654166
4	0x406f2f75	3.7372715
5	0xc0362111	-2.8457682
6	0xbecb0972	-0.39655644
7	0xc002419c	-2.0352545
8	0x3fce2b1d	1.6106907
9	0x3ea897cc	0.32928312
10	0xc0334634	-2.8011599
11	0xbfb302be	-1.3985212
12	0xc0438461	-3.0549548
13	0xc042bff0	-3.042965
14	0xc08a1a0d	-4.31568
15	0xc0f01cd4	-7.503519
16	0xbfe12034	-1.7587953
17	0xc026eb78	-2.6081219
18	0x3f5eddc0	0.87057114
19	0xc06d1bc6	-3.7048202
20	0xc053d545	-3.309892
21	0xbf04266c	-0.5162113
22	0xbfceaa8f	-1.61458
23	0xc01354d9	-2.3020537
24	0xc0168525	-2.3518765
25	0xbef7f57e	-0.48429483
26	0xbfff35cf	-1.9938296
27	0xbfdcac95	-1.7240168
28	0x3ff75651	1.9323217
29	0xc068f8a6	-3.6401763
30	0xbf9dca84	-1.2327428
31	0xc05aea19	-3.4205382

module.resblock1.bn2.running_var f4 [32]
0	0x40fb6fd1	7.8573995
1	0x411fe686	9.99378
2	0x412e8d42	10.909487
3	0x4114f1fa	9.309076
4	0x41181af6	9.506582
5	0x40f43cd6	7.6324263
6	0x411f5b56	9.959799
7	0x412ede59	10.929284
8	0x40f63360	7.6937714
9	0x4136f3f9	11.434564
10	0x411f2e1c	9.948757
11	0x4101efdc	8.121059
12	0x4156db43	13.428531
13	0x410dccea	8.862528
14	0x4100b6b5	8.044606
15	0x4175cc67	15.362403
16	0x41035918	8.209251
17	0x4131ff12	11.124773
18	0x41305c2e	11.022505
19	0x411acec1	9.675477
20	0x4180b31a	16.087452
21	0x4157586b	13.459086
22	0x410b346b	8.700297
23	0x4101195d	8.068692
24	0x4169785a	14.591883
25	0x41193b69	9.577004
26	0x41056bd1	8.338822
27	0x411c4088	9.765755
28	0x413c5045	11.769597
29	0x40fca803	7.8955092
30	0x41135075	9.207143
31	0x412cd8e7	10.802955

module.resblock2.conv1.weight f4 [16, 32, 3, 3]
0	0xbe44c580	-0.19215965
1	0x3e9d518d	0.3072628
2	0xbedb9ca1	-0.42892936
3	0x3db3f74b	0.08787402
4	0x3ec93b0a	0.39302856
5	0x3e99574f	0.29949424
6	0x3ee99ddd	0.45628253
7	0x3e3d8be5	0.18510397
8	0x3e974a3d	0.29548827
9	0x3e6004a2	0.21876767
10	0x3eb8e6e6	0.36113662
11	0xbd5dd5c4	-0.05415894
12	0xbdd35692	-0.10319246
13	0xbf42b625	-0.7605918
14	0xbd95cd77	-0.0731458
15	0x3e7b8353	0.24561815
16	0x3e03111c	0.12799495
17	0x3e4e825d	0.20166917
18	0x3e433e53	0.19066744
19	0x3e4b5a13	0.1985858
20	0x3eaee333	0.34157714
21	0x3ebee2f4	0.37282526
22	0x3f34e4d2	0.7066165
23	0x3b8cd9f5	0.0042984434
24	0x3e6b2ef5	0.22967131
25	0x3e66f52d	0.22554465
26	0x3eaf66bd	0.3425807
27	0xbebdcc2b	-0.3706983
28	0x3ec053c1	0.375639
29	0xbe8f06c5	-0.27934852
30	0x3e580044	0.21093851
31	0xbf1516b9	-0.582378
32	0xbec1a742	-0.3782292
33	0x3e517df4	0.20458204
34	0x3e864780	0.26226425
35	0xbe42e616	-0.19033083
36	0xbe65186d	-0.22372599
37	0x3cb18826	0.021671366
38	0x3e217f8d	0.15771313
39	0xbee3d320	-0.44497013
40	0xbe973cdb	-0.29538617
41	0x3e857695	0.26067033
42	0x3e03efab	0.12884395
43	0xbd168d25	-0.0367557
44	0x3d8d65b9	0.06904168
45	0x3d8524fb	0.06501194
46	0x3ea37be3	0.31930456
47	0xbe441f53	-0.19152574
48	0x3d32842b	0.043583076
49	0x3e0c2530	0.13686061
50	0x3ccf3306	0.025292885
51	0x3e661242	0.22467902
52	0x3e9804de	0.29691213
53	0x3c29452b	0.010331432
54	0xbf1c9119	-0.611589
55	0xbca20c31	-0.019781204
56	0x3e1dc4d8	0.15407121
57	0x3de61d48	0.11236054
58	0xbdfcdc97	-0.12346762
59	0x3dad8e31	0.084743865
60	0xbe61944c	-0.22029227
61	0x3ed43d9b	0.4145325
62	0x3e7f5fa7	0.24938832
63	0x3f019251	0.50613886
64	0xbf065522	-0.5247365
65	0x3e3b4e31	0.18291546
66	0x3e9f2aec	0.31087434
67	0x3d4eb4ca	0.050465383
68	0x3f36c8ff	0.71400446
69	0xbed4f7a7	-0.41595194
70	0x3e8c54e3	0.27408513
71	0x3f045f5a	0.51707995
72	0xbe7dccf2	-0.24785212
73	0xbd2ec4be	-0.042668097
74	0x3e5e618f	0.21716903
75	0x3dd519d8	0.1040532
76	0xbeab7ef1	-0.33495286
77	0x3c8ba1c2	0.017044906
78	0xbeb80117	-0.3593833
79	0xbec4beb5	-0.38426748
80	0x3f337f43	0.7011606
81	0x3d8d0c19	0.06887073
82	0x3eb88e3e	0.36046022
83	0x3d8dadcd	0.069179155
84	0xbecd31ac	-0.4007696
85	0xbe8191e3	-0.25306615
86	0xbd30f025	-0.04319777
87	0xbe4a1ec8	-0.19738305
88	0xbe78770b	-0.24264161
89	0xbdac9716	-0.08427255
90	0xbf0a1a8d	-0.53946763
91	0x3e42d169	0.19025196
92	0x3e8c2b3e	0.2737674
93	0xbe0e196a	-0.13876882
94	0x3eaa6151	0.33277372
95	0x3f06a1fe	0.5259093
96	0x3e855f78	0.260494
97	0x3ecb0a46	0.39656276
98	0x3f10851e	0.5645312
99	0x3b2acbfe	0.002606153
100	0x3ef358f8	0.47528815
101	0xbe3a8426	-0.18214473
102	0xbf1cc73a	-0.61241496
103	0x3e9683d2	0.29397446
104	0xbf175bc9	-0.5912443
105	0x3ed47070	0.41492033
106	0xbe93fea9	-0.28905228
107	0xbfa49fe4	-1.2861295
108	0x3ef30522	0.47464854
109	0xbd9297c5	-0.07157854
110	0x3f2d42a1	0.6767979
111	0x3f7a7572	0.9783546
112	0x3ec001a2	0.37501246
113	0x3e497938	0.19675148
114	0x3eb05149	0.34437016
115	0x3db08a11	0.08620084
116	0x3e7de2ee	0.24793598
117	0xbe922518	-0.28543925
118	0xbc90f6f8	-0.017695889
119	0xbe1aa456	-0.15101752
120	0xbed275ff	-0.4110565
121	0x3cd82777	0.026386006
122	0x3f0c27fc	0.5474851
123	0x3e6c2f39	0.23064889
124	0xbd51f3d4	-0.051257923
125	0x3f009635	0.502292
126	0xbf18fec5	-0.5976375
127	0xbf669e4b	-0.90085286
128	0x3cbeee58	0.02330701
129	0x3eecb812	0.46234185
130	0x3e7d36ed	0.24727984
131	0xbe0fc062	-0.14038232
132	0xbea896be	-0.32927507
133	0xbed4dac8	-0.41573167
134	0x3e8cb2ae	0.27480072
135	0x3e838ce5	0.25693431
136	0xbe3a1c71	-0.18174912
137	0xbcfe4480	-0.031038523
138	0xbe34128d	-0.17585202
139	0xbcf53d49	-0.02993645
140	0x3ee73190	0.45155
141	0xbd378393	-0.044803213
142	0xbeac8b1e	-0.33699888
143	0x3e0d63d7	0.13807617
144	0xbe8e254f	-0.2776284
145	0x3efcdd1c	0.49387443
146	0xbedd371b	-0.43206105
147	0xbe269fde	-0.16271922
148	0x3f79b3a4	0.97539735
149	0xbf8fcb39	-1.1233894
150	0x3f2ed094	0.68287015
151	0x3ee3a6bc	0.44463146
152	0xbe8ff3f4	-0.2811581
153	0xbe265019	-0.16241492
154	0x3f1a808a	0.60352385
155	0xbcc6a334	-0.024247743
156	0x3ee94fa5	0.45568576
157	0x3ed345e6	0.41264266
158	0x3f24c072	0.6435615
159	0x3efe5180	0.49671555
160	0x3f91ccbc	1.1390605
161	0xbe804e85	-0.25059906
162	0x3e54b225	0.20771082
163	0xbdd03a41	-0.10167361
164	0xbd3c8b1f	-0.046031114
165	0xbce10b2b	-0.027471146
166	0x3dcec1d9	0.10095567
167	0x3ebd63c1	0.3699017
168	0x3c8d4c97	0.017248435
169	0xbdfd5032	-0.12368812
170	0x3dc05baf	0.09392487
171	0xbea6fb5a	-0.3261364
172	0x3ea6be93	0.32567272
173	0xbe9fe26f	-0.31227443
174	0xbda43a2b	-0.08018907
175	0x3ec4a11a	0.3840416
176	0x3e639370	0.22224212
177	0x3ef30307	0.47463247
178	0xbeb4dffb	-0.35327134
179	0xbed3deec	-0.41381013
180	0xbe5ead23	-0.21745734
181	0xbd4df702	-0.050284393
182	0xbe9d422e	-0.30714554
183	0xbe67d693	-0.22640447
184	0xbcb8ae5b	-0.022544077
185	0xbd104e50	-0.035230935
186	0xbe0c0d66	-0.13676986
187	0xbd8f7074	-0.070038706
188	0x3dcb5bc9	0.09929616
189	0x3c299e6c	0.010352712
190	0x3eaa1b73	0.33224067
191	0x3e54b876	0.20773491
192	0x3ec25a04	0.379593
193	0x3e87be76	0.26512498
194	0x3f001623	0.5003378
195	0x3d5a12f7	0.053240743
196	0x3ed5c858	0.41754413
197	0x3ea1790b	0.3153766
198	0x3ea9961f	0.33122346
199	0xbebc4fbf	-0.3677959
200	0x3dfe7849	0.12425286
201	0x3e5baf06	0.21453485
202	0xbf197fc6	-0.5996059
203	0x3ebd0e83	0.36925134
204	0xbe88a32f	-0.26687
205	0x3ec6e580	0.3884697
206	0xbea00eaf	-0.31261203
207	0x3ef7e85f	0.48419473
208	0xbe9780ec	-0.29590547
209	0xbed72808	-0.4202273
210	0xbec772d4	-0.38954794
211	0xbdd85cd3	-0.1056458
212	0x3e8df10a	0.2772296
213	0xbf1ef740	-0.62096024
214	0x3e4a11c8	0.19733346
215	0xbe1653f9	-0.1468047
216	0x3f30faa1	0.6913243
217	0x3f4914be	0.78547275
218	0xbdbec3a9	-0.09314663
219	0x3e60129a	0.21882096
220	0x3d7c941d	0.06166469
221	0x3ef21a92	0.47285897
222	0x3e523796	0.20529017
223	0xbd9d521c	-0.07681677
224	0x3c9815fc	0.01856517
225	0xbe53748f	-0.20649932
226	0xbec5063f	-0.38481328
227	0x3f0a364e	0.5398911
228	0x3d913c82	0.07091619
229	0xbe2d7145	-0.1693774
230	0x3f2f67a3	0.6851751
231	0xbf22f608	-0.63656664
232	0xbe5552d4	-0.20832378
233	0xbf06b1ac	-0.52614856
234	0x3d0bd776	0.034141026
235	0x3dc12626	0.09431104
236	0xbc3fe36f	-0.011711939
237	0x3ed8b21f	0.42323396
238	0x3e43c883	0.19119458
239	0x3e459195	0.19293816
240	0xbeeb0197	-0.4589965
241	0x3f267a78	0.6503062
242	0x3e93872d	0.28814068
243	0x3f51bfdf	0.819334
244	0xbd27abdb	-0.04093538
245	0x3eb7a3f9	0.3586729
246	0x3dfe7aed	0.1242579
247	0x3cdc73c5	0.026910672
248	0xbc885996	-0.01664428
249	0x3ece3fc2	0.40283018
250	0x3ee59c62	0.44845873
251	0xbf219c32	-0.6312896
252	0x3e412847	0.18863021
253	0x3eae80b8	0.3408258
254	0xbf1a2296	-0.60209024
255	0x3e287f45	0.164548

module.resblock2.conv1.bias f4 [16]
0	0xbc5a61b7	-0.013328961
1	0x3ccf159b	0.025278857
2	0xbd642fac	-0.055709526
3	0x3cf7e202	0.030259136
4	0xbaf24b78	-0.0018485626
5	0xbc46afb7	-0.012126855
6	0x3d6d12b9	0.057879183
7	0xbcce5946	-0.025189053
8	0xbca1bcd1	-0.019743355
9	0x3d658320	0.056033254
10	0xbd3a13d6	-0.045429073
11	0x3d5f815e	0.054566734
12	0xbbdc69b4	-0.006726468
13	0xbcbc46c6	-0.022982966
14	0xbcb0792b	-0.021542152
15	0xbd58090e	-0.05274301

module.resblock2.bn1.weight f4 [16]
0	0x3f8c7406	1.0972908
1	0x3f7af72b	0.980334
2	0x3f89a554	1.0753579
3	0x3f96c6e2	1.1779444
4	0x3f9b78e8	1.2146273
5	0x3f7666a3	0.9625036
6	0x3f899695	1.0749079
7	0x3f81926a	1.0122807
8	0x3fb1b10f	1.3882159
9	0x3f88317f	1.0640105
10	0x3fa419c0	1.2820358
11	0x3f8491e1	1.0357019
12	0x3f7746ea	0.9659258
13	0x3f93af13	1.1537803
14	0x3fa0b294	1.2554498
15	0x3f8f236e	1.1182687

module.resblock2.bn1.bias f4 [16]
0	0xbeb25423	-0.34829816
1	0xbde51dde	-0.11187337
2	0xbcf05559	-0.029337572
3	0xbebdbdd1	-0.3705888
4	0xbef4e8a4	-0.4783374
5	0xbe0b1641	-0.13582708
6	0xbe82e353	-0.2556406
7	0xbe04d9ed	-0.12973757
8	0xbee463a9	-0.44607285
9	0xbeabfed3	-0.33592853
10	0xbee70f9c	-0.45129097
11	0xbead4db0	-0.33848333
12	0xbe472962	-0.1944938
13	0xbed2832e	-0.41115707
14	0xbd3c7394	-0.04600866
15	0xbd4b52b6	-0.049639426
