model_state_latest_200_epoch_10_compression_rate.pth (torch, 559419 bytes, 13 tensors)

module.fc1.weight f4 [1089, 109]
000000 7f 0d 2f 3e 0b 07 b1 be 27 7c 1b bf f5 e7 c3 be
       0.17094992 -0.34575686 -0.60736316 -0.38262907
000010 39 b6 76 bc 78 c0 95 3e ee 90 99 be 33 ab d9 3d
       -0.015058094 0.29248405 -0.29993385 0.10628357
000020 eb bc a0 3d df 94 53 bf e7 62 0f 3f af ea 95 bd
       0.07848533 -0.82649034 0.5601029 -0.07320153
000030 ab 8e 64 bd 27 4f fc be 49 ef 0b 3f 04 42 6b 3e
       -0.05580012 -0.49279138 0.54661995 0.22974402
000040 e1 bd ef bd 20 23 69 be 50 51 73 3e 81 1f 0e 3f
       -0.117061384 -0.22767305 0.23761487 0.5551682
000050 fb e0 1f 3d 47 9e 0c 3f 17 bf 6a 3e 17 09 6b be
       0.039032917 0.5492901 0.22924457 -0.22952686
000060 06 2d 2f bf 58 21 bf 3e c5 21 d3 3d c4 41 2b 3e
       -0.68428075 0.37330127 0.103091754 0.16724306
000070 9b 5b 42 3e 3c 00 ab 3d c8 9b bc bd 1d 0d cc 3e
       0.18980257 0.08349654 -0.092094004 0.39853755
000080 71 83 4f 3e e2 7c 9d 3e 6d 7b 61 bd 2c df 59 3e
       0.20264985 0.3075934 -0.05504935 0.2127654
000090 79 85 10 bf 91 e8 11 be 26 55 1f bb 6b 4a d2 bc
       -0.56453663 -0.14248873 -0.0024312227 -0.02567025
0000a0 95 00 16 3f 42 61 d2 3e da cf 99 be 8f 5d 25 3e
       0.5859464 0.41089827 -0.3004139 0.16148971
0000b0 3a 1c ee be cf 17 3b 3d 67 ed 13 3e 87 94 72 3e
       -0.4650591 0.045677003 0.1444603 0.23689471
0000c0 0e 6a c8 3e 19 00 e5 3d 8c cd 4f 3e 9c 00 ea bd
       0.39143413 0.11181659 0.20293254 -0.114258975
0000d0 cd bd 02 3f b6 ed b3 3d c3 42 56 bc 20 9c 8a 3c
       0.51070863 0.08785574 -0.013077441 0.01692015
0000e0 2f cf 0d be 0d fc 75 3e f1 30 a5 be 5d 82 38 bf
       -0.13848566 0.24021931 -0.32263902 -0.7207392
0000f0 d6 73 19 3f 6e 22 2e 3f 59 a0 72 be ff 9e 37 bf
       0.59942377 0.68021286 -0.2369398 -0.71726984
000100 16 9a 2e 3e fb c2 b2 3e 8a cf a5 be b0 e8 80 3d
       0.17050967 0.34914383 -0.32384902 0.062943816
000110 60 f2 0b be 51 dd 4a be 02 d8 3c be 8c f9 6e 3d
       -0.13666677 -0.19810988 -0.18441775 0.058343455
000120 6e 52 5e be db 00 cf bd e6 c3 3d 3d 28 07 59 be
       -0.21711132 -0.10107585 0.0463294 -0.21194136
000130 f5 d3 14 3e be a1 8e be f6 ae 82 bd b4 ac af 3e
       0.1453398 -0.27857774 -0.063810274 0.3431145
000140 ab ed 26 bf e0 5d 22 bf 3a a6 ab 3e 4c 22 8a 3e
       -0.652064 -0.6342449 0.33525258 0.2697929
000150 ca ab e1 be 74 e8 11 3f 91 84 4d 3e 90 16 74 3d
       -0.44076377 0.5699532 0.20070101 0.05959183
000160 52 1e 2e be 78 a8 ef 3d ad 16 6e 3e 76 34 79 bd
       -0.17003754 0.11702055 0.23250838 -0.060841046
000170 68 65 63 bd 22 42 e4 be 3e 33 1d be 23 12 ad bd
       -0.05551663 -0.44581705 -0.15351579 -0.08450725
000180 3c 1a 97 3e 44 be bb bd 1a 16 21 bd 22 f2 4b 3e
       0.29512203 -0.0916715 -0.03932772 0.19916585
000190 0d 97 04 3e 93 19 80 bf 5d 06 90 3e 03 68 80 be
       0.12948246 -1.0007805 0.28129855 -0.25079355
0001a0 c5 da 6a be ea b4 ce 3e 25 c7 24 be 9a e0 4a 3e
       -0.22935016 0.403724 -0.16091593 0.19812241
0001b0 ff 43 7f 3d aa be 9f 3e 46 b8 a8 3d 1f 04 4e be
       0.062320706 0.31200153 0.08238272 -0.2011876
0001c0 2b b1 78 be 1a ad a9 3e 84 46 3a be e4 65 68 bd
       -0.24286334 0.3313988 -0.18190962 -0.056737795
0001d0 e8 51 41 3e 47 d5 55 3e 2e ca f8 3c 49 6c d4 3e
       0.18878901 0.2088214 0.030369844 0.41488865
0001e0 4c a8 55 3d 58 c9 82 3e 49 82 03 bf 1b fb 5b 3e
       0.052162454 0.25544238 -0.51370674 0.21482508
0001f0 0b f7 50 3d 91 8b b8 3d b9 a0 57 3d cf 83 65 3e
       0.05101685 0.09010995 0.05264351 0.22413562
000200 9a 87 c0 3e 85 9c 00 3f 97 fa a5 3e 63 f0 fa 3c
       0.37603456 0.5023883 0.32417747 0.030632203
000210 66 7c 3e bd b0 b5 3b bf fe bb 35 3e 0b 02 4e bd
       -0.046505354 -0.7332411 0.17747495 -0.050294917
000220 52 3a 92 3e b2 bb 9b 3d 23 49 88 3e ff 79 92 3e
       0.2856012 0.076041594 0.266183 0.286087
000230 b5 e9 21 3e be 5c 00 3f d1 41 9c 3e 2b 4b b9 bd
       0.15811808 0.50141513 0.30518964 -0.0904754
000240 e7 fc 56 3e 60 57 8b be 3b 6b 23 3e f5 97 50 3e
       0.20994912 -0.272151 0.15958874 0.20370467
000250 fa 8c 8b bd 9e 1a 59 3b b0 53 f9 3e b4 8d 2f be
       -0.068139985 0.0033127437 0.4869666 -0.17143899
000260 57 91 f5 3d 4b a8 8c bd 59 bd 42 3e c9 77 9a 3e
       0.11990612 -0.06868037 0.19017543 0.30169514
000270 22 bd 23 3e 86 92 84 3e 1e 9b c9 be 17 54 1f bd
       0.15990117 0.2589304 -0.39376158 -0.038898554
000280 b9 8b af 3e c3 a5 b8 3e 89 d8 16 bf 86 72 ac bd
       0.34286287 0.36063966 -0.58924156 -0.08420281
000290 de e9 26 3e 5b 97 cb b9 87 06 d8 3c 02 33 8d 3c
       0.16300151 -0.00038831946 0.0263703 0.017236236
0002a0 d4 03 25 bd 8b 24 68 3d 23 c6 18 3e 38 02 6e bd
       -0.040286854 0.056675475 0.14919333 -0.058107585
0002b0 a0 85 b1 be 76 99 41 be 33 f7 ff 3e f9 0e c4 be
       -0.3467226 -0.18906197 0.49993286 -0.38292673
0002c0 8e ba 85 3e 2a 95 39 be 3d 06 1f be f9 1d df be
       0.26118892 -0.18123308 -0.15529723 -0.43577555
0002d0 77 f6 85 3e ab 7d 02 3b aa fc 5e be de c7 34 3d
       0.261646 0.001991133 -0.21776071 0.04413592
0002e0 56 fc d4 3e 8e 5c ba 3d 52 af 12 be a3 84 0d be
       0.41598767 0.09099685 -0.14324692 -0.13820128
0002f0 e8 57 be 3e 5c ea cd bc d4 70 4a bf 0a 3d e2 3d
       0.37176442 -0.025136165 -0.7907841 0.110467985
000300 04 b8 06 3e f7 11 2c be 06 77 cb 3b eb e2 ba be
       0.13156134 -0.16803728 0.006209257 -0.3650125
000310 48 9b 88 be 92 c8 a6 3e 78 47 a9 3b ed 16 85 be
       -0.2668097 0.32574898 0.0051659904 -0.25994053
000320 a2 53 d0 bc e2 c2 c0 3d 78 4b 29 be a9 28 11 bd
       -0.025430504 0.09412171 -0.16532695 -0.035439167
000330 1e 9d 73 be 00 37 5b 3d 7c 62 4e 3b 52 a1 ad bd
       -0.23790404 0.05351925 0.0031491807 -0.08478035
000340 4e 6e 59 3e a3 f0 59 be 31 5f 38 bf dc d8 47 3e
       0.21233484 -0.21283202 -0.7202025 0.19516319
000350 2f 8e 20 3d d7 a7 fb be 78 4a 1b 3e d8 6e 0e be
       0.039198097 -0.4915149 0.15165126 -0.13909471
000360 31 26 c7 3d 21 dc 3c bd ad b0 0d be 1c 3b 5c 3e
       0.09724081 -0.04610837 -0.13836928 0.21506923
000370 df a4 eb 3d 91 73 0c be f6 8b 78 be 1e 8c 78 bf
       0.11506056 -0.1371596 -0.24272141 -0.970888
000380 a0 cb ad 3c e8 f5 b6 3e 32 37 83 bd ee 6b 31 3f
       0.02121526 0.35734487 -0.06407012 0.6930531
000390 89 f5 5d 3e e7 86 bb bd 21 b9 8a 3e 4f 3a 29 bd
       0.21675695 -0.0915659 0.27094367 -0.041315373
0003a0 3f fc bb bd 3d 05 22 3e dd b1 f6 3d 6f 0e aa bd
       -0.091789715 0.15822311 0.120456435 -0.08303534
0003b0 fa eb cb 3c d5 27 57 3e df 65 fc be 6a 90 ab 3e
       0.024892796 0.21011288 -0.4929647 0.33508617
0003c0 d5 b2 0a be 35 0a 3c be 63 7c 1d bf 8d 56 aa 3c
       -0.13544782 -0.18363269 -0.61517924 0.020793224
0003d0 3f 08 83 3d 00 af 10 3c 2d af 3e 3e d1 51 85 3d
       0.06398057 0.008830786 0.18621512 0.06509746
0003e0 6a 8a a5 3e 2b ba a0 3c 8c 74 1d 3f 1a ff 31 be
       0.32332164 0.019620022 0.6150596 -0.1738247
0003f0 32 fb 23 3d 81 ed e9 3e 62 11 d1 3d 49 05 22 be
       0.04003448 0.45689014 0.10208394 -0.15822329

module.fc1.bias f4 [1089]
000000 70 a6 17 be c0 a8 fc bd f0 a8 15 be c9 6d b4 bd
       -0.14809585 -0.12336874 -0.14615226 -0.08810002
000010 c9 f0 4f be a8 d6 e3 bd fb 06 35 be a5 83 1e be
       -0.20306696 -0.11124927 -0.17678444 -0.15479906
000020 d2 50 1f bd 11 21 fc bd 84 4d 21 be 76 a2 b3 be
       -0.038895436 -0.123109944 -0.15752226 -0.35084885
000030 9a 72 07 bc 0b 6c 35 be 6c 56 bc bd bc 5b d3 bd
       -0.008267069 -0.17716996 -0.09196171 -0.10320231
000040 84 f3 ee 3d c1 f6 5e be 1b ef 3b be 1a d5 f2 39
       0.11667541 -0.21773817 -0.1835293 0.0004631661
000050 e6 60 8a be 65 7e bc bd 23 ee 40 be f2 f3 60 bb
       -0.27027053 -0.09203795 -0.18840842 -0.003432509
000060 cc 05 40 be d6 77 48 bd bf a0 58 be fc d0 d9 bd
       -0.18752211 -0.04894241 -0.2115507 -0.10635564
000070 2a 0c a9 bd 98 d0 1f be 69 99 8f 3c d0 95 a8 bd
       -0.08254273 -0.15606916 0.017529206 -0.082316995
000080 62 0b e8 3c f1 7f 38 bd 55 6e d1 bd 7f e7 f3 bd
       0.02832574 -0.04504389 -0.10226122 -0.11909389
000090 56 56 9a bd d8 1a c3 bd a1 4d 82 3e 2e 5c 53 be
       -0.075359985 -0.095266044 0.2544985 -0.20640633
0000a0 4f 25 ab bd a2 54 6e be 79 4b 26 3e 53 fd 4f be
       -0.083567254 -0.23274472 0.16239728 -0.2031148
0000b0 ec 5e 03 be e0 c3 d2 bd 94 b8 56 be aa 5f 44 be
       -0.12829179 -0.102912664 -0.20968848 -0.19177118
0000c0 6b ce 8a bd e3 07 54 be 21 b1 28 be 57 0d 45 bd
       -0.06777652 -0.20706134 -0.1647382 -0.048108425
0000d0 70 9a 6f bd c6 ba 18 be 87 77 7c bc 97 c0 82 be
       -0.058496892 -0.14914998 -0.015409357 -0.2553756
0000e0 1c bc cd bd d8 07 dc bd d0 02 cf bd 99 86 96 bb
       -0.10045645 -0.107436836 -0.10107958 -0.004593682
0000f0 fa 17 12 be 0d 9f 20 be ee 40 20 bd d4 d1 06 be
       -0.14266959 -0.15685673 -0.03912442 -0.1316598
000100 3c d3 8c bd 3d fa 37 be 65 8d 8e bd 35 d6 3b be
       -0.06876227 -0.17966552 -0.069605626 -0.18343432
000110 40 9e 24 be 65 f5 47 be af cd 54 be 2e 01 60 be
       -0.16075993 -0.19527204 -0.20781587 -0.2187545
000120 56 c4 16 be f2 d2 8a bd a8 59 3f be e5 5a 25 be
       -0.14723334 -0.06778516 -0.18686545 -0.16147955
000130 39 bd 74 be 39 f8 65 bd d8 dc 1b 3e d9 45 1f be
       -0.23900308 -0.056144927 0.15220964 -0.15553989
000140 a1 cd 57 be 0f d3 65 bd 76 48 a9 bd cc 92 16 be
       -0.21074535 -0.056109484 -0.08265774 -0.14704436
000150 50 fe 22 be 24 ac 94 be 41 e8 d3 bd 49 54 85 bd
       -0.15917325 -0.29037583 -0.10347033 -0.06510217
000160 18 44 38 be 33 4e 1b bc 6d 8c 22 be ad 63 e0 bd
       -0.17994726 -0.009479093 -0.1587388 -0.10956512
000170 4b 63 94 be 06 ee 29 bd aa 73 59 be 71 fc 9c bd
       -0.28982005 -0.041486762 -0.21235529 -0.07665337
000180 57 e0 04 be ca ec 04 be 55 5c de bc 7c 35 e8 3c
       -0.12976204 -0.12980953 -0.027143637 0.028345816
000190 81 91 03 be 51 3f b5 bc aa ac 0d be d2 96 dc bc
       -0.12848474 -0.022124918 -0.13835397 -0.026927385
0001a0 bb aa f0 bd d2 f3 2c bd 8b 35 31 bd 3f c2 97 3c
       -0.11751314 -0.042224713 -0.043263953 0.018525241
0001b0 85 d2 53 bd ec 44 31 bd 0c cc 94 bd 55 b2 ab be
       -0.05171444 -0.04327862 -0.07265481 -0.33534494
0001c0 15 2a c0 bd b9 1b da bd 15 3d 08 3d f1 e0 9f be
       -0.093830265 -0.10649819 0.033261377 -0.31226304
0001d0 52 69 11 be f9 aa 58 3c f9 e3 48 bd 74 87 65 bd
       -0.14200333 0.013224357 -0.049045537 -0.05603738
0001e0 e3 40 6c be 7c 9e 40 be ba ab 15 be 70 da 2f be
       -0.23071627 -0.18810457 -0.1461629 -0.17173171
0001f0 c8 d1 55 3e e3 e2 85 bd 47 16 82 bd 3c 15 c4 ba
       0.20880806 -0.06537416 -0.06351905 -0.0014959942
000200 b7 d4 92 3c 75 c6 22 b9 86 30 1a be d3 01 f1 bd
       0.017923696 -0.00015523455 -0.15057573 -0.11767926
000210 96 50 89 be 0f 4b e9 bd be 40 0b 3e 19 3b a2 be
       -0.26819295 -0.113912694 0.13598916 -0.31685713
000220 53 94 42 bf 80 df 0a be 08 bf 67 be cb 3a 28 be
       -0.76007575 -0.13561821 -0.22631466 -0.16428678
000230 ac 29 9f be c4 87 6f be 56 c3 34 be bf ac ad bd
       -0.3108648 -0.23391634 -0.1765264 -0.08480214
000240 dd 87 b4 bd 0f 59 26 be f3 e3 d7 be 7d 6c 1c bc
       -0.08814976 -0.1624491 -0.421661 -0.00954735
000250 b5 3f 11 3d 0e bf 9b 3b 26 86 93 be e7 a5 61 be
       0.035461146 0.004753 -0.28813285 -0.22035943
000260 4c 66 34 be b7 ca 0a be d2 d9 32 bc 1f 4b 9b be
       -0.17617148 -0.13553892 -0.01091619 -0.3033075
000270 8f 2b c2 bc 3a 89 54 bc 82 fc 86 be 62 8c 2c bd
       -0.023702411 -0.0129721705 -0.26364523 -0.042126067
000280 c1 ca 98 be 46 02 7a 3c 25 21 2d be a5 2f 8f bd
       -0.2984219 0.015259331 -0.16907175 -0.06991509
000290 8e fd 3a bd a0 79 09 be a9 12 d9 bd 81 5a fb bd
       -0.045651965 -0.13425303 -0.10599262 -0.122731216
0002a0 7c 51 f0 be 1d 1f 24 be 7b 31 3e be 35 ee 16 be
       -0.46937168 -0.16027494 -0.18573563 -0.14739306
0002b0 55 94 40 be fa 89 ea be 14 13 43 bd 1f ef a2 be
       -0.18806584 -0.45808393 -0.047625616 -0.3182306
0002c0 81 3d 74 be f6 1b 48 be 27 ac b3 3c cd 54 e9 bc
       -0.23851587 -0.19541916 0.021932675 -0.028482819
0002d0 b2 88 f3 be 5f 06 e0 bd 8b d5 27 bd 0c 02 94 be
       -0.47565228 -0.10938715 -0.040975135 -0.28907812
0002e0 1e 86 a8 bd 9f b9 4a be d6 6c 4f be 99 fb de bd
       -0.08228706 -0.19797371 -0.20256361 -0.10887832
0002f0 86 fd 11 3d a9 7f 1c be 19 fa 68 be 44 ec 5a 3c
       0.03564217 -0.15283073 -0.22751655 0.013361994
000300 da 4d 90 bd d5 ef 1b be 45 22 c7 bd c4 68 10 bd
       -0.07046099 -0.15228207 -0.09723333 -0.035256162
000310 ed 27 6b be 6c 76 4b be 5e 5a 8c be a8 2b 29 bc
       -0.22964449 -0.19869393 -0.27412695 -0.01032535
000320 ba f6 84 be 9f ef 0d be fc 45 4e bd c0 18 70 be
       -0.25969487 -0.1386094 -0.05035971 -0.23446941
000330 d7 30 dd be 17 68 24 be 9b 18 b9 bd b8 f5 11 3c
       -0.43201324 -0.16055332 -0.09037896 0.008908682
000340 cc 5f 23 bc 8e 2d c3 bd c1 0e 3b bd 65 e1 a4 bc
       -0.00997157 -0.09530173 -0.045668367 -0.020127008
000350 a6 c0 d0 bb 68 ea 03 be 5d 3e 74 bd d0 37 1a be
       -0.0063706217 -0.12882388 -0.059629787 -0.15060353
000360 14 4a 6b bd 92 d3 e6 bd 85 ff 94 3e fd 8c 2d bd
       -0.057443693 -0.112708226 0.29101196 -0.042370785
000370 e7 bb 98 be 41 9b 73 be a6 2d a8 bd 10 be d9 bd
       -0.29830858 -0.23789693 -0.08211832 -0.10631955
000380 20 55 88 be b1 a0 4d be 3e 91 75 bc 1f cb 5d be
       -0.26627445 -0.2008083 -0.014988242 -0.21659516
000390 d1 1e d4 bd 86 01 8a bd f3 8d a8 bd eb 58 3b be
       -0.1035744 -0.06738572 -0.082302 -0.18295638
0003a0 1b f6 a5 b9 96 7b 0d be 6c 26 55 3c db 84 54 be
       -0.00031654615 -0.13816676 0.013009649 -0.20753805
0003b0 ec f4 5d be 0f 10 a9 3c d7 0e a3 be 4f ba 1a 3b
       -0.21675462 0.02063754 -0.3184726 0.0023609584
0003c0 af ed 9e be 57 df 41 be 52 f4 8d bd eb e5 1a be
       -0.31040713 -0.18932854 -0.06931366 -0.15126769
0003d0 6d 9f d6 be 3f 31 7e bd 2d 73 dc bd 67 28 db bc
       -0.41918507 -0.062058683 -0.107641555 -0.026752664
0003e0 0c 20 6b be e4 0a 8a be e6 fd 6e be 8d ec 99 bd
       -0.22961444 -0.26961434 -0.23339042 -0.075158216
0003f0 63 d0 c4 bd 09 21 17 bf 15 2b e0 bd 8a d6 3a be
       -0.09610059 -0.5903478 -0.10945717 -0.18245903

module.conv1.weight f4 [32, 1, 7, 7]
000000 b5 da 9a 3e 42 44 18 3e a2 b0 62 be 67 5a 81 bf
       0.30244985 0.14869788 -0.22137693 -1.0105714
000010 ef 81 cc ba ea 43 91 bf 49 95 03 bf 3b cd 00 3f
       -0.0015602688 -1.1348851 -0.51399666 0.50313157
000020 ee fb 47 bf 1c 05 9f bf 55 b1 62 be 80 1d 01 3e
       -0.7811879 -1.2423434 -0.2213796 0.1260891
000030 90 5f c1 be 5f 2b 6c be d4 d2 9c 3e b7 c0 24 be
       -0.3776822 -0.2306342 0.306296 -0.1608914
000040 d9 e4 1f bf 07 3c 0b 3d 07 c1 1d 3f 7d f5 8d 3e
       -0.6245857 0.033992793 0.6162266 0.27726355
000050 c4 30 96 be 10 8e a9 3e 23 9c 68 be 9d 5a 59 bf
       -0.2933408 0.33116198 -0.22715811 -0.8490389
000060 6f 7f b5 be bb d7 02 3e 42 dc 92 3e 3d 6e 15 bf
       -0.35448787 0.12777607 0.28683668 -0.58371335
000070 22 9f 00 be 87 f3 8b 3e 80 1a 17 be cb 33 9c be
       -0.12560704 0.27334234 -0.14756203 -0.30508265
000080 88 22 3d be c1 a2 05 bb 6a 6c 2a bd b5 b8 41 3f
       -0.18470204 -0.0020391198 -0.041607298 0.75672466
000090 e1 70 01 be 1d d4 64 be fd d9 a5 3c e6 84 a0 be
       -0.12640716 -0.2234654 0.020245546 -0.31351393
0000a0 2c 33 8a bf 4f 72 c7 be 87 2d 13 bd cf 05 21 bf
       -1.0796866 -0.38954398 -0.03593209 -0.6289949
0000b0 e7 48 df be 62 49 dd bd e1 5b 47 bf 19 d3 da bf
       -0.43610308 -0.10805012 -0.7787457 -1.7095672
0000c0 ca 17 14 bf dc c5 8c bd db 63 ce 3b a2 76 8a bd
       -0.578488 -0.06873676 0.006298525 -0.06760909
0000d0 7f d2 5e be bc 99 9c bd 4c 78 7f bc 06 3f c4 bc
       -0.21759985 -0.0764651 -0.015592646 -0.023955833
0000e0 bf 42 dc bd bc 85 28 3e 1a 5c 4b 3d e4 d0 6e bd
       -0.10754918 0.16457266 0.04964838 -0.058304682
0000f0 a2 45 08 3d 36 74 62 3e 52 92 8b 3d 36 2b b0 3d
       0.033269532 0.22114643 0.06815018 0.08601992
000100 18 e8 bd 3e 8b e8 be 3e 28 1b 93 bd 4b f1 b0 3c
       0.37091136 0.3728679 -0.07182914 0.021599432
000110 50 76 59 3e f1 96 e6 3d 80 3c 64 3e 6c 40 6f 3e
       0.21236539 0.112592585 0.22288704 0.23364419
000120 4d 2d af 3d cf 63 1d bf 6f 24 bb be 44 3e fc bc
       0.08553562 -0.6148042 -0.36551234 -0.03079141
000130 05 8a d4 3d 17 3a a1 3d 9b ca 35 3d c7 7e ee be
       0.10377888 0.07872408 0.044382673 -0.46581098
000140 41 20 7d bf 94 55 36 bf fc ef ce 3d a2 5f ea 3d
       -0.9887734 -0.7122433 0.10104367 0.11444022
000150 ae 4d 2f bd eb cd 44 bd 48 ee 99 be 52 2e 07 bf
       -0.04279869 -0.04804794 -0.30064607 -0.52805054
000160 23 0d 0e be f7 45 91 3e 8a 00 cc 3e 2f 13 0d be
       -0.13872199 0.2837369 0.3984416 -0.13776849
000170 cc 4d 9e 3d ef 81 a0 3d d9 2a 52 bd a7 fd 61 3e
       0.07729682 0.07837283 -0.051310394 0.22069417
000180 1d 86 ec 3d 1d d1 83 3e f1 b3 17 3d 4d 20 0d 3d
       0.115490176 0.25745478 0.03703684 0.034454633
000190 cd 83 c7 3d 52 30 44 3e cd 3f 04 3e a4 6f 9c bd
       0.09741936 0.19159058 0.12914963 -0.07638481
0001a0 53 cc a4 bd ef d3 92 bd 55 7a fa bd 3e 5e 6b 3d
       -0.08046784 -0.071693294 -0.12230364 0.057462923
0001b0 2a 35 98 3e d1 c7 49 3e 2a 41 3b bd dc c6 00 be
       0.2972806 0.1970513 -0.045716442 -0.12575859
0001c0 c3 6a 6f be 1a b0 ad be 75 8d 60 be bc 87 bf 3e
       -0.2338057 -0.33923417 -0.21928962 0.37408245
0001d0 5a c5 b7 3e a1 bf 44 bd 74 c4 c1 bd e5 35 8f be
       0.35892755 -0.048034314 -0.094612986 -0.27970806
0001e0 14 a1 01 bf e0 f4 a4 be 1c 9c 81 3e 07 9b dd 3e
       -0.5063641 -0.32218075 0.25314415 0.4328234
0001f0 bb c4 fa 3d b6 dd 1f be 74 62 dc bd bd a5 0a bf
       0.122445546 -0.1561192 -0.10760966 -0.54159147
000200 14 ce 04 bf e5 56 c7 3d b5 14 c6 3e 72 da cf 3d
       -0.5187695 0.09733371 0.38687673 0.10149087
000210 92 4d 24 3d 22 a2 c0 3c 9d 33 92 be ef d3 f3 be
       0.04011304 0.023514811 -0.28555003 -0.4762263
000220 c8 4d c9 bc ba 05 9a 3e 89 1e 5e 3e 31 19 79 3d
       -0.024573222 0.30082494 0.21691336 0.06081504
000230 e5 60 9f 3d 03 af d8 bd be d1 a2 be 0c 4e b6 bd
       0.07782153 -0.10580256 -0.31800646 -0.08901605
000240 01 3c 1f 3e d5 2b 08 3e cb 8d 2a 3d b6 81 e0 3d
       0.15550233 0.1329797 0.04163913 0.109622404
000250 df 5e e0 bd 74 5f 8d 3d 05 f7 04 3e a0 7a bb 3d
       -0.10955595 0.06902972 0.12984855 0.09154248
000260 7a 4e 59 bd ad 96 4c bd 14 99 06 3e 53 66 11 be
       -0.053053357 -0.049948383 0.13144332 -0.1419919
000270 1b 30 d4 bd 8c 09 38 3e b1 f7 b6 3d a7 80 2e bd
       -0.10360738 0.17972392 0.08933962 -0.04260316
000280 87 db 0e be 47 7e 4e be 96 51 70 be f6 b6 9f be
       -0.1395093 -0.20165358 -0.23468623 -0.31194276
000290 77 6e 84 be 8c 52 61 bd 98 a5 3c be cd d5 22 be
       -0.25865528 -0.055010363 -0.18422544 -0.15901871
0002a0 77 d8 a5 bd 81 74 d7 bd dd 34 d1 bd fc bd 06 be
       -0.08097928 -0.10520268 -0.10215161 -0.13158411
0002b0 95 8c c3 3d c2 19 12 3d 52 26 17 be 89 71 e8 3d
       0.09548298 0.035669096 -0.14760712 0.1134978
0002c0 ec aa 0d 3e ae aa d7 3d d6 1b d9 3e c6 bc b6 3e
       0.13834733 0.105306014 0.4240405 0.35690898
0002d0 45 25 b0 3e fd d0 1b bd d9 80 0b bd 90 b6 c1 bd
       0.34403434 -0.038041104 -0.034058426 -0.09458649
0002e0 f8 af c5 bd 29 e7 a2 bd 5f e5 0b 3e 76 73 36 3e
       -0.09652704 -0.079542466 0.13661717 0.17817482
0002f0 c1 1c 9a bb 40 9f 0f be 9d c5 49 be 43 a5 ad bd
       -0.0047031348 -0.14025593 -0.1970429 -0.08478787
000300 25 27 06 be 67 80 08 bd 11 2b 81 3d 8f 42 5b be
       -0.1310087 -0.03332558 0.063070424 -0.21412109
000310 18 58 c6 bd e4 80 6a be 6d 8e b3 be da 16 ac bd
       -0.09684771 -0.2290073 -0.350696 -0.08402796
000320 d1 eb 4e 3d fb 27 1e 3e 11 ad 54 3e 86 53 c1 bd
       0.05051786 0.15444939 0.20769145 -0.09439759
000330 a7 e8 7e be ef 56 ae be 6f 8d 9c bd ae 67 c8 3d
       -0.24893437 -0.340507 -0.07644164 0.097854
000340 39 e7 b3 3e 40 d3 83 3e cd 1f a4 bd 72 00 b7 be
       0.35137346 0.25747108 -0.08013878 -0.35742527
000350 8a 50 f3 be ad dc 20 be ac 4e 17 3e bf 9e cb 3e
       -0.47522384 -0.15709181 0.14776105 0.3976955
000360 d5 73 b9 3e 01 4e 2e be d0 01 f2 be 9e 8a 23 bf
       0.36221185 -0.17021944 -0.47267008 -0.6388339
000370 d2 f4 19 be 51 9f 28 3e 3a 6f 00 3f b8 96 db 3e
       -0.15034798 0.16467024 0.5016972 0.42888427
000380 22 3b 9b be 71 59 0c bf 99 f7 21 bf e3 dd da bd
       -0.30318552 -0.54823977 -0.6326843 -0.10686853
000390 49 72 a3 3e 1f ae 06 3f 99 bb ed 3e f1 ef 66 be
       0.3192313 0.5260944 0.46432188 -0.22552468
0003a0 25 35 e5 be ae 29 e9 be 88 fd e0 3c e1 63 41 3e
       -0.4476711 -0.45539612 0.027464643 0.18885757
0003b0 ba 88 ac 3e f5 88 96 3e dd aa 51 be 71 3c 42 be
       0.33698064 0.29401365 -0.20475335 -0.18968369
0003c0 31 73 82 be ce e6 d3 3d 79 5d 2b 3e 6e ee 76 3e
       -0.2547851 0.10346757 0.16734876 0.24114391
0003d0 82 5f 2c 3e 47 84 1d 3d e0 d5 5b be df 4b 34 3e
       0.16833308 0.038456228 -0.21468306 0.17607068
0003e0 96 c0 b1 be d0 59 0e 3e 23 6c d7 bc 75 94 58 3b
       -0.34717244 0.13901448 -0.02629668 0.0033047472
0003f0 1d 1b 22 3e 84 04 b6 be 01 d1 56 be a7 d3 89 3c
       0.15830655 -0.3555032 -0.20978166 0.016824557

module.conv1.bias f4 [32]
000000 7b 78 6e 3e 2f f2 ef bc 48 d2 4b be f9 fa a2 bc
       0.23288147 -0.029290287 -0.19904435 -0.019895064
000010 65 ef 89 be fd 85 3c be f4 fe 49 be 38 83 46 bd
       -0.26940456 -0.18410487 -0.19726163 -0.048464984
000020 6e ce 81 bf 04 33 86 be 88 fd 93 be 98 bc a3 bc
       -1.0141122 -0.26210797 -0.28904366 -0.01998739
000030 34 c4 24 be b8 7e c1 3c f1 73 7e be a0 dc ec bd
       -0.1609047 0.023619995 -0.24848916 -0.115655184
000040 d2 ea 45 bc a6 86 bf 3c 40 b0 f3 bd ee d8 bf bd
       -0.012079911 0.023379635 -0.118988514 -0.09367548
000050 7c dc 09 bf bf 13 00 3c 22 24 1a bd 63 94 db bd
       -0.5385206 0.007817208 -0.037632115 -0.10721662
000060 25 b7 1b be 3d d1 ed be a9 b7 0a 3e a7 c9 21 3d
       -0.15206583 -0.464487 0.13546623 0.03949895
000070 e1 45 b3 3e 5c 47 24 bd ce d7 7a bd 4f 24 24 bb
       0.3501425 -0.040107116 -0.061240964 -0.0025046056

module.conv2.weight f4 [32, 32, 3, 3]
000000 d1 d5 ae bd 0e ea 49 bd 28 fc e8 3e 54 ff 22 bf
       -0.08536876 -0.049295478 0.4550488 -0.6367085
000010 e5 cc 97 be ad 6f 42 bf ea 20 9f 3e bb 0c 82 be
       -0.2964851 -0.75951654 0.310798 -0.25400338
000020 69 5c bb bf 3b 5f 8c be 9c 6b 2e 3e 46 cb de 3e
       -1.4637576 -0.27416405 0.17033237 0.4351446
000030 7e 75 0c be 47 5e 0c bd 26 ca 87 3e 72 52 19 3e
       -0.13716695 -0.034269597 0.26521415 0.14972857
000040 eb 9c 88 3c a6 15 67 3e 77 96 9a be ec fb 3e bf
       0.016676387 0.22566852 -0.3019292 -0.7460315
000050 84 4c 33 3e 04 cd 2d 3e 63 2f ec be 89 de 0c 3e
       0.17509657 0.16972739 -0.46129903 0.13756765
000060 c3 81 17 3f 02 e1 87 3d 48 27 86 3e b2 fa 0c 3f
       0.59182376 0.06634714 0.26201844 0.5507003
000070 21 37 7c bc 9e 70 ca 3d 21 5b 03 3f 40 02 53 bd
       -0.015394003 0.09884761 0.51310927 -0.051515818
000080 f1 cb de 3c e2 e4 c6 bd a4 df 3b bd f1 3b c3 3e
       0.027196856 -0.09711625 -0.045867577 0.3813167
000090 33 7d e4 be c2 fd 35 be 8b 37 59 3e 94 b1 bf be
       -0.4462677 -0.17772582 0.21212594 -0.3744017
0000a0 d3 83 31 be d1 c9 16 3e ef a0 c1 3e a6 cd 96 3e
       -0.17335443 0.14725424 0.37818095 0.29453772
0000b0 67 78 dc 3e a8 53 dc be 6d e7 a0 3d 33 e7 8b be
       0.4306061 -0.43032575 0.07856641 -0.27324829
0000c0 ef 8c 0a 3f 7f 98 01 bf 9b 6f a9 bf e9 58 8f bf
       0.541213 -0.50623316 -1.3237184 -1.1199008
0000d0 03 10 2b bf 6c f1 4c 3e ca 99 9f bf 63 82 60 bf
       -0.66821307 0.2001397 -1.2468808 -0.87698954
0000e0 7b b3 c4 be 33 50 21 be e6 f2 a5 3e 7d db b5 3e
       -0.38418183 -0.1575325 0.3241188 0.3551902
0000f0 b6 fe d1 3e 71 43 4b bd 6a 95 12 bf f8 c6 94 bf
       0.41014642 -0.049624864 -0.5725924 -1.162322
000100 65 66 39 bf cf 2f de be 31 10 18 bf 64 87 e8 be
       -0.72421867 -0.4339585 -0.59399706 -0.45415795
000110 34 f0 34 bd f5 74 24 bf fe f8 7e bf 91 56 bc 3d
       -0.044174388 -0.6424096 -0.9959868 0.09196199
000120 45 03 32 3e 61 8e f1 3b 41 10 2c bf c2 ff 96 bd
       0.1738406 0.007371709 -0.672123 -0.07373001
000130 de dd 0d be 17 99 47 bf e2 de 61 3f 5f a6 5f be
       -0.13854167 -0.7796797 0.8823072 -0.2184081
000140 7b 07 88 be da 25 83 be d7 4c b5 be 77 28 3a be
       -0.26568207 -0.25614816 -0.35410187 -0.18179499
000150 c0 58 4b be 27 4e 94 3d 55 7c 08 be 8b 9c 84 be
       -0.19858074 0.07241469 -0.13328679 -0.25900683
000160 cd d9 bf 3e a9 ee dd 3e 3b 08 cf be 11 8d 3c be
       0.37470856 0.43346146 -0.40435967 -0.18413188
000170 95 5a 2f be 82 b4 ef bb 4b b1 11 be ec fa cb 3d
       -0.17124398 -0.0073152194 -0.14227788 0.09959969
000180 1a 83 26 be 7a 97 b4 bc ed 54 89 3e bf 1c 3b bf
       -0.16260949 -0.022044886 0.26822606 -0.7309074
000190 26 8a 4b 3d fb 50 af 3e 59 3d 9b be 36 53 e7 be
       0.049692295 0.3424147 -0.30320242 -0.45180672
0001a0 f7 63 df be 8f 8b 9c be 03 f6 5b be ac 6a af be
       -0.43630955 -0.30575225 -0.21480565 -0.34261072
0001b0 db 69 24 bb f8 e5 b1 3e a7 d0 84 3e e3 fd 2e 3e
       -0.002508751 0.34745765 0.2594044 0.17089038
0001c0 4f 7f cf 3d b2 3c 88 bf ff fb 1e bf 8e be 8c bf
       0.10131704 -1.0643523 -0.62103266 -1.0995653
0001d0 e7 f2 4c bf 8e 63 ac be 42 e3 b8 be 54 1a 21 bf
       -0.8005814 -0.33669704 -0.36110884 -0.629308
0001e0 e3 29 2d 3e 49 69 11 3d 8f af 22 bf 4d 51 56 3e
       0.1691051 0.0355008 -0.6354913 0.20929451
0001f0 59 d6 cf be 8b ac 39 bf 9d 12 bd 3d 73 60 83 3e
       -0.40593222 -0.72528905 0.09232066 0.25659522
000200 18 fe 60 3e 26 f6 3f bd 86 dc 5f bf ba d2 26 3f
       0.21971929 -0.046865605 -0.8744587 0.65165293
000210 e3 0e 1d bf e5 20 ad bf f1 a2 be be a7 07 5a 3e
       -0.6135084 -1.3525664 -0.3723369 0.21291982
000220 6f 40 6d bd 5e 9f b0 be 15 bd 04 3f 20 66 c1 3d
       -0.057922777 -0.34496588 0.51851016 0.09443307
000230 dc 48 8f 3e 74 f1 82 3f ec 5b 3c bd 5e 31 67 3e
       0.27985275 1.0229936 -0.0459861 0.22577426
000240 03 bf 53 bf eb 9b 05 3d 3d 91 d8 be 1f fe d4 be
       -0.82713336 0.032619398 -0.42298308 -0.4160013
000250 46 cd 41 bd 2c 9c ae be 17 14 b0 3e e8 c7 8f bd
       -0.047314905 -0.34103525 0.34390327 -0.07020551
000260 f6 d9 f7 3e c3 70 25 bf 46 d4 a8 bf a1 29 c8 be
       0.48408478 -0.64625186 -1.3189781 -0.3909426
000270 ef ec b2 3e 62 de 52 bf 0b b9 a6 bf 8c 0d 50 be
       0.3494639 -0.8237058 -1.3025221 -0.20317668
000280 eb 08 f0 b9 7d 43 c3 3d b7 e8 62 3e 7b 4d a0 3e
       -0.00045783012 0.09534357 0.22159086 0.31309113
000290 6f dd 6c 3e d6 29 16 bf c1 40 a5 be 0b 24 86 3f
       0.23131345 -0.58657587 -0.32275966 1.047975
0002a0 0d da a2 bf 64 d9 6c 3f 8d 18 6f 3f e3 32 05 bf
       -1.2722794 0.9251921 0.93396837 -0.5203077
0002b0 1a a3 85 3e 2f 1b 62 be ab f2 85 bf 44 5d 14 be
       0.26101 -0.22080682 -1.0464681 -0.14488703
0002c0 3b f1 95 be 15 23 54 bf 4b 3b 88 be 4f 09 8b bd
       -0.29285607 -0.8286603 -0.26607737 -0.06788885
0002d0 52 b6 92 be bf d4 9d bf bf 72 ea 3d 43 6d 98 be
       -0.28654724 -1.233055 0.11447667 -0.2977086
0002e0 0f b1 f0 3e 8f ce 8c 3c 49 1b 3e bf 04 7f 93 3e
       0.47010085 0.017188339 -0.74260384 0.28807843
0002f0 c2 bd df 3e 0c 41 21 bf 7a 0b f7 3c 57 88 1d 3f
       0.4369946 -0.6298988 0.03015684 0.61536163
000300 2d 1d 67 3d c3 c2 6a be ed c9 92 3e b0 a7 22 3e
       0.05642431 -0.22925858 0.28669682 0.1588428
000310 1c 31 b7 3d ce 6e 74 3e d5 b7 0e 3d d5 c7 ac 3d
       0.08944914 0.23870394 0.034843285 0.084365524
000320 bb 60 ad bd 82 0f e3 3e 98 8e 64 3e 74 cf 5c be
       -0.084657155 0.4434777 0.2232002 -0.21563512
000330 01 f6 e0 3e 50 0f f2 bd 26 2b c2 3e 50 28 1d c0
       0.43937686 -0.11819327 0.37923545 -2.4555855
000340 1c 5d f1 bd c0 7f d6 3b 29 dd a2 3d d1 d7 b1 3e
       -0.11785337 0.0065459907 0.07952339 0.34734967
000350 94 8f 20 3f c0 2c 6b be f4 f9 88 3e 86 fc 07 bd
       0.6271908 -0.2296629 0.267532 -0.03319981
000360 87 6b 0a 3e 72 d4 87 be 2e 76 7b bb ca bf c3 3d
       0.13517581 -0.2652927 -0.003837 0.09558065
000370 7a 00 26 be 1f 27 8b 3e 40 c7 89 be 3e 7f cd be
       -0.1621112 0.27178285 -0.26909828 -0.4013614
000380 9c 39 dc be 6b da cc bd f1 f9 74 3e e1 1c 3d 3c
       -0.43012702 -0.100025974 0.2392347 0.01154253
000390 71 56 91 be 40 1a a2 be 44 83 40 be 66 d8 0c be
       -0.28386262 -0.31660652 -0.18800074 -0.13754424
0003a0 e9 51 87 3e bd 18 05 be 17 d5 80 be b8 f9 33 be
       0.2642968 -0.12997718 -0.25162575 -0.17575729
0003b0 aa c5 5c be c6 07 20 bf 34 3d 9b be 5c c3 8a 3d
       -0.21559778 -0.6251186 -0.30320132 0.06775543
0003c0 be a8 67 3e ca 0f 3b be 9b 52 41 bf ee 91 cb bd
       0.22622964 -0.18267742 -0.7551667 -0.09939943
0003d0 58 29 1b 3f fd 75 a1 3e aa 73 39 3e 87 37 ce 3e
       0.6060996 0.3153533 0.18110529 0.4027674
0003e0 5a 7c c4 3e 4a 07 e2 3d 64 84 77 3e 4a 8e ed 3e
       0.38376123 0.110365465 0.24171597 0.4639762
0003f0 c9 e4 02 3f 5d d1 01 3f a8 c4 2b 3d bd a6 f2 3d
       0.5113035 0.5071009 0.041935593 0.11848209

module.conv2.bias f4 [32]
000000 49 cc e8 bd 20 35 50 be eb e5 54 3e 36 79 17 be
       -0.11367089 -0.20332766 0.20790832 -0.14792332
000010 2b 80 04 be 45 c3 bf 3b fb cf c0 be 24 b2 51 3d
       -0.12939517 0.0058521354 -0.37658677 0.05119528
000020 41 b6 2e bf d1 c0 fa bd 6e de a6 be 4b 5c ec be
       -0.6824685 -0.12243808 -0.32591575 -0.46164164
000030 ff bd 11 be 4d 5a 31 bd 19 96 88 be a7 fc 87 bd
       -0.14232634 -0.04329901 -0.26677015 -0.066399865
000040 7c ae c9 3d 81 1d 0d 3c c0 21 e1 bc 4b f9 80 be
       0.098477334 0.008612991 -0.027481914 -0.25190195
000050 f3 1f 64 be e6 79 26 bd d0 54 0b 3d 65 7a a6 bf
       -0.22277813 -0.040643595 0.03401643 -1.3006102
000060 ee cb 00 be 7a 04 7a be e2 dd 28 be a3 f8 77 be
       -0.12577793 -0.2441577 -0.16490892 -0.24215941
000070 f5 48 67 3d 97 1e 9f be 1a f4 c9 be c1 a4 1b bf
       0.05646606 -0.31078026 -0.39444047 -0.6079827

module.conv3.weight f4 [16, 32, 3, 3]
000000 12 29 b8 be 73 09 0f bf 0b 58 35 bf 79 67 f9 be
       -0.35968834 -0.55873793 -0.7083747 -0.48711756
000010 a6 3e 29 3f 19 07 88 bd e4 22 45 3e 4e ce ff bd
       0.6611122 -0.06641979 0.19251591 -0.12490521
000020 d8 ef e2 bf ed 38 11 3f 46 2f 4b 3e 9a d0 ac be
       -1.7729445 0.56727487 0.19842252 -0.337529
000030 89 77 e5 3d a1 4b 39 be 7c 0d 19 be 0d ff 26 3d
       0.1120444 -0.18095256 -0.1494655 0.04077058
000040 c2 84 59 be 88 fc a8 3e 11 c6 08 3d d8 11 a5 bd
       -0.2124205 0.33005166 0.033392016 -0.08060044
000050 67 bd bf 3c ed e5 e0 3d d3 3d ab be f6 fd 97 be
       0.023405744 0.10981355 -0.33445606 -0.29685944
000060 d5 c6 c9 be e5 ca f8 be 31 c7 42 3e c2 13 32 bd
       -0.3940951 -0.48592296 0.19021298 -0.043475874
000070 99 7b 12 3e f2 b6 ee 3c 30 5d eb be 8a f7 20 3d
       0.14304961 0.02913997 -0.45969534 0.03929857
000080 e7 e0 bb 3d 3a e4 81 bf 1e cf 72 bd e1 6d a9 bd
       0.09173756 -1.0147774 -0.059279554 -0.08272911
000090 d5 b8 7e bd 8f f9 9a 3d c6 95 74 3d ce ef 46 bd
       -0.06218799 0.07567131 0.059713148 -0.04856854
0000a0 fe 41 2f bd ee f4 b1 3d eb 19 1e 3d ed 92 b1 3c
       -0.042787544 0.08689295 0.038598936 0.021676505
0000b0 ee e9 2b 3e c4 f5 83 3e cd e6 72 3e a4 19 f5 3e
       0.16788456 0.25773442 0.23720856 0.47871125
0000c0 0f ab 11 bf 4c e8 89 be 24 9b 8c be bd ab 55 be
       -0.5690164 -0.2693504 -0.27462113 -0.20866294
0000d0 55 0d 1a bd c2 ef 99 be cc e3 94 bd ef ec 2b bd
       -0.03761037 -0.30065733 -0.07270011 -0.041974004
0000e0 74 e9 68 be 9a 2e 62 3e bf 39 c0 3d 68 d7 36 3d
       -0.22745305 0.2208809 0.09386014 0.04463902
0000f0 6d bd 63 3e 58 54 bd 3d 00 9c 14 3d 84 c4 1a 3d
       0.22240229 0.09244603 0.036281586 0.03778507
000100 8f 0a 2f 3e 6d 9f 0a 3f ed 5c 9d 3d 01 64 21 3e
       0.17093872 0.54149514 0.0768374 0.15760805
000110 df ad a1 bd f5 6a 43 be 33 34 1c 3c f0 2d 04 3d
       -0.078944914 -0.1908377 0.00953393 0.032270372
000120 86 b2 d0 be 42 ab 74 3d 0f 44 4a 3e b7 a5 77 be
       -0.40761203 0.059733637 0.19752525 -0.24184309
000130 67 a0 18 3e 9b 74 81 3d 4e e9 f0 3e 6f 5e 6a 3e
       0.14904939 0.06321069 0.47052997 0.22887586
000140 13 27 a0 bd fa 44 03 3d 57 c4 66 be ae a9 0f bf
       -0.07819953 0.032048203 -0.22535835 -0.56118286
000150 c6 19 88 3e 4a 2b 5a 3e 2f 5c 3d 3e 08 aa a6 3c
       0.26582164 0.21305576 0.18492197 0.02034475
000160 bd d0 e9 3c 41 05 0f 3e 4a dc 90 3e 79 d4 c2 3d
       0.028541917 0.13966848 0.28293067 0.09513182
000170 af a6 67 3e 5f 2e 2c 3e 6c 0b 54 be 03 ff e6 bd
       0.22622178 0.16814564 -0.20707482 -0.112791084
000180 b3 a9 b5 3e 71 ad 2e bd 6d a0 9a be 4d cf 3d 3e
       0.35481033 -0.042645875 -0.3020052 0.1853611
000190 0e 4f b9 bc d0 79 92 3e 8a 0d 01 3d 4a 78 cc bc
       -0.022620704 0.2860856 0.031507052 -0.024959702
0001a0 bb 83 61 bd 1a f7 bb 3e 9d 7c 7b be b2 2f b8 bc
       -0.05505727 0.3671196 -0.24559255 -0.02248368
0001b0 e3 d9 2c 3d 00 56 c0 bc 41 78 ae be 7a 23 02 3e
       0.04219998 -0.023478508 -0.3407612 0.12708846
0001c0 9b d9 c7 bc d6 79 3b bf 4f 45 64 bb 7d a4 fe bd
       -0.024395755 -0.7323278 -0.003483135 -0.124337174
0001d0 90 89 07 bf 12 eb 0e 3d 9d f2 cc 3d 12 12 f5 3d
       -0.5294428 0.03489215 0.10007212 0.11966337
0001e0 00 e0 46 be ef ae 66 bd ed 05 de bd 8a 9c 05 bd
       -0.19421387 -0.056319173 -0.10840974 -0.03261999
0001f0 d2 29 d1 3d 3c bd 6c 3e 7a 1b 20 bd 85 a3 e0 bd
       0.10213055 0.23119062 -0.039088704 -0.10968689
000200 86 3a 56 bc 61 99 4a be 3f df fd bd cf 3f 16 3e
       -0.0130754765 -0.19785072 -0.123960964 0.14672779
000210 04 df 12 3e d3 08 58 3d 4f 37 2a be e8 26 70 3b
       0.14342886 0.05274279 -0.16622661 0.0036644284
000220 ef 63 c0 bd 38 b6 8e 3d c5 f4 5d 3e 0b 14 d9 bc
       -0.09394061 0.06968349 0.21675403 -0.026498815
000230 ef 97 fc be 3f 03 ff bc bd f2 3b 3d a9 92 eb bd
       -0.49334666 -0.031129478 0.04588579 -0.115025826
000240 1c bf b4 3c 96 4e 53 3d 1a 48 de 3b d1 33 8d bd
       0.022063784 0.051588617 0.0067834975 -0.06894649
000250 0c b2 2a bd 8a 43 8b bc b4 a9 b0 3d 08 31 f4 3d
       -0.041673705 -0.016999979 0.08626118 0.119234145
000260 18 c8 9d 3d 1e df 88 be d3 0c 4d 3c 93 87 08 be
       0.077041805 -0.26732725 0.012515265 -0.13332967
000270 a9 0b 23 be 3e 04 16 3e df ba 44 be 0a 75 30 3e
       -0.15922417 0.14650056 -0.1921191 0.17232147
000280 62 fc 51 3d 96 6c 75 3d 74 0a ed bd 48 e0 fe bd
       0.05126608 0.05991801 -0.115742594 -0.12445122
000290 d7 02 0f bd d1 6b d7 bc f4 23 a6 3c 85 5c ab 3d
       -0.034914818 -0.026296528 0.020280816 0.08367256
0002a0 1d be 95 3c 06 19 28 bd 2d 5f a6 bd dc cd 5b 3d
       0.01827913 -0.04103949 -0.08123622 0.05366312
0002b0 25 3c 1f 3e 20 5b 19 be 82 9c b0 3d 08 d8 87 bd
       0.15550287 -0.14976168 0.086236015 -0.066330016
0002c0 14 16 02 bd b1 6f 12 bf be c5 f3 bd 44 3b 05 3e
       -0.031759337 -0.5720168 -0.11902951 0.1301089
0002d0 d6 fe ea bc a9 cd 6d be ea 61 8e bd 61 3a d1 3d
       -0.028685968 -0.23222984 -0.069522694 0.10216213
0002e0 8f f7 0f be 45 69 18 3f fc 4f 9b bd a5 7b 98 be
       -0.1405928 0.5953563 -0.07583615 -0.29781833
0002f0 a1 19 a4 be ed cd 02 be 24 f7 00 be c7 48 a8 bd
       -0.32050803 -0.12773867 -0.12594277 -0.08217006
000300 ff 1d 35 3e 98 1f 7e bc ab eb e9 3e d1 71 55 bd
       0.17687224 -0.015510462 0.45687613 -0.052110497
000310 5f d8 58 3e 32 a5 a9 3e d7 1d 2e be 28 9b 56 bd
       0.21176289 0.33133847 -0.1700357 -0.052394062
000320 0e 9d 02 3e 0a 7c 54 be 01 b3 e0 bd 0a 52 04 bd
       0.12755224 -0.20750442 -0.10971642 -0.0323048
000330 b4 71 01 3e 71 ba 14 be 4e 0e 88 3e 5f fa 3d be
       0.1264103 -0.14524247 0.26573414 -0.1855254
000340 64 8b b3 3c ed b1 d5 3d c6 6a 0f bf 89 8c 49 bf
       0.021917053 0.10434327 -0.560223 -0.78730065
000350 98 d6 b3 3d dd 9a 56 3c 56 dd 89 be 8d 7c 4e be
       0.08781165 0.013098446 -0.26926678 -0.201647
000360 16 47 45 3e 9e 39 64 3d 5b 6c b3 3e 77 88 32 be
       0.19265398 0.05571901 0.35043606 -0.1743487
000370 f2 2f 03 bd 94 e8 0a 3e 92 6f a3 bc 06 dd 68 3d
       -0.032028146 0.13565284 -0.019950662 0.05685141
000380 4b e2 47 be d4 24 22 bf 60 2e b4 be 6d 63 2e bf
       -0.19519918 -0.63337445 -0.3519163 -0.6812046
000390 2f 81 91 3e d2 46 83 3e 59 a2 82 3e 9c 06 5c be
       0.28418872 0.2563997 0.25514486 -0.21486896
0003a0 cb c4 74 be c1 c0 27 be 8b d1 8d be d7 e1 1e 3e
       -0.23903196 -0.16382124 -0.2769893 0.15515839
0003b0 b4 db 90 3e 2e 58 51 3c d8 31 15 be c7 ce 96 bd
       0.2829262 0.012777371 -0.14569795 -0.073636584
0003c0 2d ca 88 3e cb f0 c6 be cb d2 65 3c a1 6a 3b bf
       0.26716748 -0.38855585 0.014027308 -0.7320958
0003d0 fe d8 1d bf b8 35 d0 be 93 b6 3a bf fc 7e b3 be
       -0.6165923 -0.40665984 -0.72934836 -0.3505782
0003e0 ce ae d6 bf de 72 00 c0 3e b2 ea bf aa be 0c c0
       -1.6772096 -2.007011 -1.8335645 -2.1991372
0003f0 01 3b 9d bd 3d d3 42 bd 5a fa dc 3d 94 22 7e bb
       -0.0767727 -0.047564734 0.10789938 -0.0038777934

module.conv3.bias f4 [16]
000000 be bc fb bd b8 e2 19 bf a9 be 37 be bc d4 2e be
       -0.12291859 -0.6011157 -0.17943825 -0.17073339
000010 1e 48 89 bd dc ff a5 be be 7f bf bd ec 28 b5 bd
       -0.067032084 -0.32421768 -0.09350537 -0.08845696
000020 3d 9c 9a bc 1b 28 ca bc ec 5e 30 3d 84 ac f0 bd
       -0.018873328 -0.024677327 0.043059275 -0.11751655
000030 d9 37 2b bf 56 b3 3d be 1e 21 6a be 6a 21 2a bf
       -0.6688209 -0.18525442 -0.22864196 -0.66457236

module.conv4.weight f4 [16, 16, 3, 3]
000000 91 d0 09 bf e6 79 fd 3d 69 a6 16 3c 4b 59 d2 3d
       -0.5383387 0.12376766 0.009194949 0.102709375
000010 a8 bb a0 3c 99 19 30 be 4e 1e 6c 3d 88 54 03 bd
       0.019620731 -0.17197265 0.05764609 -0.032063037
000020 b8 0c 86 be c1 b7 ce be d3 4c d1 bc a2 b0 ad 3e
       -0.2618158 -0.40374568 -0.025549328 0.33923823
000030 6f 42 a6 be eb 30 73 3e 83 ae 59 bf 33 c7 78 bf
       -0.3247256 0.2374913 -0.8503191 -0.97178954
000040 60 14 41 be 15 cd 93 bf f0 78 83 bd 43 ac f1 3d
       -0.18855429 -1.1546961 -0.06419551 0.118004344
000050 0f aa 4c be de 19 d5 bd 46 11 04 be ba 7d fa 3c
       -0.19986747 -0.104053244 -0.12897214 0.03057753
000060 0b 5e 35 be 97 cf 12 be 82 b3 3f 3e dd 3a 6a be
       -0.17711656 -0.14337002 0.1872082 -0.22874017
000070 cf 57 d2 bd be 88 89 3e 1d 86 56 3e 2e 24 a0 bc
       -0.102706544 0.26862139 0.20949598 -0.019548502
000080 d4 56 19 3e f1 9b 15 3e 73 57 8a ba d0 f4 9e 3e
       0.14974529 0.14610268 -0.0010554626 0.31046152
000090 54 a7 b3 3d 63 5a 72 be 9b 02 77 3e 5e 12 22 bd
       0.0877215 -0.23667292 0.24122088 -0.039568298
0000a0 a6 a4 af be 5c 66 8c be f4 f6 66 3e 19 b9 91 3d
       -0.34305304 -0.27421844 0.22555143 0.07115383
0000b0 b2 5e f8 be 75 84 8a 3e 67 5c 2a 3f cf a5 8f 3d
       -0.48509747 0.27054182 0.66547245 0.07014047
0000c0 be a0 fc 3d 26 f7 31 3a b2 10 a1 ba 5a ac 07 3f
       0.12335347 0.0006788842 -0.0012288301 0.5299736
0000d0 6a 03 05 bf 8e 67 08 bf 6f 6c 5b 3c a7 ab 13 3d
       -0.51958334 -0.5328301 0.013392552 0.036052372
0000e0 f5 45 02 bf bc d5 fe bb ab a9 df be 13 50 ab be
       -0.50887996 -0.007776944 -0.43684134 -0.3345953
0000f0 e7 71 d6 3d 20 92 bf be 6e a3 67 bf d4 f8 5f bf
       0.10470944 -0.37416172 -0.9048375 -0.87489057
000100 45 b3 e6 bd e8 27 20 3d f2 8e 8f 3d b7 13 4a bc
       -0.11264662 0.039100558 0.070096865 -0.012333802
000110 0d 76 81 3d 00 ac b6 bf e1 a2 3e bc f6 97 66 3e
       0.063213445 -1.427124 -0.011635513 0.22518906
000120 e6 cc 2b bf 79 b5 7a be 5c c4 34 be 50 8d 6f be
       -0.67109525 -0.24483289 -0.1765303 -0.2339375
000130 18 b3 8f 3e 90 b4 e1 bc e6 94 a7 bd e2 24 ac 3e
       0.28066325 -0.02755192 -0.08182697 0.3362189
000140 bd 60 ab bf 4e 23 8a 3c 61 f0 27 3e 21 1b 7d be
       -1.3388897 0.016862538 0.16400291 -0.2471738
000150 ca 2d 92 bb 4d f9 bc be 66 f2 83 bd 05 64 67 3e
       -0.004461025 -0.3690895 -0.06442718 0.22596748
000160 65 de 3a bf 45 d1 41 bf d3 4e f8 bd b7 8a 96 bd
       -0.729956 -0.75709945 -0.121244095 -0.073506765
000170 4f 38 b0 be 76 d1 fe bb 01 f8 0e 3e 77 36 ce bd
       -0.3441796 -0.0077764345 0.13961793 -0.10068982
000180 cb 15 07 bb c2 b6 7e 3e d4 a3 b6 3d 68 4d f0 3c
       -0.0020612355 0.24874404 0.089179665 0.029333785
000190 68 14 cf be 0e fd d3 3e 14 82 cc be 59 b7 9e 3e
       -0.40445256 0.41404003 -0.39942992 0.30999258
0001a0 5e 03 71 3d b7 54 37 bf e0 41 8d bf c6 04 07 c0
       0.0588411 -0.7161364 -1.1035728 -2.1096663
0001b0 a1 2d 36 be a8 3e 7e 3d 2f f1 46 be 0d a3 ad 3d
       -0.17790844 0.062071472 -0.19427942 0.08478365
0001c0 ab bd bf 3e fd 35 ea be 9b b0 17 3e d6 8a e6 be
       0.37449393 -0.45744315 0.14813463 -0.45027798
0001d0 7e d1 c8 bb da 34 ed be b1 c4 44 3c 4c 1e 62 3c
       -0.006128489 -0.46329385 0.0120097855 0.013801169
0001e0 77 31 83 be b0 8b b8 be b7 da 14 be 72 73 40 be
       -0.25623676 -0.36044073 -0.14536558 -0.18794039
0001f0 e7 d0 0b be 5e 85 94 3e a8 ca b1 bb ad 9a e3 bd
       -0.13653909 0.29008 -0.00542577 -0.111134864
000200 35 68 2f bf 74 80 ac bd 39 1d 5a be 03 09 19 bf
       -0.6851838 -0.08422938 -0.2130021 -0.59779376
000210 0e f4 81 3e ff a0 39 3e ea 42 5e bd 58 cb 83 3e
       0.2538151 0.18127821 -0.054263033 0.25741076
000220 29 e5 2a be c6 ea 60 3e cb 9f 97 3e 7c 82 ab be
       -0.1668898 0.21964559 0.296141 -0.3349799
000230 37 22 48 bf 37 8e 71 3e be 9a 90 3e 9a 26 26 3e
       -0.7817721 0.23589407 0.2824306 0.16225663
000240 11 c8 db bd 5c 0d b9 3d 28 9c aa bf 74 b2 7f be
       -0.10731519 0.09035751 -1.3328905 -0.24970418
000250 9a 97 97 bb be 99 89 bd b6 f6 c2 bd 53 a6 1d 3d
       -0.0046262266 -0.06718777 -0.095197126 0.038488697
000260 85 df 98 be 86 d8 0d be a6 8b 2f 3e 42 41 67 bd
       -0.29858032 -0.13852128 0.17143115 -0.05645872
000270 ee 4b 15 3e bf 46 84 3d a5 b8 cf bd df c6 29 bd
       0.14579746 0.06458806 -0.1014264 -0.041449424
000280 13 1e 16 be 3e 8a 8a bf c7 63 5b be 1e b8 e6 3d
       -0.1465991 -1.0823438 -0.21424781 0.11265586
000290 26 06 c1 be 43 60 08 be b2 6e f6 be 9a cc 17 bf
       -0.37700003 -0.13317971 -0.4813133 -0.5929657
0002a0 73 24 5d 3e cc 9e 54 3e 55 71 11 c0 6f 21 6f 3e
       0.21595936 0.20763701 -2.2725422 0.23352598
0002b0 f4 80 d4 bd e5 78 75 be f8 d1 06 be 17 de 19 be
       -0.10376158 -0.23971899 -0.13166034 -0.15026127
0002c0 16 45 bd 3a 27 a0 2a be fa 7f 96 be 4d eb 2b bf
       0.0014440145 -0.16662656 -0.29394513 -0.67155915
0002d0 d4 04 61 3d dd e8 37 be f2 33 30 bf a9 0f 1e be
       0.054936245 -0.17959924 -0.6882926 -0.15435661
0002e0 5b 5c c0 be b5 b1 e4 be 14 77 b5 be 8d 8d a8 bf
       -0.37570462 -0.4466683 -0.35442412 -1.3168198
0002f0 08 c3 b0 bd 2d f3 f4 3d 2a 23 b2 bd f1 ce 56 bd
       -0.08630949 0.119604446 -0.08698113 -0.05244345
000300 d3 18 97 bf 35 a2 b4 be 93 ce b8 3c 78 83 9b 3d
       -1.1804451 -0.35280004 0.02255944 0.07593435
000310 2c 69 54 be 90 bb 77 3d 38 6a bb be aa 20 ab be
       -0.20743245 0.060481608 -0.36604476 -0.33423358
000320 29 94 6a be b8 63 74 be a3 76 96 3d 8f 58 89 3d
       -0.22908081 -0.23866165 0.07346847 0.06706344
000330 1c 81 8a bf 76 14 80 be bd 5d 2a 3e 3b f9 2c 3d
       -1.0820651 -0.2501561 0.16637321 0.042229872
000340 89 78 c9 3d 4c f6 20 3e 63 14 2d be b7 58 8f be
       0.098374434 0.15718955 -0.16902308 -0.27997372
000350 36 76 4e be 35 ff dd 3d 85 b9 15 3e 56 fb 16 3e
       -0.20162281 0.108396925 0.14621551 0.14744315
000360 ab 0d 13 3e 61 34 6c bf 80 5e 00 bf 2e f3 4f 3d
       0.14360683 -0.92267424 -0.50144196 0.050769024
000370 b9 a1 6a bd cb b3 b9 bd e3 b6 ca be c5 b1 8e 3e
       -0.057283137 -0.09067496 -0.39592656 0.27870002
000380 b7 6c 0b 3c f6 fb 15 bf c5 47 d0 bd 06 64 67 be
       0.008509806 -0.58587587 -0.10169939 -0.2259675
000390 a4 ce b5 be 22 83 aa be b0 5e b9 bd 62 9b 2e bf
       -0.35509217 -0.3330317 -0.09051263 -0.68205845
0003a0 b8 05 22 bf 34 15 b5 3e d0 f0 86 3e 17 17 85 be
       -0.63289976 0.3536774 0.263556 -0.2599418
0003b0 bf ef eb bd da c1 c7 3d f1 27 31 be 4e c2 de 3d
       -0.11520337 0.09753771 -0.17300393 0.108769044
0003c0 a7 be 5f 3e 2d cf 74 be ff 98 67 be 4d 27 8b be
       0.21850072 -0.23907156 -0.22616957 -0.27178422
0003d0 a3 c4 5b bf 68 73 4e be 3a c4 f0 3d 28 f5 99 be
       -0.8584692 -0.20161211 0.11756177 -0.30069852
0003e0 26 60 42 be 68 32 81 be 65 dd 2c bf f1 2b b8 3d
       -0.1898199 -0.2523377 -0.6752532 0.08992756
0003f0 74 fc 83 3e da 4f 2d bf 67 27 56 be d8 33 bf bd
       0.25778544 -0.6769997 -0.20913468 -0.0933606

module.conv4.bias f4 [16]
000000 e6 56 84 bf cd 84 9f bc 23 b6 f2 bc e4 98 ad bb
       -1.0339019 -0.019472504 -0.029627865 -0.005297767
000010 c4 cd cd bd cb 4d 06 bf ea c0 85 be fe 9e 5d 3d
       -0.10049012 -0.5246245 -0.26123744 0.054106705
000020 c5 81 07 bf fb 68 d4 3c 95 9d 94 3e 72 ed 87 bc
       -0.5293239 0.025928965 0.29026476 -0.016592715
000030 be 58 e8 bd 85 fc fe 3b 3f 85 c1 be 8a cb f5 be
       -0.11345051 0.0077815675 -0.3779697 -0.4800685
